logs/run_entropy_0.03/final_model.pt (torch, 434439 bytes, 11 tensors)

base.actor.0.weight f4 [64, 768]
0	0x3bf5d79a	0.0075025083
1	0xbcd8bb0e	-0.026456382
2	0xbd0ef5d8	-0.034902424
3	0x3d3117e6	0.043235682
4	0xb9e9f793	-0.0004462568
5	0x3b31b9d5	0.002711882
6	0xbc769801	-0.015050889
7	0xbd08db6c	-0.033412382
8	0xbbf8c9d8	-0.007592421
9	0x3d3612e3	0.044451606
10	0xbcb752bc	-0.022378318
11	0xbc37f2f9	-0.011227363
12	0xbd31b6a5	-0.043387074
13	0x3cc47cbb	0.023985257
14	0xbc74ab0a	-0.014933357
15	0x3da3032e	0.07959591
16	0x3cc17ec9	0.023620026
17	0x3d33a644	0.043859735
18	0xbce3fdfd	-0.027831072
19	0x3d28aab5	0.041178424
20	0x3d3c96ce	0.046042256
21	0x3d2577d4	0.04039748
22	0x3d3d155a	0.04616294
23	0x3ca64956	0.020298641
24	0xbd6696e2	-0.056296237
25	0xbd2b3f2a	-0.041808285
26	0xbd832d18	-0.06405085
27	0xbd9e4438	-0.077278554
28	0x3d239a4e	0.03994208
29	0x3da47159	0.08029432
30	0xbd42ae77	-0.047529664
31	0x3d1ad980	0.03780508
32	0x3d832c33	0.06404915
33	0x3d2b03d6	0.041751705
34	0xbd2248ef	-0.039620336
35	0x3cf005cd	0.029299641
36	0xbcf8d3b8	-0.030374393
37	0xbd47a513	-0.04874141
38	0x3c04090d	0.0080587985
39	0xbc71102c	-0.014713328
40	0xbcbc3e3c	-0.022978894
41	0x3dcd2c57	0.10018223
42	0xbd4865a3	-0.048925053
43	0x3d759e07	0.05996516
44	0xbd5e540f	-0.054279383
45	0x3c08daee	0.008352978
46	0x3d3aae8d	0.04557662
47	0x3c324298	0.010880135
48	0xbd63c072	-0.055603452
49	0xbcce57bf	-0.025188325
50	0xbdb03975	-0.08604709
51	0x3b2abb86	0.0026051714
52	0x3d79234d	0.06082468
53	0x3dabbd81	0.083857544
54	0xbd6044a8	-0.054752976
55	0x3d48b4cf	0.049000558
56	0x3c9f515a	0.019447971
57	0xbcb52fc4	-0.022117503
58	0x3d18d396	0.03731116
59	0x3cbe419c	0.023224644
60	0x3cedf603	0.029047972
61	0x3cb8b454	0.022546925
62	0x3d4ec9b0	0.050485313
63	0x3d915a7d	0.070973374
64	0xbd89567a	-0.06705947
65	0xbd1b9c2c	-0.037990734
66	0x3d27cb30	0.04096526
67	0x3cd3c0eb	0.025848826
68	0xbd94216d	-0.07232938
69	0x3d20a507	0.039219882
70	0xbc2996ba	-0.010350877
71	0xbcd959f7	-0.026532156
72	0x3d0f78f4	0.03502746
73	0x3d5fd5d3	0.054647278
74	0x3bdb00e0	0.006683454
75	0xbcf3970a	-0.029735107
76	0x3c963ecf	0.018340496
77	0xbc95ea25	-0.018300125
78	0xbd3455aa	-0.044027008
79	0xbd7e5317	-0.06209096
80	0xbd2d4bee	-0.04230874
81	0x3c9064c2	0.01762617
82	0x3cd3cbc1	0.025853993
83	0xbce13e51	-0.027495535
84	0xbc18d33f	-0.009327709
85	0x3d139156	0.036027275
86	0x3d7bfd1e	0.06152069
87	0x3d1dc3ec	0.038516924
88	0x3dc5e4d0	0.09662783
89	0xbbe97327	-0.007124323
90	0xbdf4b945	-0.119494
91	0xbc9985d5	-0.018740574
92	0x3d1f8c46	0.038952135
93	0xbc7fe0fb	-0.015617604
94	0x3d0100ba	0.031494834
95	0x3d64915e	0.055802695
96	0xbd7cbb2f	-0.06170195
97	0xbd055772	-0.032554097
98	0xbdbe0948	-0.09279114
99	0xbcaa9ac5	-0.020825753
100	0xbdb0e454	-0.086373
101	0x3df9df66	0.12200813
102	0x3ddb5788	0.10710055
103	0x3da4694f	0.080278985
104	0x3c38dba5	0.011282836
105	0x3cef12b7	0.029183729
106	0xbdf2a4bc	-0.11847827
107	0x3caf5796	0.021404069
108	0x3d36a059	0.044586513
109	0xbd93d857	-0.07218998
110	0xbc3d533c	-0.011555489
111	0xbd20d3fb	-0.03926466
112	0x3d919ba8	0.07109767
113	0x3cd15a50	0.02555576
114	0x3ca20158	0.019776031
115	0xbd279a74	-0.040918782
116	0xbc806670	-0.015673846
117	0xb8f8d7c9	-0.00011865755
118	0xbd7bca76	-0.06147238
119	0xbb3850ad	-0.0028124258
120	0x3d5fa733	0.054602813
121	0x3d95c79e	0.073134646
122	0x3d82967d	0.063763596
123	0xbd1ae9bb	-0.03782056
124	0xbc4826cb	-0.01221628
125	0xbd10c44a	-0.035343446
126	0xbca6b3e6	-0.020349454
127	0xbd106188	-0.035249263
128	0x3dbcff94	0.09228435
129	0x3baaf03b	0.005216626
130	0x3d2cd65b	0.042196613
131	0x3d9b9391	0.075965054
132	0x3d995002	0.074859634
133	0xbd6236da	-0.05522809
134	0x3d30d9e6	0.043176554
135	0xbca551a1	-0.020180525
136	0x3d0879df	0.03331935
137	0xbd4b7289	-0.049669776
138	0xbd3cbf88	-0.046081096
139	0xbcdd059c	-0.026980214
140	0x3acffd35	0.0015868308
141	0xbd75a9a2	-0.059976228
142	0xbccff24d	-0.025384093
143	0x3d919188	0.07107836
144	0x3d2fe44e	0.042942338
145	0x3d8d0e86	0.06887536
146	0xbd9cd0d0	-0.07657015
147	0x3db4b7d9	0.08824129
148	0x3c24a9eb	0.010050277
149	0xbc1fb919	-0.009748721
150	0x3cb2581c	0.02177053
151	0xbcdf1c98	-0.027235314
152	0xbc048fae	-0.0080908965
153	0xbaf5fe38	-0.001876778
154	0x3d8296f4	0.06376448
155	0x3d182603	0.037145626
156	0xbcad8bd9	-0.021184849
157	0x3c128d9b	0.008944894
158	0xbd9057f5	-0.070480265
159	0xbdcfdff8	-0.101501405
160	0xbd14cf5e	-0.036330573
161	0x3cbfdf87	0.023422016
162	0x3de96e76	0.11398022
163	0xbd2decd6	-0.042462192
164	0x3d324527	0.04352298
165	0x3c54c949	0.012987443
166	0xbdc92f15	-0.09823433
167	0xbdd25d3b	-0.102716886
168	0xbc091f93	-0.008369344
169	0xbd571ba0	-0.05251658
170	0xbd458be7	-0.048229124
171	0x3d5d2440	0.05398965
172	0x3d7a6bf1	0.061138097
173	0xbdb7a60c	-0.08967218
174	0xbda0c4a5	-0.07850007
175	0x3e19572e	0.14974663
176	0xbdf58ea5	-0.11990098
177	0x3a7100b9	0.0009193528
178	0x3d12c259	0.035829876
179	0x3caa7eb0	0.020812362
180	0x3d0f999d	0.035058606
181	0xbd5052ce	-0.05086022
182	0xbdc6b0e5	-0.09701709
183	0xbdcc4629	-0.099743195
184	0xbd4fe771	-0.05075783
185	0x3d0757b5	0.03304263
186	0xbdd929aa	-0.1060365
187	0xbd3166f8	-0.04331109
188	0xbcea3e87	-0.028594268
189	0x3bfa986f	0.007647566
190	0x3c4b8bbc	0.012423452
191	0xbc2f8138	-0.0107119605
192	0xbcd2a7ae	-0.025714722
193	0x3db60f9d	0.08889697
194	0x3db5636f	0.08856856
195	0xbd065873	-0.032799195
196	0xbb8dcb7a	-0.004327235
197	0xbd132b3f	-0.035929915
198	0x3d334f03	0.043776523
199	0x3ad9e429	0.0016623783
200	0xbd2d1931	-0.042260353
201	0xbc39340e	-0.011303915
202	0xbde19840	-0.110153675
203	0x3bc5a4df	0.006031617
204	0xbb1aef6b	-0.002364124
205	0x3d3d8c03	0.046276104
206	0xba84585d	-0.0010097135
207	0x3ca810db	0.02051585
208	0x3c711ee7	0.01471684
209	0xbd6486f3	-0.05579276
210	0x3db475e4	0.08811548
211	0xbd6f92fe	-0.058489792
212	0x3d4a800b	0.049438518
213	0xbd95ff28	-0.07324058
214	0xbd475bc4	-0.0486715
215	0xbc7e59df	-0.015524357
216	0x3ab8b727	0.001409267
217	0xbd1cf4a1	-0.038319234
218	0x3d250dfd	0.040296543
219	0xbd230021	-0.039795045
220	0xbcc15369	-0.023599343
221	0x3d16e453	0.03683884
222	0x3b0180cb	0.0019760604
223	0x3c9c4549	0.019076006
224	0xbce09a3c	-0.027417295
225	0xbcbedec5	-0.023299584
226	0xbd738cb0	-0.059460342
227	0x3cb39155	0.021919886
228	0x3d2d2088	0.042267352
229	0x3d8c854a	0.0686136
230	0x3d4debdb	0.050273757
231	0x3d02d6c4	0.031943098
232	0xbd10e7bf	-0.03537726
233	0x3cc60c1e	0.0241757
234	0xbbd5d54c	-0.006525671
235	0xbb540761	-0.003235303
236	0x3bc1d573	0.0059153377
237	0x3dafadd2	0.085780755
238	0xbd7eb5ce	-0.0621851
239	0x3d136bcb	0.03599147
240	0x3bfcb0a9	0.007711489
241	0x3c620c57	0.013796887
242	0x3d0ecb14	0.03486164
243	0x3c0b7300	0.008511305
244	0xbbbbe421	-0.005733982
245	0x3d289b97	0.041164007
246	0x3bc3318d	0.0059568346
247	0xbd12b524	-0.03581728
248	0xbd832585	-0.06403641
249	0xbccc85f1	-0.024966212
250	0x3cfb5813	0.030681645
251	0xbd9e2252	-0.0772139
252	0xbb3666b9	-0.0027832224
253	0x3c1c73d1	0.009549097
254	0x3ca8ac65	0.020590017
255	0x3c34eb8f	0.01104249

base.actor.0.bias f4 [64]
0	0xbbee1f0f	-0.007266886
1	0x3aa6d511	0.0012728294
2	0xbc21d7ba	-0.009878093
3	0xbc2c231b	-0.010506417
4	0x3c0b414c	0.008499455
5	0xbbad9da8	-0.005298335
6	0xba776cf6	-0.00094385387
7	0x3ad08352	0.0015908277
8	0xbbcdfd81	-0.0062863235
9	0x3ca389b2	0.01996312
10	0x3bd8ba7c	0.0066140275
11	0xbc0f75aa	-0.008756081
12	0xbc320e1f	-0.010867625
13	0xbc62320d	-0.013805878
14	0x3b4606f8	0.0030216556
15	0xbc01d024	-0.00792316
16	0x3b56c381	0.0032770338
17	0x3c302538	0.010751061
18	0xbc3527c3	-0.011056843
19	0xbc0a9081	-0.008457304
20	0xbbf9bb86	-0.0076212315
21	0x3a7df682	0.00096879166
22	0x3afc8596	0.0019265886
23	0xbc014fa7	-0.007892526
24	0xbc10902e	-0.008823438
25	0xbc447de1	-0.0119929025
26	0xbbfc443d	-0.0076985643
27	0xbb0b2d0f	-0.0021236574
28	0xbba5c6f5	-0.005059118
29	0xbc3cea63	-0.0115304915
30	0xbbcd6392	-0.006267973
31	0xbb8bb82f	-0.0042638998
32	0xbc17e45f	-0.0092707565
33	0xbc181072	-0.009281265
34	0xbb3a2b2f	-0.0028407087
35	0x3c57f8c9	0.013181874
36	0xbbbd3086	-0.0057736067
37	0xbac1e5d4	-0.0014793226
38	0xbbba625f	-0.0056879963
39	0xbb8b3795	-0.0042485693
40	0xba7f8338	-0.0009747031
41	0x3b996832	0.0046816105
42	0xbb6d32b8	-0.003619356
43	0x3c26045e	0.010132877
44	0xbbe1d5ea	-0.0068919556
45	0xbbc27a87	-0.0059350166
46	0xbc124310	-0.008927122
47	0x3c29975b	0.010351027
48	0xbb0b8b26	-0.0021292656
49	0xbc334e07	-0.010943896
50	0xbb71c55e	-0.0036891322
51	0x3bd7466e	0.006569675
52	0xbc321e4b	-0.01087148
53	0x3a87330e	0.0010314898
54	0x3c77bc00	0.015120506
55	0x3b0e680e	0.0021729502
56	0xbb8486ba	-0.004044381
57	0xbb30213c	-0.0026875278
58	0x3b6c20d5	0.0036030312
59	0xbc22fc4a	-0.009947846
60	0xbb7da068	-0.0038700346
61	0x3b6f257a	0.0036490844
62	0xbc5ec5d9	-0.013596975
63	0xbc0898ea	-0.008337239

base.actor.2.weight f4 [64, 64]
0	0x3e2729d7	0.16324554
1	0x3ea7fd18	0.32810283
2	0xbe0a8fe8	-0.13531458
3	0x3d96554e	0.07340489
4	0xbe087d1a	-0.13328972
5	0x3e756c98	0.23967206
6	0x3d9b5e31	0.07586325
7	0xbe4051bf	-0.18781184
8	0xbd5c450e	-0.053776793
9	0x3df290bd	0.11844013
10	0x3cf4e816	0.029895823
11	0x3d075484	0.033039585
12	0x3d7c34e4	0.061573878
13	0xbe14fefc	-0.14550394
14	0xbc91b6fd	-0.01778745
15	0x3e69ca58	0.22831094
16	0x3c827687	0.015925659
17	0x3d08bfa3	0.033385884
18	0xbc1a5bf8	-0.009421341
19	0xbe3b5a36	-0.18296131
20	0xbe05ccd3	-0.13066415
21	0xbdfdafdd	-0.12387059
22	0xbe0a5713	-0.13509779
23	0x3e528c60	0.20561361
24	0xbe34ed10	-0.17668557
25	0xbe294b13	-0.16532545
26	0x3e0c7450	0.13716245
27	0xbc57fb82	-0.013182523
28	0xbeb8a020	-0.36059666
29	0xbe6771f1	-0.22602059
30	0x3e56ca3a	0.20975581
31	0xbedabaa4	-0.4272052
32	0x3d10fefd	0.035399426
33	0xbe169a6b	-0.14707343
34	0xbe371fc6	-0.17883214
35	0xbd8352db	-0.06412288
36	0xbce647dc	-0.028110437
37	0x3dadebfb	0.08492275
38	0xbe3df3e5	-0.1855007
39	0xbe233736	-0.1593903
40	0xbddfcdc8	-0.109279215
41	0xbeb61cc9	-0.35568836
42	0xbe18743d	-0.14888091
43	0x3ed9ebdf	0.42562768
44	0xbe8799ed	-0.26484624
45	0x3da27c57	0.07933872
46	0xbd8786dd	-0.0661752
47	0x3e9c614b	0.3054298
48	0x3cea1e12	0.028578792
49	0x3da14a28	0.07875472
50	0xbdfbfc99	-0.123040386
51	0xbc8228f4	-0.015888669
52	0x3e3d7bcf	0.1850426
53	0x3ebf287b	0.37335572
54	0xbcacb97b	-0.021084538
55	0xbd72eeeb	-0.05930988
56	0xbe0fa23c	-0.14026731
57	0xbe0a8699	-0.13527907
58	0xbd2529c1	-0.040323023
59	0xbc8423ef	-0.016130416
60	0xbe1a6421	-0.15077259
61	0x3d642e60	0.05570829
62	0x3e258f3c	0.16167921
63	0x3e8da9e0	0.27668667
64	0xbdc19f79	-0.09454245
65	0x3e31b2fc	0.17353433
66	0x3e228e67	0.15874635
67	0x3e9f2a9c	0.31087196
68	0xbe791851	-0.24325682
69	0xbdd70bfc	-0.10500333
70	0xbe44c4b0	-0.19215655
71	0xbdd73969	-0.10508997
72	0x3e5f5e54	0.21813327
73	0xbe7e5ff1	-0.24841286
74	0xbe98aea1	-0.2982073
75	0x3e498c4b	0.19682424
76	0x3da14b99	0.07875747
77	0xbe109f7d	-0.1412334
78	0xbd130c65	-0.035900492
79	0xbeb60d93	-0.3555723
80	0x3e02c3e5	0.1277004
81	0xbe4d00b5	-0.20019801
82	0x3e8e8a6b	0.2783998
83	0xbe06dea6	-0.13170871
84	0x3d1e31b7	0.03862163
85	0x3d1bc452	0.038029023
86	0x3e180399	0.14845122
87	0xbd62d527	-0.05537906
88	0x3d82d979	0.06389136
89	0x3e18f34b	0.14936559
90	0x3e08dbd3	0.13365106
91	0x3d164c00	0.036693573
92	0xbea67175	-0.32508436
93	0x3d8a9cec	0.06768212
94	0x3e413691	0.18868472
95	0x3e5154f6	0.20442566
96	0xbd480efd	-0.04884242
97	0x3e0f4d22	0.13994268
98	0xbed21f2d	-0.4103941
99	0x3d2af15c	0.041734084
100	0x3e6debb5	0.23234446
101	0x3d98b945	0.07457212
102	0xbd5ab2d8	-0.053393215
103	0xbe864d74	-0.26230967
104	0xbd68a6f6	-0.05679985
105	0x3d74cd7c	0.059766278
106	0xbe24f2ac	-0.16108197
107	0xbd9ccc21	-0.07656122
108	0xbc94ff58	-0.018188164
109	0xbe785362	-0.24250558
110	0xbcac984c	-0.021068715
111	0xbd095926	-0.033532284
112	0x3dd7adfb	0.10531231
113	0x3e10d264	0.14142758
114	0x3e37b2be	0.17939278
115	0x3e04044f	0.12892269
116	0x3d1c853c	0.038213
117	0x3d6053df	0.054767486
118	0x3e7c246e	0.24623272
119	0xbdadfbb9	-0.08495278
120	0x3efb25df	0.4905233
121	0xbe608623	-0.21926169
122	0x3c1f46cc	0.009721469
123	0x3c7f3365	0.015576218
124	0xbd054f99	-0.032546613
125	0xbe67d695	-0.2264045
126	0xbc255f26	-0.010093486
127	0x3cef4838	0.029209241
128	0x3e3fb05b	0.18719618
129	0x3e0a8827	0.135285
130	0xbe5ede6f	-0.21764539
131	0x3c82857e	0.015932795
132	0xbf18a359	-0.5962425
133	0xbde1f8ca	-0.11033781
134	0x3dafedce	0.085902795
135	0x3e51943a	0.204667
136	0x3da74be1	0.0816877
137	0xbe125806	-0.14291391
138	0xbd456b58	-0.048198074
139	0xbdfd1ba7	-0.1235879
140	0x3d413b32	0.047175594
141	0x3db7fb45	0.08983473
142	0x3c0ddbff	0.008658408
143	0xbea93e04	-0.33055127
144	0xbc6aa5f3	-0.014321792
145	0x3d9db292	0.07700075
146	0xbeb22bad	-0.34798947
147	0x3d9d9b99	0.076956935
148	0x3d9a1eaf	0.07525384
149	0xbe0d0aff	-0.13773726
150	0xbdf508ce	-0.1196457
151	0xbcb7dd57	-0.02244441
152	0x3e4268a4	0.1898523
153	0xbe3bfaf2	-0.18357447
154	0xbc2f5e22	-0.010703595
155	0x3b20113c	0.0024424335
156	0x3cbb62b2	0.02287421
157	0x3e7f9d18	0.2496227
158	0x3dc11e8a	0.09429653
159	0xb916145b	-0.00014312698
160	0x3db9160c	0.09037408
161	0xbe061edc	-0.1309771
162	0x3e4de1e4	0.20105702
163	0x3d36dc76	0.04464384
164	0x3e51b207	0.20478068
165	0x3dc26023	0.09490993
166	0xbeb1f830	-0.34759665
167	0x3b8da8e5	0.0043231123
168	0xbd6ac8c5	-0.057320375
169	0x3d173ea9	0.03692499
170	0xbd1a2217	-0.037630167
171	0x3d053abc	0.032526717
172	0xbcde13ef	-0.027109114
173	0xbea821e5	-0.3283836
174	0xbef29911	-0.47382405
175	0x3bd29a91	0.006427117
176	0x3c46baa3	0.012129459
177	0xbefd9915	-0.49530855
178	0x3c968375	0.01837323
179	0xbdad1f41	-0.08453227
180	0xbe39995b	-0.18124907
181	0x3dd30a97	0.10304754
182	0xbd9a6b1c	-0.07539961
183	0xbd9151cd	-0.070956804
184	0xbd136d9f	-0.035993215
185	0x3c1a75cb	0.009427498
186	0xbc848971	-0.016178818
187	0xbde8a87e	-0.11360262
188	0x3d1c2973	0.038125467
189	0x3e8a5881	0.27020648
190	0xbd922fbf	-0.07138013
191	0xbe1e15a8	-0.15437949
192	0x3e7e010a	0.24805084
193	0x3be36e73	0.006940657
194	0xbe1eaf1f	-0.15496491
195	0x3e6b1777	0.2295817
196	0x3e40786c	0.18795937
197	0x3e687882	0.2270222
198	0xbde21be8	-0.11040479
199	0xbc09dc51	-0.008414344
200	0xbde2d0a2	-0.1107495
201	0x3d90b3c9	0.07065541
202	0xbe15e00c	-0.14636248
203	0xbe8f0c72	-0.27939183
204	0x3cb5d7ad	0.022197569
205	0x3e7057dc	0.23471016
206	0x3e268ebb	0.16265385
207	0xbeae7cbd	-0.34079543
208	0x3e6abcae	0.22923538
209	0x3ec61e0a	0.38694793
210	0x3e23a5b0	0.15981174
211	0xbd943e50	-0.07238448
212	0xbe34f861	-0.17672874
213	0xbe3e8a45	-0.18607433
214	0x3c5ff7ca	0.013669917
215	0xbed25e42	-0.41087538
216	0xbe2766d7	-0.16347824
217	0xbe12a162	-0.14319375
218	0x3d58be83	0.05291606
219	0x3c19ecfe	0.009394882
220	0x3e654f29	0.22393478
221	0x3d896105	0.06707958
222	0xbd877ec7	-0.06615978
223	0xbe8e4017	-0.27783272
224	0xbe8e1b76	-0.27755326
225	0xbdb0bb60	-0.08629489
226	0x3e23a04a	0.15979114
227	0x3d1140e8	0.03546229
228	0x3bb22d7f	0.0054375525
229	0xbdcf285e	-0.10115121
230	0x3dfb1cd1	0.12261356
231	0x3d6c1688	0.057638675
232	0xbc39c625	-0.011338745
233	0xbe75e2b4	-0.24012262
234	0x3e3545d5	0.1770242
235	0xbdaffc00	-0.08592987
236	0xbe0c876f	-0.13723539
237	0xbdef13e6	-0.11673717
238	0xbd3ed686	-0.046591304
239	0xbc7ff91e	-0.015623359
240	0xbe0e4036	-0.13891682
241	0x3db17d41	0.086664684
242	0xbe6942ea	-0.22779432
243	0x3e6d1b60	0.23154974
244	0xbd35bda4	-0.04437031
245	0x3e91ddf5	0.28489652
246	0x3d96a18c	0.07355031
247	0x3cba5b66	0.02274866
248	0x3ec5ca21	0.38630775
249	0x3e3ddbb3	0.1854084
250	0x3e5b0b3e	0.21391007
251	0x3e640251	0.22266509
252	0x3df2c52e	0.11854015
253	0xbe0e4910	-0.13895059
254	0xbd08c5f5	-0.03339191
255	0xbd92668c	-0.071484655

base.actor.2.bias f4 [64]
0	0x3bdd1a2b	0.006747504
1	0xbb6c94e3	-0.0036099486
2	0x3ae39a0e	0.0017364637
3	0xbb00993f	-0.0019622592
4	0xbb899ed0	-0.00419984
5	0xbc739311	-0.014866606
6	0xbb9f2763	-0.00485699
7	0x3b8e218f	0.0043374966
8	0x3b80633e	0.0039180806
9	0xbbb3e697	-0.005490135
10	0xbc2912bb	-0.010319407
11	0xbbefa822	-0.007313744
12	0xbc54637d	-0.012963173
13	0x39ca3ff5	0.00038576094
14	0xbbe6e94c	-0.007046854
15	0x3bd81cfd	0.0065952525
16	0xbb799db8	-0.0038088392
17	0xbc0504fa	-0.008118862
18	0xbc3085b9	-0.0107740695
19	0xbbdbc92c	-0.006707331
20	0x39f20afc	0.0004616602
21	0xbca699b8	-0.02033697
22	0x3b6b0379	0.0035860224
23	0xbcaafde6	-0.020873021
24	0x3bd36730	0.00645151
25	0xbadc1a0a	-0.0016792428
26	0xbbd7ece7	-0.0065895203
27	0xbc762abf	-0.01502484
28	0xbc023454	-0.007947046
29	0xbc0ee078	-0.00872051
30	0x3c1e348e	0.009656085
31	0xbc82f02f	-0.01598367
32	0xbbb30be5	-0.0054640644
33	0xbb6236cb	-0.0034517522
34	0xbc18964b	-0.009313176
35	0xbb8fb84e	-0.0043859845
36	0x3abf0a2c	0.0014575175
37	0xbc57ddd9	-0.013175451
38	0xbc1bd5da	-0.009511435
39	0xbc620531	-0.013795183
40	0xb9ca6b98	-0.00038608606
41	0xbb913e41	-0.00443247
42	0x3a345e86	0.000688054
43	0xb962f17d	-0.00021643001
44	0x3c91762f	0.01775655
45	0x3bab25cf	0.005223013
46	0xbbd21d0b	-0.0064121536
47	0xbc3a0fb7	-0.011356286
48	0xbba645d5	-0.0050742426
49	0x3c2c3a14	0.010511894
50	0x3b33369f	0.002734579
51	0xbc1faf71	-0.009746418
52	0xbc571643	-0.013127866
53	0xbc8f2653	-0.01747433
54	0xbb250618	-0.0025180634
55	0x3bdcf1d1	0.006742694
56	0x3a251ce2	0.00062985544
57	0x3c00451f	0.00782898
58	0xbb2a0644	-0.0025943676
59	0xba83f864	-0.0010068533
60	0xbad2ccdf	-0.0016082785
61	0xbb66990b	-0.0035186436
62	0xbbe1e86e	-0.006894163
63	0xbb8955e8	-0.004191149

base.critic.0.weight f4 [64, 768]
0	0xbb911957	-0.0044280696
1	0x3da3ef1b	0.0800459
2	0x3bbd5272	0.0057776505
3	0xbc432c13	-0.011912364
4	0x3c2c1dbc	0.010505136
5	0xbd1136e8	-0.035452753
6	0xbd26f630	-0.040762126
7	0xbbd35ef6	-0.006450529
8	0xbd09f295	-0.03367861
9	0x3d867c7e	0.06566714
10	0xbd773667	-0.060354616
11	0x3d072056	0.032989822
12	0xbd9c79fc	-0.07640454
13	0x3cf61268	0.030038074
14	0x3d51f80a	0.05126194
15	0xbd11c2ab	-0.03558604
16	0xbd83575b	-0.06413146
17	0x3d2fb07f	0.04289293
18	0xbc5e2b95	-0.013560195
19	0x3d06381a	0.032768346
20	0xbdbbe543	-0.091745876
21	0xbae8291f	-0.001771245
22	0xbd671f4d	-0.056426335
23	0xbd96a3a9	-0.073554344
24	0x3d5b425c	0.053530082
25	0x3c93fb45	0.01806415
26	0x3db5a5ef	0.0886954
27	0x3d443938	0.04790613
28	0xbd9f41cc	-0.07776222
29	0x3c236dfb	0.009974952
30	0x3c965510	0.018351108
31	0x3d0e4dfb	0.034742337
32	0x3daec352	0.08533348
33	0x3c8b3924	0.01699502
34	0xbcb0d565	-0.02158613
35	0xbd8453e8	-0.06461316
36	0x3d7433c1	0.05961967
37	0x3d4b2445	0.049595136
38	0xbd70f8bd	-0.058830965
39	0x3d13461b	0.03595553
40	0x3da6dc36	0.08147471
41	0x3ddd6af0	0.10811412
42	0xbcefbd60	-0.029265106
43	0xbd0f91ce	-0.03505116
44	0x3dbba644	0.09162572
45	0x3c3412c2	0.0109908
46	0xbd9b14e6	-0.075723454
47	0xbc1c9e81	-0.009559275
48	0x3c57b4ab	0.013165633
49	0xbd886364	-0.06659582
50	0x3d937c13	0.072014
51	0x3d8f2bc8	0.069907725
52	0xbce8e653	-0.02843014
53	0x3d18069f	0.03711569
54	0x3d9428d4	0.0723435
55	0xbda4a139	-0.08038563
56	0xbd0c6dd1	-0.034284417
57	0x3da34449	0.07972009
58	0x3cc204eb	0.023683986
59	0x3b9331c4	0.0044920165
60	0xbc68f372	-0.014218198
61	0x3d1dfdc8	0.038572103
62	0xbc95a2f7	-0.018266184
63	0xbc6d2b81	-0.014475704
64	0xbc074af9	-0.008257621
65	0xbe01f82c	-0.12692326
66	0x3d918115	0.071046986
67	0xbd0861c0	-0.033296347
68	0x3d034d1a	0.03205595
69	0xbc1825c3	-0.009286347
70	0x3d71d082	0.05903674
71	0xbcec703c	-0.028862111
72	0x3d0744c8	0.03302458
73	0x3d9f134f	0.07767355
74	0xbccc6aa4	-0.024953194
75	0xbd319a35	-0.043359954
76	0x3d3cc162	0.04608286
77	0xbdf6f06b	-0.12057575
78	0x3dc6e651	0.09711898
79	0x3c16ad9f	0.009196668
80	0xbca762ba	-0.020432819
81	0x3d2c45e1	0.04205883
82	0x3dd68f60	0.10476565
83	0xbcab6d5b	-0.020926168
84	0xbd13004f	-0.035888966
85	0x3ca25fcb	0.019821068
86	0x3d10bd40	0.035336733
87	0x3ca96843	0.020679599
88	0xbdb421fc	-0.087955445
89	0x3d38b6f8	0.045096368
90	0x3d7f5ffb	0.062347393
91	0x3dcc7291	0.09982789
92	0xbd1f984d	-0.038963605
93	0x3d1d7890	0.038445055
94	0x3c5f43a9	0.013626971
95	0xbcead290	-0.028664857
96	0xbd9f131e	-0.07767318
97	0x3cf1bfda	0.029510427
98	0xbde56a39	-0.11201901
99	0x3d6f4824	0.058418408
100	0xbd300dcd	-0.04298191
101	0x3cdb8ecc	0.02680149
102	0x3a5e3cda	0.00084776955
103	0x3c253f9f	0.010085969
104	0xbdb9328d	-0.09042845
105	0xbd03f43e	-0.03221535
106	0x3bd0b8b1	0.006369673
107	0xbd8d02ed	-0.06885324
108	0x3d8912a5	0.06693009
109	0xbca82891	-0.020527156
110	0x3c355faf	0.011070176
111	0xbd339c26	-0.043850087
112	0xbdae8123	-0.085207246
113	0xbd9207a0	-0.071303606
114	0xbc208862	-0.009798141
115	0xbde868e9	-0.11348135
116	0x3d211930	0.03933066
117	0xbd8bb111	-0.06820882
118	0xbcd6f9b5	-0.026242116
119	0xbd3ba850	-0.045814812
120	0xbd418a0a	-0.047250785
121	0xbb9ad051	-0.0047245403
122	0x3d2c7047	0.042099264
123	0x3d96e2db	0.07367488
124	0x3dd76dd0	0.10518992
125	0x3d3d87af	0.046271976
126	0xbbad1f60	-0.005283281
127	0x3bdca52a	0.0067335563
128	0xbc9db96d	-0.019253457
129	0x3d379adf	0.04482543
130	0xbc16eee9	-0.009212234
131	0x3cc66988	0.024220243
132	0x3cc51958	0.024059936
133	0x3ccc3ac4	0.024930365
134	0xbd70898f	-0.058724936
135	0xbcff6b0f	-0.03117898
136	0x3c0eb2f8	0.008709662
137	0xbd5f77fd	-0.05455779
138	0x3cc39ae1	0.023877563
139	0xbc102eb1	-0.008800195
140	0x3d4dc8fc	0.0502405
141	0xbb2ffd87	-0.0026853995
142	0x3d5ff37d	0.054675568
143	0x38976f11	7.220929e-05
144	0x3d0f1e71	0.03494114
145	0xbd882edb	-0.06649562
146	0x3d45ea60	0.04831922
147	0xbdad3eb9	-0.08459229
148	0xbde75abb	-0.11296602
149	0x3a70bf27	0.00091837574
150	0x3d30f0e0	0.043198466
151	0x3cb22bc6	0.021749388
152	0x3d7ff8ca	0.062493123
153	0xbd8dc9af	-0.06923234
154	0xbcd01805	-0.025402078
155	0x3b9e5511	0.004831918
156	0xbd71cc5b	-0.05903278
157	0xbcd0f032	-0.025505159
158	0x3d40a045	0.047027845
159	0xbd2b4ec6	-0.04182317
160	0xbccf803f	-0.025329707
161	0xbbc94ef5	-0.0061434456
162	0xbd0d40f7	-0.034485783
163	0x3d786ca9	0.0606505
164	0xbb477e52	-0.0030440283
165	0xbcc351f0	-0.023842782
166	0xbd418143	-0.047242414
167	0xbc919676	-0.01777194
168	0xbd985d19	-0.07439632
169	0x3d6674c7	0.05626371
170	0x3d1dced3	0.03852732
171	0x3cf5db61	0.030011835
172	0x3c3a2fcb	0.011363934
173	0xbd46d1ee	-0.04854005
174	0xbccdc89e	-0.025120076
175	0x3d96256a	0.07331355
176	0xbd84b8e3	-0.06480577
177	0xbdad927d	-0.08475206
178	0x3d8472e6	0.06467228
179	0xbcd8e724	-0.026477404
180	0x3ca4c7c7	0.020114793
181	0x3d418f88	0.047256023
182	0x3cfd4d34	0.030920602
183	0x3d2e7ee6	0.04260149
184	0x3c5d5ee4	0.013511393
185	0xbd30b990	-0.043145716
186	0xbc381b91	-0.011237041
187	0x3d2910b3	0.04127569
188	0xbcfaa7e1	-0.030597629
189	0xbc76c6d7	-0.015062056
190	0x3d0ea108	0.03482154
191	0x3dbc7092	0.092011586
192	0xbd77e25c	-0.060518607
193	0x3d2b2de2	0.041791804
194	0xbd460a42	-0.048349626
195	0x3d205518	0.03914365
196	0x3d54ad58	0.051923126
197	0x3dcdcdd5	0.10049025
198	0xbca8803e	-0.020568963
199	0x3cb1042f	0.02160844
200	0xbb759ee0	-0.003747873
201	0xbd5ce4e9	-0.053929243
202	0xbca95b84	-0.02067352
203	0xbc76d4d2	-0.015065389
204	0x3cb17fa6	0.021667313
205	0xbd23304a	-0.039840974
206	0xbd550e0b	-0.052015346
207	0x3d8fa274	0.07013407
208	0xbcdc2031	-0.026870819
209	0xbd8b90ff	-0.06814765
210	0x3d15d46e	0.03657954
211	0x3cf4e65a	0.029894996
212	0xbd0fab64	-0.03507556
213	0xbcb18c71	-0.021673413
214	0x3da4fe2a	0.080562904
215	0xbc59e349	-0.013298818
216	0x3d3ad45b	0.045612674
217	0x3cd2d19d	0.025734717
218	0x3d879802	0.0662079
219	0xbd8676ac	-0.065656036
220	0xbd18fa34	-0.037347987
221	0x3d0b9262	0.03407515
222	0xb90f2ee6	-0.00013655014
223	0x3d48b57f	0.049001213
224	0xbd8fbace	-0.07018052
225	0x3dc75dbc	0.09734675
226	0xbdb33d4e	-0.08751927
227	0xbc7d3f00	-0.015456915
228	0x3afa287e	0.0019085554
229	0x3c4c3522	0.01246384
230	0x3d3e6c7a	0.04649017
231	0x3da108b3	0.07862987
232	0xbca6c2ca	-0.020356555
233	0xbd5043e7	-0.050846007
234	0x3ccf4cf5	0.02530525
235	0xbd74915a	-0.05970893
236	0xbdafb5a7	-0.08579569
237	0x3c0476d5	0.008084972
238	0x3cc0e06e	0.023544516
239	0xbc9c4099	-0.019073771
240	0xbc9f3145	-0.019432673
241	0x3c7b1f32	0.015327262
242	0x3daad9bf	0.08342313
243	0xbcfcb6f3	-0.030848956
244	0x3af760d8	0.0018873466
245	0xbd5f8cce	-0.05457764
246	0xbda89369	-0.08231241
247	0xbdaf6e5e	-0.08565973
248	0xbd367af8	-0.044550866
249	0x3d65be4d	0.056089688
250	0x3d256257	0.040376987
251	0x3a236bea	0.0006234037
252	0x3d5de68f	0.054174956
253	0x393477bd	0.00017210744
254	0x3c14addc	0.009074654
255	0x3ce6367b	0.02810215

base.critic.0.bias f4 [64]
0	0x3c4c871d	0.012483385
1	0xbbec22f7	-0.0072063166
2	0xbbdf2acb	-0.0068105212
3	0x3c69d570	0.014272079
4	0x3c0ff2e5	0.008785938
5	0xbbdf88ed	-0.0068217427
6	0xbbb6327f	-0.005560219
7	0x3b7e4fda	0.003880492
8	0xb9c37f57	-0.00037288174
9	0xbb39ed87	-0.0028370337
10	0x3bb1052a	0.005402227
11	0xbbc92811	-0.0061388095
12	0x3b7513ce	0.0037395838
13	0xbba8aa89	-0.0051472825
14	0x3bd93be9	0.0066294563
15	0x3b1667f2	0.002295014
16	0xbb5c30bf	-0.003359839
17	0xbbe8f2ed	-0.007109037
18	0x3bb8a462	0.0056348303
19	0xbbec0f73	-0.00720399
20	0x3c03f45e	0.008053867
21	0x3bb7369b	0.0055912263
22	0xbbc41696	-0.0059841378
23	0x3a99bc1e	0.0011729037
24	0xbbe4ec13	-0.00698615
25	0xbc165e98	-0.009177826
26	0x393ddd7e	0.00018106957
27	0xbbe8ca0b	-0.0071041635
28	0xbbc70988	-0.0060741343
29	0xbb488c03	-0.0030601032
30	0xbb82f051	-0.003995933
31	0xbb8235da	-0.0039737048
32	0x3baf7be1	0.0053553437
33	0x3c0d6db1	0.0086321095
34	0xbbb9dd9b	-0.0056721694
35	0xbba90f47	-0.005159292
36	0xbba5a034	-0.005054498
37	0xbbeb7542	-0.007185609
38	0xbbe43c6c	-0.0069652107
39	0xbbdd3c99	-0.0067516086
40	0xbbb415a6	-0.0054957448
41	0xbafeec9e	-0.001944918
42	0xbb888c1d	-0.0041670934
43	0xbbb648f1	-0.0055628945
44	0xbb404e17	-0.002934342
45	0x3c265a52	0.01015337
46	0xbbf02a04	-0.0073292274
47	0x3af971ae	0.0019031072
48	0x3c47e7c0	0.01220125
49	0x3bede279	0.0072596637
50	0x3c13f424	0.009030376
51	0xbbbb6657	-0.005718987
52	0xbae4c6b8	-0.0017454242
53	0x3c3e342f	0.011609121
54	0xbbe78f38	-0.0070666336
55	0xbc30416b	-0.010757784
56	0xbb69a182	-0.0035649245
57	0x3b76fbc0	0.0037686676
58	0xbbb3f9e7	-0.005492437
59	0xbaa598b1	-0.0012634007
60	0xbbcbe8b4	-0.0062228087
61	0x395bdc9f	0.00020967655
62	0x3ba8dbb3	0.0051531433
63	0x3c56b0d3	0.013103682

base.critic.2.weight f4 [64, 64]
0	0x3eaddd61	0.3395796
1	0xbc3be387	-0.011467821
2	0xbbfa81bc	-0.00764486
3	0x3e6b75ea	0.229942
4	0x3e688063	0.22705226
5	0xbc1e7888	-0.009672292
6	0xbb261254	-0.0025340514
7	0x3e05ad4b	0.13054387
8	0xbd4df4be	-0.050282232
9	0xbe5494c6	-0.20759878
10	0x3d0bea5d	0.034159053
11	0xbdfe2d10	-0.12410939
12	0x3ed8dd40	0.423563
13	0x3d4acde5	0.049512763
14	0xbe2e3354	-0.17011768
15	0xbec1bdd5	-0.37840143
16	0x3dab0e43	0.083523296
17	0x3d176829	0.03696457
18	0x3e3f3547	0.18672667
19	0x3cf0a700	0.029376507
20	0x3e00863d	0.12551208
21	0xbe6b8287	-0.22999011
22	0x3ea994ed	0.33121434
23	0x3e89a1f1	0.26881364
24	0xbd7316ef	-0.059348043
25	0x3d55e2d1	0.052218262
26	0x3e18c477	0.14918695
27	0x3d238577	0.039922204
28	0xbe325138	-0.17413795
29	0x3e14596b	0.14487235
30	0xbeb5aa76	-0.35481614
31	0xbd2ecbdd	-0.042674888
32	0x3cb193e3	0.021676963
33	0xbdb0fcf6	-0.086419985
34	0xbc6b2077	-0.014351002
35	0xbeaf22d5	-0.34206262
36	0x3d1c60ba	0.038178183
37	0xbe80fdf9	-0.25193766
38	0xba82c82d	-0.000997787
39	0xbd640788	-0.055671245
40	0xbeb60c4f	-0.35556266
41	0x3e37147c	0.17878908
42	0x3e75621d	0.23963208
43	0xbe1b278d	-0.15151806
44	0xbe348fdb	-0.17633002
45	0x3dde07e2	0.10841347
46	0x3e354872	0.17703417
47	0x3d205a61	0.039148692
48	0xbe3f5f20	-0.18688631
49	0x3d76e639	0.06027815
50	0xbe09eedf	-0.13470028
51	0xbc933fec	-0.017974816
52	0x3eaf8477	0.3428075
53	0xbd6a98ac	-0.057274505
54	0x3d34da5a	0.04415355
55	0xbe8a2f90	-0.26989412
56	0x3db576e0	0.08860564
57	0x3e046c59	0.12931956
58	0xbdabbc85	-0.083855666
59	0x3d4fd9bb	0.050744753
60	0xbdcc691c	-0.099809855
61	0x3e363a5e	0.17795703
62	0xbb6a5533	-0.003575635
63	0x3e22eb5a	0.15910092
64	0x3e415853	0.1888135
65	0xbd9a7688	-0.07542139
66	0xbec76cb6	-0.38950127
67	0xbdea8808	-0.11451727
68	0xbe7dfb07	-0.2480279
69	0xbda59fef	-0.080871455
70	0xbddd6606	-0.10810475
71	0xbe72fe0b	-0.23729722
72	0xbe93e4c5	-0.28885475
73	0x3df652cf	0.12027513
74	0x3e3c889e	0.1841149
75	0x3d2e5fe6	0.042571925
76	0x3e3ca24f	0.18421291
77	0x3eb81fed	0.35961857
78	0xbd89c04f	-0.06726133
79	0xbd087c6f	-0.033321794
80	0x3d11b5af	0.035573658
81	0x3e242980	0.16031456
82	0x3ddb563f	0.107098095
83	0xbddfb9d2	-0.10924114
84	0x3e39d01e	0.18145797
85	0xbe75bf76	-0.23998818
86	0xbe03ad8e	-0.12859175
87	0xbd028774	-0.03186746
88	0x3e13fd58	0.14452112
89	0x3d4f3db0	0.05059594
90	0xbd9b24ce	-0.07575379
91	0x3e51a1ce	0.2047188
92	0x3e86527e	0.26234812
93	0xbe653995	-0.22385247
94	0x3e744a3e	0.23856446
95	0xbe8bbf2f	-0.272943
96	0xbe268a00	-0.1626358
97	0x3db805eb	0.08985504
98	0x3de738a2	0.11290099
99	0xbe34190b	-0.17587678
100	0xbe7654d8	-0.24055803
101	0x3da938a5	0.08262757
102	0x3d087bbc	0.033321127
103	0xbe6a2ce9	-0.22868694
104	0x3e13d3f3	0.14436321
105	0x3d71ce3b	0.059034567
106	0x3e2f85da	0.17140904
107	0x3e62c055	0.22143681
108	0xbeecea89	-0.46272686
109	0xbdf15840	-0.117844105
110	0xbc197827	-0.009367025
111	0xbe7f1a3d	-0.24912353
112	0x3a1feec3	0.0006100947
113	0xbc9a1dc4	-0.018813021
114	0xbdf444fa	-0.11927219
115	0x3e38ffe9	0.18066372
116	0x3de5ee75	0.11227123
117	0x3e436466	0.19081268
118	0xbdb8acb2	-0.09017314
119	0xbce28828	-0.027652815
120	0x3dbc4465	0.09192733
121	0x3de73cdf	0.11290907
122	0x3d83b99b	0.06431886
123	0xbdd584f4	-0.104257494
124	0x3c0138de	0.007887093
125	0xbe52bbff	-0.20579527
126	0x3ea91f52	0.33031708
127	0xbdaebfaa	-0.08532651
128	0xbd8740e7	-0.06604176
129	0x3dce874d	0.100844
130	0xbcc8b7f6	-0.024501782
131	0xbd9af50c	-0.0756627
132	0x3d7ccef4	0.061720803
133	0x3adf0ee6	0.001701799
134	0x3eb580b0	0.35449743
135	0x3d8d8729	0.069105454
136	0xbf0204ef	-0.5078878
137	0x3dd947dd	0.1060941
138	0x3d6fec07	0.058574703
139	0xbd41123e	-0.047136538
140	0xbd8405b1	-0.06446398
141	0x3d80e455	0.06293551
142	0xbe8f37df	-0.27972314
143	0xbdc8c96c	-0.09804043
144	0xbdf11108	-0.117708266
145	0x3ed5a1d1	0.4172502
146	0x3c1d58f6	0.0096037295
147	0xbc54682e	-0.0129642915
148	0xbec53faa	-0.38525134
149	0xbdac2271	-0.08405007
150	0xbe81c982	-0.2534905
151	0xbd4ac7bd	-0.04950689
152	0x3d8ce35a	0.06879301
153	0x3e5f37fa	0.21798697
154	0xbe345376	-0.17609963
155	0xbd6b7065	-0.057480235
156	0xbbd395c9	-0.0064570648
157	0xbe6375bc	-0.22212881
158	0xbe23bfa5	-0.15991075
159	0xbeaf45e2	-0.34233004
160	0xbe294170	-0.16528869
161	0xbca88fe9	-0.020576434
162	0xbbb2b221	-0.0054533635
163	0x3d51cc1a	0.051220037
164	0xbe108ec2	-0.14116958
165	0x3e1821e3	0.14856677
166	0xbc6af4b8	-0.014340572
167	0xbceb06e6	-0.028689813
168	0xbde9adff	-0.1141014
169	0xbd7de468	-0.061985403
170	0xbdd43ac9	-0.10362775
171	0xbe9e079e	-0.30865186
172	0x3eacf353	0.33779392
173	0x3d0b149f	0.033955213
174	0x3c2b45bb	0.010453637
175	0x3d804f31	0.062651046
176	0x3cd5cd5a	0.026098896
177	0x3e97a499	0.29617766
178	0xbc7aed94	-0.015315432
179	0x3d8fc95e	0.070208296
180	0xbbc41c75	-0.0059848377
181	0xbda5e2ec	-0.080999225
182	0x3e8d224e	0.27565235
183	0xbdf87464	-0.12131575
184	0x3d2c62e0	0.042086482
185	0xbd6ba735	-0.057532508
186	0xbd84737e	-0.06467341
187	0xbea42053	-0.3205591
188	0x3dfafc53	0.12255158
189	0x3d86fba1	0.06590963
190	0xbdbd6519	-0.092477985
191	0x3eb828b5	0.35968557
192	0xbe55b602	-0.20870212
193	0x3d38768c	0.04503493
194	0x3d9237d5	0.07139555
195	0x3e8e9206	0.27845782
196	0xbd6e7227	-0.058214333
197	0x3dcad20d	0.09903345
198	0x3e91e927	0.28498194
199	0xbdd2964f	-0.10282575
200	0xbd89c8f7	-0.06727784
201	0xbed38188	-0.41309762
202	0xbdbed64d	-0.093182184
203	0x3e2d946a	0.16951147
204	0xbe0c90b5	-0.13727076
205	0xbbc38839	-0.0059671667
206	0x3d9ba1cf	0.07599222
207	0x3e3c101f	0.18365525
208	0x3e2b7be9	0.16746487
209	0x3de50671	0.11182869
210	0x3ee0889d	0.43854228
211	0xbd49d8e5	-0.049279112
212	0xbd9d6501	-0.076852806
213	0x3cc10d09	0.023565786
214	0x3e0b4cd7	0.13603531
215	0xbdea08c4	-0.11427453
216	0x3df36d03	0.11886027
217	0x3dae6292	0.085148945
218	0xbdf48199	-0.11938781
219	0x3a41f511	0.00073988835
220	0x3dcc2ccb	0.09969481
221	0x3e02f0dd	0.12787195
222	0x3eb2ea99	0.3494461
223	0x3d181607	0.037130382
224	0x3e8555b1	0.2604194
225	0x3c8c3f4b	0.017120024
226	0x3eb322fc	0.34987628
227	0xbdf03d11	-0.117303975
228	0x3df4f40a	0.11960609
229	0xbeaee91c	-0.34162223
230	0x3e5dc69f	0.21657799
231	0x3c45c55e	0.012070982
232	0xbe501905	-0.20322044
233	0xbf0a7827	-0.5408959
234	0x3db2956d	0.08719907
235	0xbc841494	-0.016123094
236	0xbdcb91c5	-0.09939913
237	0xbe2d3c03	-0.16917424
238	0x3d97e5e2	0.074168935
239	0xbe55e222	-0.20887044
240	0x3d06ce84	0.032911792
241	0x3de51bc5	0.11186937
242	0xbc52cfdc	-0.01286694
243	0x3e25cee9	0.16192211
244	0x3c81d4a2	0.015848462
245	0xbe8ef916	-0.27924412
246	0x3cf9cf73	0.030494427
247	0xbde19041	-0.110138424
248	0xbe0a7011	-0.13519312
249	0xbda66381	-0.081244476
250	0x3d45d082	0.04829455
251	0xbe0efeb0	-0.13964343
252	0xbd760a58	-0.06006846
253	0x3daad5e2	0.08341576
254	0x3deab366	0.11459999
255	0xbd934787	-0.07191377

base.critic.2.bias f4 [64]
0	0x3c27badb	0.010237421
1	0x3bb9980c	0.0056638774
2	0xbc1912c6	-0.009342855
3	0xbc422427	-0.01184944
4	0xbc0444ec	-0.008073073
5	0xba9f9f6f	-0.0012178252
6	0xbc43d936	-0.011953643
7	0xbc222c07	-0.009898192
8	0xbb7c0156	-0.0038452945
9	0xbbc94c88	-0.0061431564
10	0xb829b243	-4.045876e-05
11	0x3bed7c49	0.007247482
12	0x3a634d42	0.0008670875
13	0xbbb559f3	-0.0055344044
14	0x3c1bb821	0.009504349
15	0x3c1dc3db	0.009629215
16	0x3b038f17	0.0020074302
17	0x3b4d4081	0.0031318965
18	0x3af4a337	0.0018664364
19	0xbbe0b705	-0.006857755
20	0xbc229849	-0.009924003
21	0xbc0238db	-0.007948126
22	0xbbf5d2f2	-0.0075019533
23	0x3b9a1a99	0.0047028777
24	0x3c223cca	0.009902189
25	0xbc01af0e	-0.007915271
26	0x3c1fdc02	0.009757044
27	0xbc1f60e4	-0.00972769
28	0xbb969a3b	-0.0045960224
29	0x3c21c7a8	0.009874262
30	0x3c0e9b8e	0.008704079
31	0xbc1717df	-0.009222
32	0xbc031298	-0.008000039
33	0x3b1145d7	0.0022166872
34	0xbba686d9	-0.005081993
35	0x3bc784fe	0.006088852
36	0x3c1dca11	0.009630696
37	0x3c2ff7d6	0.010740241
38	0xbb8e2b66	-0.0043386696
39	0xbb80c41a	-0.003929627
40	0xbc043516	-0.008069297
41	0xb93758d3	-0.0001748533
42	0x3b9e8126	0.004837173
43	0x3c14cc10	0.009081855
44	0xbb49b072	-0.0030775336
45	0x3b294fd1	0.0025834928
46	0xbc4e93cc	-0.01260848
47	0x3b229f4e	0.0024814191
48	0x3a994714	0.0011694157
49	0x3c26fbdd	0.010191885
50	0xbc281f3f	-0.010261356
51	0x3bffbfff	0.00780487
52	0x3c13aa5d	0.009012786
53	0x38ab98be	8.182366e-05
54	0xbc14d77f	-0.009084581
55	0x3bb88353	0.0056308894
56	0xbab41902	-0.0013740363
57	0x3c36cb88	0.011156924
58	0xbc0f5187	-0.008747465
59	0x3ba10441	0.004913837
60	0xbc1c9d53	-0.009558993
61	0x3c2022ec	0.009773951
62	0xbbe8db5c	-0.007106228
63	0xba615cae	-0.0008596879

base.critic_linear.weight f4 [1, 64]
0	0x3de7c8a9	0.1131757
1	0x3d8419a1	0.06450201
2	0xbd7fcdaa	-0.062451996
3	0xbd9cb6ce	-0.07652055
4	0xbd13fa18	-0.03612718
5	0x3c787430	0.01516442
6	0xbe62668c	-0.22109431
7	0xbd7c673e	-0.061621897
8	0xbddbcb5e	-0.107321486
9	0xbde3c1b5	-0.11120931
10	0x3e2ee0b0	0.17077899
11	0x3d2454c1	0.04011989
12	0x3e54a118	0.20764577
13	0x3e209932	0.1568344
14	0x3ea86b7a	0.32894498
15	0x3e2befe7	0.16790734
16	0xbdae19f0	-0.08501041
17	0x3e806f14	0.25084746
18	0x3e71d445	0.2361613
19	0x3d987ce6	0.074456975
20	0xbd6c1004	-0.05763246
21	0xbe4cfb63	-0.20017771
22	0xbeead99d	-0.4586915
23	0x3e17690d	0.14786167
24	0x3db103fd	0.08643339
25	0xbd89533f	-0.06705331
26	0x3d9dd9be	0.07707547
27	0xbeae3862	-0.34027392
28	0xbe1ffdd2	-0.15624169
29	0x3db61706	0.0889111
30	0x3d929453	0.07157197
31	0xbe7b2e91	-0.24529482
32	0xbe0d9b6f	-0.13828824
33	0xbd93b5aa	-0.07212384
34	0xbdba6107	-0.09100538
35	0x3dc345b8	0.09534782
36	0x3ec3814d	0.38184586
37	0x3ea5d864	0.32391655
38	0xbe98d172	-0.29847294
39	0x3d8d99c1	0.06914092
40	0xbb79a99e	-0.0038095484
41	0xbcbfbf6b	-0.023406705
42	0x3d0ba7f6	0.034095727
43	0x3c6e2a49	0.014536449
44	0xbc8c7f1b	-0.017150452
45	0x3e00b9e2	0.12570909
46	0xbe6564e1	-0.22401763
47	0x3eafb840	0.3432026
48	0x3e7c48bf	0.24637125
49	0x3d91c96c	0.07118496
50	0xbe86ddb0	-0.2634101
51	0x3e34bfa4	0.1765123
52	0x3e608cf0	0.21928763
53	0x3ba0b91b	0.004904879
54	0xbe95c230	-0.29249716
55	0x3e3ea655	0.18618138
56	0x3be278ca	0.006911372
57	0x3d912ac8	0.07088238
58	0xbd06853d	-0.03284191
59	0x3d9b4da9	0.07583172
60	0xbe0f193f	-0.13974474
61	0x3d20f1eb	0.03929321
62	0xbdd77adc	-0.105214804
63	0xbd831506	-0.06400494

dist.linear.weight f4 [7, 64]
0	0x3c11cbc0	0.008898675
1	0xbbeec3b0	-0.0072865114
2	0x3c521b0d	0.012823832
3	0xbbb62e84	-0.0055597443
4	0xba52a622	-0.000803562
5	0x3b40a32a	0.0029394128
6	0xbbaf9245	-0.005358013
7	0x3c17bf46	0.009261912
8	0x3bab53db	0.005228502
9	0xbbfec111	-0.00777448
10	0xbb1afc71	-0.0023649002
11	0xbb7aace7	-0.003825003
12	0xbae34fbf	-0.0017342492
13	0x3b38cd61	0.0028198587
14	0xbaa0ab09	-0.0012258004
15	0x39c2f01a	0.00037181453
16	0x3c0e4d87	0.008685476
17	0xbbbb629a	-0.0057185413
18	0xbbb59468	-0.005541373
19	0xbbde002e	-0.0067749238
20	0xbb6d88b6	-0.0036244816
21	0xbbd38b44	-0.0064558107
22	0x3cb3183e	0.021862146
23	0xbb81f94e	-0.003966487
24	0x3bcaad3a	0.006185201
25	0xba66d0ad	-0.0008804899
26	0x3ca218ef	0.01978728
27	0xbc3d6ea3	-0.011562022
28	0xbc0cb63b	-0.008588369
29	0x3c0928ba	0.008371526
30	0x3b9b33be	0.0047363928
31	0xbb78098d	-0.003784749
32	0xbc200066	-0.00976572
33	0xbb9afca0	-0.0047298223
34	0xba645a25	-0.00087109423
35	0xbc5c746f	-0.013455494
36	0x3976bcb3	0.00023530684
37	0xbc519d07	-0.012793786
38	0x3b20ab4a	0.0024516159
39	0xbc06c514	-0.008225698
40	0xbc13dcce	-0.009024812
41	0x3b55b2d4	0.003260781
42	0x3b952758	0.0045518093
43	0x3b3e347c	0.0029022982
44	0x3b9c275d	0.0047654347
45	0x3be2601e	0.0069084307
46	0xbc33382b	-0.010938684
47	0x3c869626	0.016429018
48	0x3c265386	0.0101517495
49	0xbb694794	-0.0035595642
50	0xbb78e945	-0.0037980836
51	0xbc09d7a1	-0.008413226
52	0x3acacb2e	0.0015471929
53	0xbc036f89	-0.0080221975
54	0xbb2174b4	-0.002463621
55	0x3b8e0a2a	0.0043347077
56	0xbb5ba5c3	-0.003351555
57	0x3b25662c	0.00252379
58	0xbb682d51	-0.0035427401
59	0xbc4b803d	-0.012420711
60	0x3b9667cb	0.00459001
61	0x3c069b40	0.008215725
62	0x3b3b6912	0.0028596562
63	0xbc53c3f0	-0.012925133
64	0x3bc4184a	0.005984341
65	0xb9a2e7f7	-0.00031071875
66	0xbc5ac7ec	-0.013353329
67	0x3c29a5e0	0.010354489
68	0x3bb5cae0	0.005547866
69	0xbb005156	-0.001957973
70	0xbc0e1fb2	-0.008674549
71	0xbc457882	-0.012052657
72	0x3b962197	0.004581641
73	0xbbaf8145	-0.0053559863
74	0x3c44a1ef	0.012001499
75	0xbcab6e57	-0.020926638
76	0xbc603b67	-0.013686038
77	0xba31b938	-0.0006779614
78	0x3be2310e	0.0069028204
79	0xbba05949	-0.004893456
80	0xbbdc68e0	-0.0067263693
81	0xbc1d17d6	-0.009588202
82	0xbb1e6555	-0.0024169285
83	0xbae5eed4	-0.001754249
84	0xbc0e22b3	-0.008675265
85	0x3a40b70d	0.00073514954
86	0x3c8e96bd	0.017405862
87	0x3adb2235	0.0016718569
88	0x398e862d	0.0002718432
89	0x3c08e522	0.008355411
90	0x3c287654	0.010282118
91	0xbbb24abb	-0.0054410375
92	0xbc1bd1b3	-0.009510445
93	0xbc5c622f	-0.013451143
94	0xbc41fc58	-0.011839949
95	0xbb8dd0ce	-0.00432787
96	0xbc66f74b	-0.014097045
97	0x3b50fedc	0.003189019
98	0xbba2dbc5	-0.004970046
99	0x3ba506ed	0.005036226
100	0x3bbe830a	0.005813961
101	0x3c7818ee	0.015142662
102	0x3c176ea5	0.009242688
103	0xba690abd	-0.0008889845
104	0xbc0f80cc	-0.008758735
105	0xbc084c2a	-0.00831894
106	0xbc8e8dbd	-0.01740157
107	0x3b71e316	0.0036909035
108	0x3c4f93e5	0.012669538
109	0x3b0a8afb	0.0021139968
110	0xbae5f617	-0.0017544654
111	0xba4c499b	-0.00077929505
112	0xbc6d7c42	-0.014494957
113	0xbc18db93	-0.009329694
114	0x3c4497f6	0.011999121
115	0x3844dede	4.6937603e-05
116	0x3c07fe7c	0.00830042
117	0x3c2736b9	0.010205918
118	0x3c3513af	0.011052056
119	0x3b8ec38a	0.004356806
120	0xba5b13f0	-0.0008357158
121	0x3c391eee	0.011298878
122	0xbbb7fe1d	-0.0056150095
123	0x3c16414d	0.009170842
124	0x3a000fc2	0.00048851606
125	0x3a12271d	0.00055752863
126	0x3b98176f	0.0046414654
127	0xbac11f0f	-0.0014733988
128	0x3a41505e	0.00073743414
129	0x3b930d91	0.004487701
130	0x3c537b08	0.012907751
131	0x3c3d9848	0.011571951
132	0xbcb360fb	-0.02189683
133	0xbc15ed07	-0.00915075
134	0x39aa9644	0.00032536883
135	0x3c60055e	0.013673155
136	0x3c0f1521	0.008733065
137	0x3a5f7a4d	0.0008524999
138	0x3b894798	0.004189443
139	0x3cbf5de9	0.02336021
140	0x3b3b21b1	0.0028554017
141	0xbc1a3110	-0.0094111115
142	0xbbe93ad9	-0.007117611
143	0xb8dc5071	-0.00010505401
144	0xbc177212	-0.009243505
145	0x3c7effbc	0.0155639015
146	0xba6e78d5	-0.0009096985
147	0xbaa7fe74	-0.0012816922
148	0xbc8c600a	-0.017135639
149	0x3b92dc1a	0.0044818046
150	0x3c1de4c8	0.009637065
151	0xba93e1a8	-0.0011282461
152	0x3c30fdf8	0.010802738
153	0xbb127b4a	-0.0022351318
154	0x3c5ad713	0.013356942
155	0x3bc42b28	0.00598659
156	0xbc255ddf	-0.010093181
157	0xbc1b1440	-0.009465277
158	0x3c85cf0c	0.01633408
159	0xba1d555b	-0.00060017937
160	0xbb3b6246	-0.002859251
161	0xbb5cc4e9	-0.0033686704
162	0xbc03f045	-0.00805289
163	0x3c0734be	0.008252321
164	0x3c08fa26	0.008360421
165	0x3c561748	0.013067074
166	0x3c48e71e	0.012262134
167	0x3b3096ff	0.002694547
168	0x3aec8e78	0.001804783
169	0xbb2a2939	-0.0025964512
170	0x39d19982	0.0003997796
171	0x3b32c6f7	0.0027279237
172	0xbc47f3cc	-0.012204122
173	0xbc5afafd	-0.013365504
174	0x3b8c0db5	0.004274095
175	0xbb93056b	-0.00448673
176	0xbb4b6175	-0.003103343
177	0x3cf67415	0.03008465
178	0x3ba67473	0.0050798
179	0x3b09d842	0.002103344
180	0x3ba726a5	0.0051010423
181	0x3c39450d	0.011307967
182	0xbc113d68	-0.008864738
183	0x3c887963	0.016659444
184	0xba8201fc	-0.0009918804
185	0xbbc9fe07	-0.0061643156
186	0xbb104ff2	-0.0022020307
187	0x3c01f465	0.007931803
188	0x3b5dd557	0.0033849084
189	0xbc7f5150	-0.015583351
190	0xbbc12b34	-0.005895043
191	0x3b622d12	0.0034511727
192	0xbb5bea2e	-0.003355633
193	0x3c217623	0.009854826
194	0x3be5c2dd	0.007011755
195	0xbc98e4f8	-0.018663868
196	0xbc1748f5	-0.009233703
197	0x3baf8b2e	0.0053571677
198	0x3ba81b08	0.0051301755
199	0x3a86e107	0.0010290452
200	0xbc29e92b	-0.010370533
201	0x3aade044	0.0013265689
202	0xbc36cae6	-0.011156773
203	0x3b4b43a0	0.003101565
204	0xbaba7828	-0.0014226483
205	0x3c0f19e6	0.008734202
206	0xbb1ac45c	-0.0023615574
207	0x3bb35f60	0.005474016
208	0xbc73d63c	-0.01488262
209	0xbbd20841	-0.0064096753
210	0x3bd33c44	0.006446393
211	0x3ab5abbd	0.0013860386
212	0xbafc6760	-0.0019256882
213	0xbb349e40	-0.0027560145
214	0xbc950ece	-0.018195536
215	0x3bb07c67	0.0053859237
216	0xbc53864a	-0.012910435
217	0x3c4bf4ed	0.012448532
218	0x38384a78	4.3938373e-05
219	0x3b8ad412	0.0042367065
220	0x3bb21ce4	0.005435573
221	0xbc803cd1	-0.015654
222	0xbcc772f5	-0.024346808
223	0x3b1538f3	0.002276954
224	0x3c27a8f4	0.010233153
225	0xbb40d390	-0.0029422976
226	0xbb88ef7d	-0.00417894
227	0x3bb2ea23	0.00546004
228	0xbba23c6e	-0.0049510514
229	0x3bb19375	0.0054191896
230	0xbb04bde7	-0.0020254792
231	0x3a6a4b38	0.00089376
232	0xbb79df30	-0.0038127415
233	0xbbefcadd	-0.0073178844
234	0x396b9561	0.00022466994
235	0x3bee6ef1	0.007276409
236	0xbc2405a8	-0.010011114
237	0xbbc6184a	-0.006045376
238	0x3a8f940a	0.0010954153
239	0xbaa4a99c	-0.0012562755
240	0x3bf6c305	0.0075305724
241	0xbc85e873	-0.016346192
242	0xbc82c3dc	-0.015962534
243	0x3b099afc	0.002099692
244	0xbc76e149	-0.015068361
245	0xbb30d233	-0.0026980757
246	0x3871e8c1	5.7675647e-05
247	0xbb938325	-0.0045017176
248	0xbb1cbea4	-0.0023917342
249	0xb8e33c32	-0.00010835416
250	0x3bc754c9	0.006083105
251	0xbbae8bcf	-0.005326725
252	0xbc966907	-0.018360628
253	0xbb15f7c5	-0.0022883278
254	0x3aab1494	0.0013052397
255	0x3bce712c	0.006300112

dist.linear.bias f4 [7]
0	0xba018160	-0.0004940238
1	0x3b5caf30	0.0033673756
2	0x3bd32823	0.0064439937
3	0xbbe0a3e4	-0.006855475
4	0x3c0aa924	0.008463178
5	0xbbf5ad61	-0.007497475
6	0xbbfbb174	-0.007681066
