logs/run_entropy_0.05/final_model.pt (torch, 434439 bytes, 11 tensors)

base.actor.0.weight f4 [64, 768]
000000 d2 42 68 3c 56 6a 81 bc 79 ad 40 bd f4 c4 00 3d
       0.014176087 -0.015797775 -0.047040436 0.03143783
000010 14 22 5e 3c fd 33 a8 bb df 23 b1 3b 38 37 ca bc
       0.01355793 -0.0051331506 0.0054058875 -0.024684533
000020 03 5d 5a bc 56 fd 58 3d 98 8c cf bc e0 9c 05 3c
       -0.01332784 0.052975975 -0.025335595 0.008155078
000030 54 81 08 bd 3a 95 b9 3c 46 be 36 bc 0c b0 87 3d
       -0.033326462 0.022654165 -0.011153763 0.06625375
000040 64 bf 10 3d 17 fa 15 3d 8a 49 2f bd a4 19 0b 3d
       0.035338774 0.036615457 -0.04279474 0.03396
000050 d4 a6 57 3d c6 8f 11 3d e0 78 36 3d e2 9f f5 3c
       0.052649334 0.035537504 0.04454887 0.029983465
000060 66 cc 47 bd d2 33 d0 bc 68 06 1f bd 54 1a 81 bd
       -0.048778914 -0.025415335 -0.03882447 -0.0630385
000070 3f e5 e0 3c 2a 85 af 3d e6 00 e3 bc f3 c2 e4 3c
       0.027453063 0.08570321 -0.02771039 0.02792499
000080 4b ae 85 3d 02 95 4e 3c bd 04 63 bd 1d 8c 2c 3c
       0.06527384 0.012608768 -0.05542444 0.0105314525
000090 d4 53 96 bc dc 13 e4 bc 1c 23 32 bb 6d f4 5f bc
       -0.01835052 -0.027841501 -0.0027181571 -0.0136691155
0000a0 2e a7 14 bc 7c 94 b8 3d ea e7 63 bd e3 29 02 3d
       -0.009073062 0.09012696 -0.055641092 0.031778228
0000b0 79 23 1e bd 2f d4 0f 3c 56 b7 75 3d c9 e8 1f 3a
       -0.038608048 0.008778616 0.059989296 0.00061000563
0000c0 28 74 18 bd 71 78 e6 bc a6 8e b9 bd 44 71 43 bc
       -0.03722015 -0.028133603 -0.09060411 -0.01192886
0000d0 e0 b6 71 3d 78 23 8d 3d 78 ba 2e bd 01 7a 01 3d
       0.059012294 0.06891531 -0.0426583 0.031610493
0000e0 e3 54 e1 3c 32 40 bb 3b 27 1a 04 3d ac 90 73 3b
       0.027506297 0.00571444 0.032251503 0.0037165089
0000f0 d5 e6 2c 3d 88 23 01 3d 75 70 04 3d 1c 3e 81 3d
       0.042212326 0.031528026 0.03233381 0.063106745
000100 00 36 85 bd a4 9c e8 bc b3 26 fa 3c 1b 8a d6 3c
       -0.0650444 -0.028395005 0.030536031 0.0261889
000110 16 32 7b bd 52 5c d3 3c f5 a6 8e bb db ca dc bc
       -0.061327063 0.025800858 -0.004353399 -0.026952198
000120 38 4a 31 3d df 28 49 3d 1a 1e a3 3c 9d ec d1 bc
       0.04328367 0.049111243 0.019911814 -0.025625521
000130 90 6f e4 3b 0b 05 25 bc a5 e2 4d bd a2 3c 5a bd
       0.006971307 -0.010072003 -0.050264973 -0.05328048
000140 85 dc 22 bd f2 9c 64 3c 17 7c 2d 3d a8 1c 1a bd
       -0.039761085 0.013953434 0.04235467 -0.037624985
000150 39 8d 5c bb 07 35 4c 3d 74 62 84 3d 36 a6 00 3d
       -0.0033653511 0.04985526 0.06464091 0.03140851
000160 e1 60 c8 3d 36 78 40 3c 87 8a e1 bd 41 34 07 bc
       0.09784103 0.0117474105 -0.1101275 -0.008252204
000170 de af 72 3d a0 e1 02 3b de fd 9a 3c 8e 4c 9b 3d
       0.05924975 0.0019970909 0.018919881 0.07582961
000180 39 44 3f bd ee 9c ad bc 9c 80 dc bd e4 4f 67 bc
       -0.04669592 -0.021192994 -0.10766718 -0.0141181685
000190 35 58 bc bd 7d 1b e9 3d d1 2c d0 3d 79 03 a7 3d
       -0.09196512 0.11382196 0.10164798 0.08154959
0001a0 a6 1e 94 3c 9e 74 13 3d 1f bd f5 bd 20 81 86 3c
       0.01808102 0.035999887 -0.119989626 0.016418993
0001b0 a4 1b 51 3d 57 ac 69 bd 06 23 11 bd e5 2f a1 bc
       0.05105175 -0.05704912 -0.03543379 -0.019676158
0001c0 59 cc 4f 3d 01 e2 32 3d 28 71 1e 3d d1 9f 65 bd
       0.05073199 0.043672565 0.038682133 -0.056060616
0001d0 07 73 89 bb c9 89 dc bc f2 bf a5 bd 4b 2d fb 3c
       -0.0041946205 -0.02692117 -0.08093251 0.030661246
0001e0 06 ed 0f 3d 1c 28 90 3d db dd 5e 3d 4f c5 fd bc
       0.035138153 0.070389 0.054410797 -0.030977873
0001f0 b0 e7 89 b9 6b df 2b bc 3c 47 26 bd c7 1b d5 bc
       -0.00026303297 -0.010490279 -0.04059528 -0.026014222
000200 88 20 ec 3d 3d 1a 0e bc d3 a2 21 3d 64 ae 8d 3d
       0.11529642 -0.008673248 0.039461922 0.06918028
000210 bb fe 87 3d 46 e3 1e bd 5f c5 29 3d 1e 23 60 bc
       0.06640383 -0.038790964 0.041447993 -0.013680248
000220 9e 76 c6 3c 41 e8 7d bd fa ad 5b bd 26 ef 27 bd
       0.024226483 -0.061989073 -0.053632714 -0.040999554
000230 f0 9f 72 3c af f1 3f bd 90 79 2b bd 7d ff 90 3d
       0.01480864 -0.046861347 -0.041863978 0.070799805
000240 a2 db 7c 3d 8c 70 82 3d 86 d8 81 bd 23 b5 c2 3d
       0.061732896 0.06369123 -0.06340127 0.09507205
000250 69 a7 05 bc c1 36 51 3c f3 c9 18 3d 51 05 be bb
       -0.0081575895 0.012769402 0.03730197 -0.0057989736
000260 40 b2 a1 bc c9 0b 48 bb cf ce 85 3d 68 67 aa 3c
       -0.019738317 -0.0030524603 0.06533586 0.020801261
000270 c1 8c 33 bd 74 89 9f 3c 6e 44 90 bd f6 17 b2 bd
       -0.043835405 0.019474722 -0.07044302 -0.086959764
000280 38 cb e2 bc e4 d4 2a 3d e7 9d c0 3d ed 32 17 bd
       -0.027684793 0.041706935 0.094051175 -0.0369138
000290 d6 f3 03 3d 9e 33 1d bb eb 33 b6 bd ef 68 ac bd
       0.032214962 -0.0023987065 -0.08896621 -0.08418452
0002a0 21 b5 d1 3b e8 53 4d bd 1d 62 8b bd 53 18 1d 3d
       0.006399766 -0.050128847 -0.06805823 0.038353276
0002b0 3c a8 64 3d a2 20 96 bd 0f 05 90 bd f1 ab 27 3e
       0.055824503 -0.07330443 -0.07032215 0.16374184
0002c0 f8 23 d8 bd fd 93 80 bc 14 c3 7d 3d ae c1 06 3c
       -0.105537355 -0.015695566 0.06195362 0.008224888
0002d0 7f 42 e5 3c b3 f5 63 bd dd 92 a1 bd d1 53 d4 bd
       0.02798581 -0.05565424 -0.0788934 -0.10367549
0002e0 70 90 5c bd a8 38 cb 3c 30 fc c9 bd c2 b7 31 bd
       -0.053848684 0.02480729 -0.09862554 -0.043388136
0002f0 f8 08 50 bd dc 0c 92 3a 94 43 a6 3c d4 39 79 bc
       -0.050789803 0.0011142748 0.020295896 -0.015211541
000300 de 53 24 bd d0 b6 a7 3d 52 fc 9d 3d d0 e9 36 bd
       -0.040119044 0.081891656 0.07714142 -0.044656575
000310 68 71 1c 3c e2 6b 05 bd c2 3a 54 3d 53 25 c8 bb
       0.0095485225 -0.03257359 0.05181385 -0.006107965
000320 80 58 81 bd ff 68 80 bc bc e0 e0 bd ce e3 d4 3c
       -0.06315708 -0.015675066 -0.10980365 0.025987532
000330 c4 e0 7d 3b 36 64 49 3d d8 da 6f 3c ac 86 30 3d
       0.0038738707 0.049167834 0.014639579 0.043097183
000340 e9 14 aa 3c 5a 4e 87 bd b9 8e c9 3d bb a8 95 bd
       0.020761924 -0.06606741 0.09841675 -0.073075734
000350 65 f6 2d 3d 66 57 9b bd 0e a6 56 bd f0 ac bb bc
       0.04247131 -0.07585029 -0.052404456 -0.022909611
000360 19 49 81 bb a7 03 15 bd 4f 04 0e 3d 54 be 25 bd
       -0.0039454815 -0.036380436 0.034672078 -0.040464714
000370 e6 aa bc bc f2 be ab 3b 6c 99 50 3c b0 bc 00 3d
       -0.02303071 0.0052412683 0.012731891 0.031429946
000380 8a 89 de bc a8 2d 07 bd ff d0 a3 bd 61 95 5a 3b
       -0.027165193 -0.033002526 -0.07998847 0.0033353197
000390 62 11 cb 3c 5c ec 85 3d 59 bb 35 3d d2 43 bb 3c
       0.024788562 0.065392226 0.04436812 0.022859488
0003a0 f7 60 3a bb 2f 4c 1e 3d 51 46 af bc 5e 4f 8f 39
       -0.0028439143 0.038646873 -0.021395834 0.0002733422
0003b0 eb 05 ac 3c 96 61 be 3d bc 51 3c bd f2 e8 65 3d
       0.020998916 0.09295957 -0.045976385 0.056130357
0003c0 d3 1a 6f 3c 7c 69 97 3c be 8b 07 3d 71 a1 40 3b
       0.014593798 0.018482916 0.033092253 0.0029393102
0003d0 64 a1 72 bc 89 8c 32 3d bf 3d b5 3b 13 e6 27 bd
       -0.014808986 0.043591056 0.0055310423 -0.0409909
0003e0 1b 45 82 bd 99 58 23 bc b4 3f 57 3c 54 f9 99 bd
       -0.06360837 -0.009969854 0.013137747 -0.07518259
0003f0 3f 4b 31 3a bc 05 49 3c ba 7b 91 3c b6 e2 b0 ba
       0.00067632267 0.012269434 0.017759193 -0.00134953

base.actor.0.bias f4 [64]
000000 89 8d de 3b a9 94 0e 3b 97 54 28 bc 97 ff c3 bb
       0.0067917746 0.0021756089 -0.010274074 -0.0059813964
000010 41 67 48 3b 5f e5 33 bc da bc 07 bc dc 4d d8 bb
       0.0030579122 -0.010979979 -0.008284772 -0.0066010784
000020 90 1f ba ba c9 ab 30 3c 65 60 07 bc 56 21 15 3c
       -0.001420008 0.010783144 -0.008262728 0.009102186
000030 0a 23 e6 bb a9 b5 dd ba 5a 5d de 3b 00 ec fb bb
       -0.00702322 -0.0016915101 0.0067860307 -0.0076880455
000040 3c ad 07 bb 88 e2 e3 bb 80 14 86 bc 1b 49 9b bb
       -0.002070262 -0.006954495 -0.016367197 -0.0047389395
000050 57 c4 58 bc 21 06 a3 bb 22 87 82 bb ca bb 84 ba
       -0.013230405 -0.004975096 -0.0039833942 -0.0010126766
000060 b3 6f 09 bb f6 7b 6b bb aa 49 51 bc fe 2b b8 bb
       -0.002097112 -0.003593204 -0.012773911 -0.0056204787
000070 72 21 d1 bb c2 5a 07 bc 61 3a 54 bb 83 07 08 bc
       -0.006382161 -0.008261384 -0.003238343 -0.008302572
000080 e6 05 ed 3b 77 1b ed bb c1 6d 37 3c de b0 68 bb
       0.007233369 -0.00723594 0.011195601 -0.0035505812
000090 70 cc 25 bc 59 75 b2 bb 7c 6e 1b bc f6 c3 c8 bb
       -0.0101195425 -0.005446118 -0.009486791 -0.006126876
0000a0 23 f3 0c 3c 00 00 00 00 56 d0 11 3c cd 53 70 3c
       0.00860289 0.0 0.008899769 0.014668417
0000b0 aa 9b 2d bb a7 51 e4 3b c7 c2 2e 3c 61 50 48 bb
       -0.0026490488 0.0069677415 0.010666556 -0.0030565488
0000c0 f0 36 56 bc 37 f3 05 bc 42 2d 20 3c 58 9a 47 bc
       -0.013074622 -0.008175663 0.009776415 -0.0121827945
0000d0 22 02 17 ba cb 72 d7 bb c3 07 06 3c e6 5b 24 ba
       -0.00057605107 -0.0065749637 0.0081805615 -0.00062697974
0000e0 ef 26 cb bb 39 0d a6 bb 48 a9 8b bb 64 9b 84 3b
       -0.0061997096 -0.005067494 -0.0042621233 0.0040468443
0000f0 55 32 8b bb 9a 8a 11 3b 68 75 be b9 53 d6 9e bb
       -0.0042479434 0.0022207857 -0.00036327098 -0.004847327

base.actor.2.weight f4 [64, 64]
000000 a2 20 34 3e 91 37 af 3e 66 77 fb bd 9b f2 a9 3d
       0.17590573 0.3422208 -0.12278633 0.082982264
000010 bd 9f 04 be 0d 83 77 3e fe 41 9a 3d 83 71 41 be
       -0.1295156 0.24171086 0.07532118 -0.18890958
000020 56 c2 15 bd ff a5 f1 3d f1 85 c7 3c 49 09 8c 3c
       -0.036562286 0.11799239 0.02435586 0.017094271
000030 1a ec 93 3d 7d d3 1c be 85 d6 78 bc 10 56 67 3e
       0.07222767 -0.15315051 -0.015187864 0.22591424
000040 7d ef b8 3c d8 5d 87 3c f5 17 f0 3b 67 e4 23 be
       0.022575134 0.01652424 0.0073270747 -0.16005097
000050 7f b1 eb bd b8 71 04 be 9f d1 fc bd f5 06 5b 3e
       -0.11508464 -0.12934005 -0.123446696 0.21389373
000060 93 09 1f be 91 e0 34 be bf df 12 3e cd 1c 1f bc
       -0.15530996 -0.1766379 0.14343165 -0.0097114565
000070 48 41 b6 be 03 b1 6d be 73 b5 6d 3e f2 d4 db be
       -0.3559668 -0.23212056 0.23213749 -0.42935902
000080 53 09 38 3d b7 25 1b be 3b c3 49 be 92 11 39 bd
       0.044930767 -0.15151106 -0.19703381 -0.045182772
000090 9e 71 8d bc ec de c6 3d 0c dc 3a be 82 a2 27 be
       -0.017266091 0.09710488 -0.18248004 -0.16370586
0000a0 e6 bf df bd 8a ea b5 be 0b 41 26 be dc 49 de 3e
       -0.109252736 -0.35530502 -0.1623575 0.43415725
0000b0 99 81 76 be 5c 1c 9a 3d 25 fe bc bd 74 05 a2 3e
       -0.24072875 0.0752494 -0.09228162 0.31644785
0000c0 e0 74 38 3d 11 bc a7 3d 2a bb f1 bd 2d ea 02 bc
       0.045033336 0.08190168 -0.11803277 -0.007990402
0000d0 b0 75 3f 3e c7 ca ba 3e 88 7d 38 bd 7c 16 23 bd
       0.18697238 0.36482832 -0.04504159 -0.039816365
0000e0 c4 1b 16 be b3 05 06 be 5c 20 e9 bc 9e 53 ea bc
       -0.14659029 -0.13088112 -0.028457813 -0.028604325
0000f0 a1 ec 1a be 9e 50 7d 3d b2 83 36 3e 4e f2 8c 3e
       -0.1512933 0.06184446 0.17823675 0.27528614
000100 87 e3 ca bd 13 ef 2e 3e 2a ce 27 3e ab 06 a3 3e
       -0.09906679 0.17083387 0.16387239 0.31841025
000110 c3 ba 7b be e2 a6 cc bd e6 aa 50 be d3 d9 d7 bd
       -0.24582963 -0.09992768 -0.20377693 -0.105395935
000120 6d 80 5b 3e c0 ce 80 be b3 38 98 be f7 4f 44 3e
       0.2143571 -0.25157738 -0.29730758 0.19171129
000130 db 27 92 3d 43 88 0a be ed bb 14 bd 3b f9 b4 be
       0.07136508 -0.13528542 -0.036312032 -0.35346398
000140 93 ef f2 3d 8a c5 4f be de 86 91 3e 5a ec 0a be
       0.118621014 -0.20290199 0.28423208 -0.13566723
000150 ac d5 21 3d ef 09 1a 3d 83 13 18 3e 37 e3 8a bd
       0.039510414 0.03760713 0.14851193 -0.06781619
000160 f8 4a 82 3d 9e 3e 17 3e cf bb 02 3e 3f f7 1e 3d
       0.063619554 0.1476998 0.12766956 0.03881001
000170 51 43 a8 be c4 14 98 3d 68 da 40 3e 29 fe 51 3e
       -0.32863858 0.07425836 0.18833315 0.2050711
000180 d6 63 38 bd 2f 19 0d 3e 93 e3 d3 be ea f2 24 3d
       -0.045017086 0.13779138 -0.41384563 0.040270723
000190 fd b0 67 3e 96 cd a3 3d f0 75 86 bd 6d 3a 86 be
       0.2262611 0.07998197 -0.065654635 -0.2621645
0001a0 1e 0e 59 bd e3 4c 51 3d fb 95 24 be ad 75 ba bd
       -0.05299198 0.051098716 -0.16072838 -0.09104476
0001b0 a2 10 b6 bc 51 44 78 be 02 99 b8 bc 77 dc 1f bd
       -0.022224728 -0.2424481 -0.022533897 -0.03902861
0001c0 cf 82 d1 3d 20 ad 0d 3e b9 e2 3a 3e 5b 57 f6 3d
       0.10230028 0.13835573 0.1825055 0.120283805
0001d0 87 d4 15 3d 77 85 56 3d 87 c6 76 3e e0 14 92 bd
       0.036579635 0.052373376 0.2409917 -0.07132888
0001e0 10 c4 f7 3e 51 6d 56 be 54 7e 76 3c 14 e5 26 3c
       0.4839177 -0.20940138 0.015044767 0.010186452
0001f0 d9 03 09 bd 17 4c 66 be 4c af 48 bc 2d 3c e9 3c
       -0.033450935 -0.22489963 -0.012248825 0.028471077
000200 b4 76 54 3e 08 d5 07 3e c8 db 53 be 28 ac 91 3c
       0.20748407 0.13264859 -0.20689309 0.017782286
000210 62 45 15 bf d0 9b ba bd 86 9b a3 3d b5 39 4f 3e
       -0.58308995 -0.0911175 0.07988648 0.20236857
000220 29 3e d6 3d 91 02 04 be 41 30 43 bd 78 c7 ea bd
       0.10461075 -0.12891604 -0.04765344 -0.11463827
000230 40 e7 69 3d f3 75 da 3d ab 6b b5 3c 04 3e a9 be
       0.057105303 0.10667028 0.022146067 -0.33055127
000240 8b 6d f1 bb 03 c9 a2 3d 06 8b ad be 79 2f ad 3d
       -0.007367795 0.07948496 -0.3389513 0.0845632
000250 db 07 91 3d d1 ef 0e be fc 92 f8 bd 21 e6 c3 bc
       0.070815764 -0.1395867 -0.1213741 -0.023913445
000260 3f 76 47 3e 33 5a 2d be 0d 32 3a bc 22 c5 be bb
       0.19478701 -0.1692894 -0.011364472 -0.00582184
000270 2c 59 b4 3c 5a 5d 82 3e d8 35 c1 3d 1b 49 09 3b
       0.022015177 0.25461847 0.09434098 0.0020948115
000280 54 0d d1 3d d0 cf 05 be 62 7a 68 3e ec 9f 6a 3d
       0.1020762 -0.13067555 0.22702935 0.05728142
000290 b7 fa 57 3e d9 e9 e4 3d 97 c5 b3 be 32 12 bd 3c
       0.21091734 0.111774154 -0.35111687 0.023079965
0002a0 88 8c 40 bd c7 76 f9 3c bb 79 80 bc 14 16 66 3d
       -0.04700902 0.030452145 -0.015683046 0.0561734
0002b0 2a ac 56 bc 37 02 a7 be fb b4 f3 be 52 7a a8 3c
       -0.013102571 -0.32618877 -0.47599015 0.02056614
0002c0 54 b3 85 3c d9 07 fb be d8 81 16 3d f5 5e 9b bd
       0.016320862 -0.49029425 0.036744922 -0.07586471
0002d0 55 30 3a be 77 ce fa 3d 3a 23 82 bd 96 0e 49 bd
       -0.181825 0.12246411 -0.06354375 -0.049086176
0002e0 13 9a bd bc 61 ef f8 3b 86 52 b4 bc b4 d0 da bd
       -0.023144757 0.0075968956 -0.022012006 -0.10684338
0002f0 4f 14 1f 3d 47 23 93 3e 35 1a 63 bd a6 0d 1f be
       0.038837727 0.28737852 -0.055444915 -0.1553255
000300 29 2d 7c 3e 52 55 af 3c 2b 6c 24 be 62 18 6c 3e
       0.24626602 0.021402989 -0.16056888 0.23056176
000310 b0 0d 3f 3e bc 89 5b 3e 63 5a e8 bd 21 83 bb bc
       0.18657565 0.2143926 -0.11345365 -0.022889676
000320 18 c9 e8 bd 17 35 84 3d 20 87 10 be ab f0 8c be
       -0.113664806 0.064554386 -0.14114046 -0.27527365
000330 55 06 be 3c 47 52 74 3e 4b d9 24 3e c4 76 b0 be
       0.023196379 0.23859511 0.16098516 -0.3446561
000340 86 13 53 3e fb 57 c8 3e 78 e1 30 3e 7b 57 83 bd
       0.20612916 0.39129624 0.1727351 -0.0641317
000350 70 3b 36 be 56 d3 3f be 24 9f 43 3c 72 50 ce be
       -0.17796111 -0.18732962 0.011939798 -0.4029575
000360 b8 3b 25 be 87 57 1b be e8 0f 92 3d 2f 5c 7c bb
       -0.16136062 -0.15170108 0.0713194 -0.0038507094
000370 85 89 61 3e 72 40 85 3d 88 0a 86 bd ac 52 8d be
       0.22025116 0.065064326 -0.065449774 -0.27602136
000380 ca 57 95 be 31 68 a2 bd c7 57 15 3e e7 a3 48 3d
       -0.2916854 -0.07930029 0.14584266 0.048984434
000390 6e d8 56 3b a4 c8 e2 bd f5 e9 08 3e e2 c0 32 3d
       0.003278281 -0.110734254 0.13370498 0.04364098
0003a0 7b 5b d9 bc d8 9d 71 be ed cf 3e 3e 6f d6 9a bd
       -0.02653288 -0.23595369 0.18634005 -0.07560431
0003b0 6e 75 01 be f7 7f ca bd c4 7e 23 bd 4e 14 cc bc
       -0.12642452 -0.098876886 -0.039915815 -0.024912026
0003c0 1a bc fa bd 7c 95 b9 3d 64 d8 6a be 61 a9 75 3e
       -0.12242909 0.09061715 -0.22934109 0.23990394
0003d0 b1 81 2f bd a2 9b 92 3e 3b ec 78 3d 48 5c b8 3c
       -0.042848293 0.28634363 0.060772162 0.02250494
0003e0 b4 bc ba 3e 24 5b 35 3e 18 7e 64 3e 0b 56 4c 3e
       0.36472094 0.17710549 0.22313726 0.19954698
0003f0 cd 4b e6 3d 23 92 32 be f2 2c 10 bd 08 99 8b bd
       0.112449266 -0.17438559 -0.035199113 -0.06816298

base.actor.2.bias f4 [64]
000000 da 2f 67 3c 3a 06 d8 bb 20 dd 9e 3c bf b3 02 bc
       0.01411053 -0.006592539 0.01939255 -0.007977425
000010 8b c3 35 3b 33 1a fc 3a 2a bf c0 bb 5f 87 66 ba
       0.002773496 0.0019233882 -0.0058821635 -0.00087939756
000020 e9 92 2e 3b 74 da 0a bb 17 1f 4a 3a 8e 14 fb b8
       0.0026637858 -0.0021187337 0.0007710321 -0.00011972441
000030 2c 41 f3 ba b5 32 5d 3c e4 b8 4c bc 26 9a 09 3c
       -0.0018558851 0.013500859 -0.012495253 0.008398568
000040 52 b7 a8 3c a1 13 e7 ba e7 1c d8 bb 5e 88 72 3b
       0.020595226 -0.0017629751 -0.0065952423 0.003700755
000050 b2 e5 0a bc 24 bb 0c bc 34 ce 96 bb 8d d3 44 bc
       -0.008477615 -0.00858954 -0.004602218 -0.012013328
000060 4b df 26 bc 7e dc a9 3b 5a 68 cf 3b 71 79 b7 39
       -0.010185073 0.0051837554 0.0063295783 0.0003499496
000070 f7 74 06 bb f8 fe 33 3b bc 6a 80 3a e0 e1 14 bc
       -0.0020516494 0.0027465206 0.0009797434 -0.009087056
000080 f5 04 e7 bb bd 85 5d ba 1a 16 6c bb 8f c0 86 3b
       -0.0070501515 -0.00084504095 -0.0036023916 0.0041123102
000090 19 18 e5 3b 12 69 2d 3c e0 42 ca bb 06 d8 3a bc
       0.006991398 0.010584133 -0.006172523 -0.011404043
0000a0 f3 81 48 bc 06 cf ba bb b2 b8 9a 3b 38 15 0b 3c
       -0.012238014 -0.0057009486 0.0047217244 0.008488946
0000b0 de b6 9a bb fc 17 1b 3b 50 91 ee bb 0f 4a 50 3c
       -0.0047215065 0.002366542 -0.007280506 0.012712969
0000c0 36 aa 5c bc 06 bd 0e bc 60 f4 86 bb 1f 94 fc bb
       -0.013468316 -0.008712059 -0.0041184872 -0.007708087
0000d0 eb 6a 54 3b de 96 3b 3b af dd a4 3b 7b 1b 22 3b
       0.003241236 0.002862386 0.0050313096 0.0024735618
0000e0 e3 db 5e 3b ec d2 b9 3a 77 59 ea ba ab a7 a2 bb
       0.0034005574 0.001417724 -0.0017879446 -0.0049638352
0000f0 bd 64 25 bb 67 0c 76 3b f3 45 6a bc 56 e0 c8 39
       -0.0025237047 0.0037544013 -0.014298904 0.00038314116

base.critic.0.weight f4 [64, 768]
000000 fa 94 11 bc f9 6b 93 3d 9f 47 4f 3c 81 6d 58 bc
       -0.008885616 0.071983285 0.012651353 -0.0132097015
000010 d1 4c 53 bb ae 77 ef bc e5 79 40 bd 15 f4 cc 3b
       -0.003224183 -0.029231872 -0.046991248 0.006254683
000020 d2 2d 4f bd 02 da 81 3d e3 b3 81 bd e2 54 f0 3c
       -0.050580807 0.0634041 -0.06333139 0.02933735
000030 3e 3f aa bd ff 01 0e 3d c6 b6 34 3d 35 28 db bc
       -0.08312844 0.034669872 0.04411962 -0.02675257
000040 d3 41 74 bd ca 0f 2b 3d db ed 1a 3c ab 41 b6 3c
       -0.059633087 0.041763104 0.009456123 0.02224811
000050 c3 a5 af bd 92 07 d4 3a f6 3e 41 bd d5 eb 9f bd
       -0.085765384 0.0016176573 -0.047179185 -0.07808653
000060 2b 36 42 3d f7 c2 91 3c a0 2f b8 3d 17 f6 57 3d
       0.04741494 0.017793162 0.08993459 0.052724924
000070 22 6b b3 bd 21 26 66 3c ad d7 31 3c 13 7a 14 3d
       -0.08760668 0.014047177 0.010854644 0.03624923
000080 88 97 b4 3d b9 ae 33 3d 2b fa 4c bc 77 b4 87 bd
       0.08817965 0.0438678 -0.012510817 -0.06626218
000090 3c 24 62 3d 46 ad 61 3d 49 52 53 bd 1d eb dc 3c
       0.055210337 0.055096887 -0.051592145 0.02696758
0000a0 c2 71 a7 3d 53 c9 dd 3d 31 68 e3 bc ab a4 f4 bc
       0.081759945 0.10829415 -0.027759643 -0.029863676
0000b0 d8 98 bc 3d 1a 47 7a 3c 48 00 98 bd 6b 4a 5b bc
       0.0920884 0.015275741 -0.07421929 -0.013384442
0000c0 c5 ca 36 3b f1 29 5c bd 19 f5 80 3d a4 f3 96 3d
       0.0027891856 -0.053750936 0.06296749 0.073706895
0000d0 d2 4c e6 bc 3c 27 2e 3d 34 ef 7c 3d 16 f4 88 bd
       -0.028112803 0.042517886 0.06175156 -0.06687181
0000e0 08 86 00 bd 57 3d a1 3d e4 09 f7 3c ff ba 41 3c
       -0.031377822 0.07873028 0.030156083 0.0118243685
0000f0 59 a1 b4 bc 8d 13 fa 3c 63 16 85 bc fc a6 87 bc
       -0.022049593 0.0305269 -0.016246026 -0.016559117
000100 4b ff c3 bb 3a 42 f3 bd 5f 8d ad 3d e6 d4 26 bd
       -0.005981361 -0.11877866 0.0847423 -0.04073038
000110 88 25 0c 3d c2 ae ed 3a 19 14 69 3d f7 a7 20 bd
       0.03421548 0.0018133747 0.056903932 -0.039222684
000120 9e 91 10 3d 4f c5 b4 3d 9a df cf bc 8b cf 38 bd
       0.03529512 0.08826696 -0.025375176 -0.045119803
000130 7c 46 57 3d dc 79 e1 bd 2b 37 d4 3d c6 b6 1a 3c
       0.052557454 -0.11009571 0.10362085 0.009442991
000140 d5 89 de bc c6 27 62 3d 6a c5 d5 3d a5 69 ed bc
       -0.027165333 0.055213712 0.10438044 -0.02898104
000150 ec 98 44 bd 15 57 a5 3c 7e f9 15 3d a2 3d c9 3c
       -0.0479974 0.020183126 0.036614887 0.024565522
000160 1a a6 97 bd 38 1f 0f 3d bc ef 5b 3d 5f 28 cc 3d
       -0.07404728 0.034941882 0.053695425 0.09968638
000170 01 63 38 bd 25 f3 ef 3c 0c 91 ee 3c 76 e6 ab bc
       -0.045016292 0.029290745 0.029121898 -0.020983916
000180 6e bd 9e bd 90 a6 cd 3c 6b fe d4 bd e9 62 7d 3d
       -0.077509746 0.025103837 -0.10400089 0.061861906
000190 5e 2e 2b bd b2 e5 e2 3c c8 8d fb 3b 0d f0 1d 39
       -0.041792266 0.027697418 0.0076768138 0.00015062113
0001a0 0c d8 b8 bd ec 89 08 bd b7 6c 08 bc ee 90 88 bd
       -0.09025583 -0.033334658 -0.008326701 -0.06668268
0001b0 db 96 74 3d b8 ee 04 bd 38 c3 38 3c ec 49 51 bd
       0.05971418 -0.032454222 0.0112770125 -0.051095888
0001c0 09 dc 9e bd f2 c3 99 bd 4a 06 11 bc f4 16 e4 bd
       -0.07756812 -0.07508077 -0.008851597 -0.111371905
0001d0 67 1c 02 3d a3 5f 92 bd 49 98 27 bc 54 10 52 bd
       0.031765368 -0.071471475 -0.010229179 -0.051285103
0001e0 96 d5 51 bd 57 e1 1f bc 20 0d 30 3d cd 04 91 3d
       -0.051229082 -0.009758315 0.042981267 0.07080994
0001f0 2b d5 ca 3d 13 58 12 3d 04 28 92 37 ff 19 d2 3b
       0.0990394 0.035728525 1.742319e-05 0.0064117904
000200 bb 34 ab bc e7 a6 42 3d d6 b2 2c bb 4b b2 b7 3c
       -0.020899167 0.04752245 -0.0026351712 0.022423884
000210 73 03 f7 3c 33 e5 0d 3d a9 d4 84 bd 58 5c 0e bd
       0.030153012 0.03464241 -0.06485874 -0.034756035
000220 e7 96 fb 3b 68 de 2d bd a7 cc 80 3c b1 41 ae bc
       0.007677901 -0.04244843 0.015722586 -0.021271558
000230 11 bc 28 3d 2a 9c 39 bc 6f bd 66 3d 3d c9 de bb
       0.04119498 -0.011328736 0.056333 -0.006798892
000240 ae 7a 25 3d e9 58 61 bd c1 53 5e 3d dd 02 b4 bd
       0.0404002 -0.055016432 0.054279093 -0.08789609
000250 de 5d d7 bd 06 db 6e bc 0a 7f 6a 3d 31 77 27 3c
       -0.105159506 -0.014578586 0.05725006 0.010221289
000260 98 fa 7e 3d ee 81 99 bd 27 34 ef bc 65 6d 2f 3c
       0.062250704 -0.07495485 -0.029199673 0.010707234
000270 b0 36 5a bd 22 95 06 bd c0 76 4a 3d 37 93 5f bd
       -0.05327481 -0.032857068 0.049429655 -0.054583754
000280 f1 a5 0c bd 60 33 13 bc aa 7b 24 bd 59 07 62 3d
       -0.03433794 -0.008984417 -0.040156998 0.05518279
000290 08 2c 04 3c 6c 04 c6 bc 6a f3 7a bd cd e0 c5 bc
       0.0080671385 -0.02417203 -0.061267294 -0.024155045
0002a0 63 4e 96 bd 09 3d 39 3d d1 de 29 3d 8a b9 04 3d
       -0.0733917 0.045224223 0.04147226 0.032403506
0002b0 4a 32 89 3c b2 10 69 bd c6 88 0f bd 9b 87 9c 3d
       0.016747613 -0.056900688 -0.035042547 0.07643052
0002c0 7a fe 8d bd 63 ad a0 bd 7e 9d 68 3d 8c f4 95 bc
       -0.06933303 -0.07845571 0.05679082 -0.018305086
0002d0 a2 f3 cb 3c e6 08 75 3d 14 80 cc 3c ae 7a 2c 3d
       0.024896447 0.05982294 0.024963416 0.042109184
0002e0 b2 40 9a 3a 50 b1 33 bd 15 8c 80 bc bc f5 f9 3c
       0.0011768548 -0.04387027 -0.015691796 0.030512683
0002f0 9c a3 cc bc a2 32 58 bc da 1b 38 3d b8 87 b3 3d
       -0.024980359 -0.013195666 0.044948436 0.08766121
000300 38 78 5e bd 51 30 4b 3d 12 52 12 bd a0 79 48 3d
       -0.05431387 0.049606625 -0.0357228 0.048944116
000310 9b 7c 43 3d 82 9c a7 3d c4 cb df bc eb cc e9 3c
       0.047726255 0.08184148 -0.027318843 0.028540095
000320 a1 a3 21 ba 05 53 2a bd 66 eb d1 bb c3 28 8c bc
       -0.0006166045 -0.04158308 -0.0064062355 -0.01710928
000330 ba 5b ab 3c aa 61 52 bd 7d f0 6f bd 9c 08 57 3d
       0.020917762 -0.05136267 -0.058578957 0.052498445
000340 a4 03 b2 bc 65 45 9a bd 5f bf c5 3c 46 08 17 3d
       -0.021730252 -0.07532767 0.024139104 0.036873125
000350 8f 88 62 bd 3f ef 3a bc bc e4 a0 3d d2 86 d1 bc
       -0.055306014 -0.01140958 0.078561276 -0.025576983
000360 54 14 51 3d 65 01 62 3c b7 49 81 3d 96 0b 95 bd
       0.051044777 0.013794278 0.06312888 -0.072776005
000370 ea eb 06 bd 5b f5 15 3d 29 e6 99 3b 87 e3 72 3d
       -0.03293983 0.036610942 0.0046966267 0.05929902
000380 1e a5 99 bd 0c a1 d8 3d 20 05 ac bd 75 a7 f4 bb
       -0.07502197 0.10577592 -0.08399415 -0.0074662515
000390 df 66 48 3c 38 24 35 3b 29 3c 40 3d 59 2d ab 3d
       0.012231558 0.0027639996 0.046932373 0.08358259
0003a0 39 bc de bc 2c 25 46 bd 2d 5f ab 3c 81 8a 8a bd
       -0.027189361 -0.048375294 0.020919407 -0.06764699
0003b0 aa d8 b6 bd 3c 90 e4 3a 3e 55 0d 3c 65 b5 8e bc
       -0.08928044 0.0017438005 0.00862628 -0.01742048
0003c0 d8 05 b6 bc 65 5c 94 3c 63 5c c5 3d 5e 5e 39 bd
       -0.022219583 0.018110463 0.09636762 -0.04525601
0003d0 ed f2 d1 3b 75 82 64 bd f0 10 9f bd ee 10 9d bd
       0.006407133 -0.055788476 -0.077669024 -0.07669245
0003e0 3b ef 09 bd aa cd 59 3d a6 72 12 3d 83 77 f2 3a
       -0.033675414 0.053174652 0.03575387 0.0018498752
0003f0 b1 58 2c 3d 26 7b df 3b f9 2e b1 ba a7 cc ec 3c
       0.04207677 0.0068201004 -0.0013518027 0.02890618

base.critic.0.bias f4 [64]
000000 ef c8 ae 3b 33 c7 40 bc 59 23 04 bc dd c3 84 3b
       0.0053340117 -0.011766243 -0.008065068 0.004051669
000010 6c ae c2 3b e4 f3 8b 3a 85 6f ab bb 88 ec 0f 3c
       0.005941203 0.0010677543 -0.0052318 0.008784421
000020 41 89 2e 3c 16 0d ef bb bc 1d 4e 3c 3b 71 93 bb
       0.010652841 -0.007295261 0.012580331 -0.004499582
000030 fd 8e 35 3c 6d db 3e 3a 54 26 1b bb d9 bc 88 bb
       0.011081454 0.0007280622 -0.0023673968 -0.004172903
000040 d0 3a c5 bb 43 33 d7 bb 0b 14 f1 3b aa 22 9f bb
       -0.006018974 -0.00656739 0.0073571256 -0.004856427
000050 ae 76 af 3b 62 66 cc 3a c5 0b ba b9 82 53 20 3c
       0.005354724 0.0015594477 -0.00035485454 0.009785535
000060 69 35 5e bb 5c a9 98 38 03 65 90 bb d6 46 cd bb
       -0.0033906347 7.2794704e-05 -0.004406573 -0.006264548
000070 d0 47 ce ba 02 6d 98 bb d7 05 d8 bb ff ef a6 bb
       -0.0015737955 -0.0046516666 -0.006592493 -0.0050945277
000080 61 7a 82 3c ee 77 18 3c 75 8a d4 3a 59 64 01 3c
       0.015927495 0.009305937 0.001621558 0.00789746
000090 3d cd 22 bb ff a6 1b 3b a9 6f a2 bb 3b c4 4e 3b
       -0.002484157 0.002375066 -0.0049571586 0.0031550068
0000a0 50 06 a3 bb 3f b3 28 bc bc 8d 4a bb 6f 92 a1 bb
       -0.0049751177 -0.010296642 -0.0030907234 -0.0049307863
0000b0 63 1e 2d 3c 8f 44 42 3c 2b 09 08 3c bc 62 62 3b
       0.010566327 0.011857166 0.008302967 0.0034543714
0000c0 dd b1 15 3c 93 87 00 3c c2 c5 d2 3b 9c 74 d1 bb
       0.009136644 0.007844823 0.006432266 -0.0063920747
0000d0 72 c4 22 3b e8 0f 3c 3c 8e 91 19 3c 0a 78 e6 bb
       0.0024836329 0.011478402 0.009373082 -0.0070333527
0000e0 b9 76 d2 bb 18 57 c0 ba 14 c2 e1 bb 4e 2b 16 bb
       -0.0064228442 -0.0014674393 -0.006889591 -0.0022913995
0000f0 1e f4 d5 bb f2 a1 df 3a 93 7d 83 bb 44 ba 50 bb
       -0.006529345 0.0017061813 -0.0040127723 -0.0031849304

base.critic.2.weight f4 [64, 64]
000000 94 55 ae 3e 37 31 68 bc c7 f9 4e bb e4 14 69 3e
       0.34049666 -0.01417189 -0.0031581984 0.22761875
000010 a1 ba 69 3e 0a d6 df bb 90 3c da bb 75 53 0b 3e
       0.228251 -0.0068309354 -0.0066600516 0.13606055
000020 cf 8e 1c bd 45 86 5c be ad 72 1f 3d 78 48 ff bd
       -0.03822213 -0.21535595 0.038927723 -0.12464994
000030 46 41 d6 3e ce 30 31 3d 91 58 29 be c7 a7 c3 be
       0.41846675 0.043259434 -0.16537692 -0.3821394
000040 a6 03 af 3d a3 e5 23 3d 78 5b 42 3e d6 c4 e0 3c
       0.08545618 0.04001392 0.18980205 0.027437609
000050 b9 7c ef 3d f7 83 6b be ca 51 a8 3e e9 0e 88 3e
       0.11693711 -0.2299956 0.328749 0.26573876
000060 f7 a9 72 bd ca 0a 2f 3d ca d3 12 3e 24 8f 23 3d
       -0.059244122 0.0427349 0.14338604 0.03993143
000070 03 f5 30 be 39 85 19 3e b6 17 b9 be fc 40 10 bd
       -0.17280965 0.14992227 -0.36150903 -0.035218224
000080 74 7f dc 3c 6e 70 ba bd b7 d4 78 bc df 55 ac be
       0.026916243 -0.091034755 -0.015187434 -0.33659264
000090 cf 63 1a 3d 81 d0 7c be b8 15 67 bb 51 38 48 bd
       0.03769284 -0.24688913 -0.0035260748 -0.048881833
0000a0 53 af b5 be c0 aa 33 3e 70 0c 72 3e e6 7b 13 be
       -0.35485324 0.17545605 0.23637557 -0.14402732
0000b0 a1 9c 2c be 21 ad e2 3d 37 a3 36 3e e9 a5 31 3d
       -0.16856624 0.11068178 0.17835699 0.043371115
0000c0 7e c7 43 be 72 d7 6a 3d e6 b6 01 be f5 bd 8e bc
       -0.19119069 0.05733437 -0.12667426 -0.017424563
0000d0 f4 ff b2 3e ea 12 69 bd 75 12 4d 3d 24 80 86 be
       0.34960902 -0.056902803 0.05006643 -0.2626964
0000e0 dc ef c3 3d 41 4a fa 3d 66 fd ae bd c0 72 5b 3d
       0.09567234 0.12221194 -0.08544426 0.05357623
0000f0 b9 7c ca bd b8 cc 37 3e 41 30 92 bb 2d 97 22 3e
       -0.0988707 0.17949188 -0.0044613187 0.15877981
000100 6e de 3a 3e e2 f4 a0 bd e5 f2 c4 be b8 72 fd bd
       0.18248913 -0.07859208 -0.38466564 -0.123753965
000110 ef ad 80 be 70 35 af bd a0 c8 ec bd 18 4b 63 be
       -0.251327 -0.08555114 -0.11561704 -0.22196615
000120 36 4e 8e be cf 52 f6 3d b8 dc 38 3e 9d 2b 37 3d
       -0.27794045 0.12027513 0.18052948 0.044719327
000130 2f 29 3a 3e ce df b3 3e 21 28 8d bd 37 a3 14 bd
       0.18179773 0.35131687 -0.068924196 -0.036288466
000140 bb f6 27 3d 97 c1 27 3e 47 6b ca 3d 73 0f ec bd
       0.041006785 0.16382442 0.09883743 -0.11526384
000150 35 01 47 3e a9 d3 79 be 2f cc 04 be 5b 47 44 bd
       0.19434054 -0.24397148 -0.12968515 -0.047919612
000160 2a a1 10 3e a7 ed 5a 3d 3e 9b b7 bd ee 11 4d 3e
       0.14123979 0.0534493 -0.08965157 0.20026371
000170 2c 1b 84 3e cd 84 5d be 80 3f 75 3e 95 ab 8a be
       0.2580198 -0.2163269 0.23950005 -0.27084032
000180 98 29 22 be 46 8d a9 3d 3d 45 df 3d 8e 7f 3c be
       -0.1583618 0.08278899 0.10901878 -0.18408033
000190 21 98 79 be 77 d5 ac 3d 00 7c e7 3c 8a 8c 69 be
       -0.24374439 0.08439153 0.02825737 -0.22807518
0001a0 96 81 15 3e cb d1 58 3d 92 d4 1f 3e e4 4f 61 3e
       0.14600214 0.05293445 0.15608433 0.22003132
0001b0 30 b4 ed be 4c c7 e7 bd 83 96 1c bc 9f a6 81 be
       -0.46426535 -0.1131731 -0.009557369 -0.25322434
0001c0 7b 5d 40 ba 4d 76 cd bc a3 b7 03 be d7 db 36 3e
       -0.00073381484 -0.025080824 -0.1286302 0.178573
0001d0 77 b2 db 3d a4 61 42 3e a4 ef cb bd 09 12 02 bd
       0.10727399 0.1898256 -0.09957817 -0.03175548
0001e0 39 2d ac 3d 1c e7 d9 3d 04 f1 7a 3d 0a 12 d8 bd
       0.08407063 0.10639784 0.061265007 -0.10550316
0001f0 82 e9 3e 3a ba 34 69 be 47 b5 a7 3e e9 b3 ba bd
       0.000728272 -0.2277402 0.3275549 -0.091163464
000200 fc cf 85 bd c2 7c d0 3d d3 9a de bc 93 73 a5 bd
       -0.065338105 0.10180046 -0.027173435 -0.08078685
000210 c2 6c 82 3d 5e b5 45 ba 57 72 b6 3e 3a 36 6f 3d
       0.063684 -0.00075419794 0.3563411 0.058401324
000220 f4 75 04 bf 74 98 e3 3d f0 2c 50 3d 05 2b 3b bd
       -0.5174248 0.111130625 0.050824106 -0.045695323
000230 29 14 86 bd aa fa 84 3d 65 38 90 be 14 2a c6 bd
       -0.06546814 0.06493123 -0.28168026 -0.096759945
000240 69 d2 fa bd 07 7b d5 3e 90 af c2 3b aa 79 6c bc
       -0.12247164 0.41695425 0.005941339 -0.014433304
000250 54 ea c5 be 8e f4 af bd ae 9e 80 be 76 e0 4e bd
       -0.3865534 -0.08591567 -0.25121063 -0.05050703
000260 27 25 90 3d d0 ce 64 3e ab a9 28 be b9 4d 6d bd
       0.07038336 0.22344518 -0.16470973 -0.05793545
000270 f8 86 01 bc 50 fe 67 be c2 a8 1c be 01 f7 b1 be
       -0.007905714 -0.22655606 -0.15298751 -0.34758762
000280 29 b2 36 be b7 52 a4 bc 39 92 86 bb a5 84 25 3d
       -0.178414 -0.020058973 -0.0041067866 0.040409703
000290 70 a6 11 be 6e 90 16 3e 01 60 58 bc 17 fa 12 bd
       -0.14223647 0.14703533 -0.013206483 -0.035883036
0002a0 e5 64 ed bd bc 6b 73 bd de 76 d8 bd e8 97 a0 be
       -0.1159151 -0.059428915 -0.10569547 -0.31365895
0002b0 cd 2e a9 3e 46 da 0d 3d 41 91 6b bb 5d 42 72 3d
       0.3304352 0.03463199 -0.0035944732 0.05914532
0002c0 19 4a c1 3c f4 67 95 3e cc db a2 bc 38 67 96 3d
       0.023594903 0.29180872 -0.019880198 0.07343906
0002d0 ef c8 6c bc 67 1c bf bd 49 15 8a 3e ab 1b 04 be
       -0.014452203 -0.09331589 0.26969364 -0.1290118
0002e0 c1 c5 24 3d 68 f3 5d bd 1f 55 90 bd 25 f1 a3 be
       0.040227655 -0.05418721 -0.070474856 -0.32019916
0002f0 74 a9 f8 3d cc 16 87 3d 9a a9 bd bd 0c 0f b8 3e
       0.121416956 0.06596145 -0.092608646 0.3594898
000300 a1 5d 51 be 53 61 53 3d ef 9b 88 3d c7 ea 90 3e
       -0.20445873 0.051606487 0.06670367 0.2830412
000310 3d 96 6e bd 1a 53 c2 3d 5e bd 93 3e 42 9b ce bd
       -0.058248747 0.094885066 0.28855413 -0.10088207
000320 4c a3 a5 bd d2 05 d1 be dc 43 c4 bd 9b 78 2c 3e
       -0.08087787 -0.40824753 -0.09583256 0.16842882
000330 5e a1 09 be e8 a6 25 3b a2 23 98 3d 1b 3c 3e 3e
       -0.13440463 0.0025276486 0.074286714 0.18577616
000340 45 4d 28 3e ab 91 e5 3d 3b 20 df 3e f7 ee 49 bd
       0.16435726 0.112094246 0.43579277 -0.04930016
000350 cd 7c a0 bd 01 7b d3 3c b1 03 0d 3e 58 12 dc bd
       -0.07836304 0.025815489 0.1377094 -0.10745686
000360 96 cf f7 3d 43 cb be 3d de a7 e8 bd 92 ca f3 b9
       0.12100141 0.09316113 -0.11360143 -0.00046499498
000370 77 05 d3 3d 94 66 fb 3d 14 6f b4 3e d0 13 01 3d
       0.10303777 0.122754246 0.35240996 0.031513035
000380 72 e5 81 3e de ef b6 3c 13 75 b4 3e dd bc ef bd
       0.25370365 0.022331174 0.3524557 -0.11705945
000390 f7 38 f4 3d 7e 58 b4 be 8f 23 62 3e 9f 6d c2 3b
       0.11924928 -0.35223764 0.22083877 0.005933478
0003a0 de ec 4e be 7f 10 09 bf 99 98 ba 3d fe d8 28 bc
       -0.20207545 -0.53540796 0.09111137 -0.010305641
0003b0 d0 16 dd bd 7a 98 2d be b2 2c 9f 3d 83 22 56 be
       -0.10795367 -0.16952696 0.07772197 -0.20911603
0003c0 56 81 1a 3d 87 29 f0 3d f6 40 b7 bc ab f0 25 3e
       0.037721 0.11726671 -0.022369843 0.16205089
0003d0 cc 61 68 3c a1 25 8f be 4e 1b cc 3c 22 53 e5 bd
       0.014183473 -0.27958396 0.024915364 -0.11197497
0003e0 91 08 0d be 07 59 9b bd 8b 58 74 3d 09 94 13 be
       -0.13772799 -0.0758534 0.059654754 -0.1441194
0003f0 00 65 77 bd 81 59 a7 3d 76 18 ef 3d d3 6b 91 bd
       -0.060399055 0.081713684 0.116745874 -0.07100644

base.critic.2.bias f4 [64]
000000 dc ee 38 3c fd 70 fa ba d4 84 31 bc 92 a5 21 bc
       0.011287417 -0.001910716 -0.010834891 -0.009866135
000010 f3 7b 36 bc 36 e7 01 bb 22 9d 15 bc b3 d6 0f bc
       -0.01113795 -0.001982165 -0.009131702 -0.008779216
000020 c8 da bd bb 10 a1 11 bc 9f 22 7c b9 00 00 00 00
       -0.005793903 -0.008888498 -0.0002404549 0.0
000030 39 c0 0e 3c b3 34 4a 3b 42 59 3d 3c ec 84 0b 3c
       0.008712822 0.0030854165 0.011556925 0.008515578
000040 b7 10 26 bb 57 d0 8d 3a 53 60 49 3c 62 e3 32 3c
       -0.0025339553 0.0010819536 0.012291032 0.01091847
000050 42 4c 36 bc 17 0c 4b bc 16 9c bf bb d5 95 93 3b
       -0.01112658 -0.012393019 -0.0058474643 0.0045039454
000060 04 d7 35 3c 6f b1 47 bc ac 92 fb 3b 3b 53 ac bb
       0.011098627 -0.0121883 0.0076773968 -0.0052589453
000070 1b 76 29 bb aa 5e 38 3c 45 d2 7e 3b cb f4 c0 bb
       -0.002585775 0.011253038 0.0038882655 -0.0058885566
000080 32 4a 1b bc d9 44 ef bb 0c 2a 06 bb 5a 41 61 bb
       -0.009478139 -0.0073019085 -0.002047184 -0.0034371228
000090 c7 1a 34 3c 9c 7e 2e 3c 98 ea 8f bb 9c fb 07 3c
       0.010992712 0.010650303 -0.0043919794 0.008299734
0000a0 8c 56 5a bb 1a 84 2c bb 08 ba 43 bb 73 d8 3e 3c
       -0.0033315746 -0.0026323856 -0.0029865522 0.011648285
0000b0 1f c1 e3 bb b2 3a 36 39 82 15 99 bb e2 0c 54 3c
       -0.006950512 0.00017378738 -0.0046717534 0.012942525
0000c0 fd 16 14 3c 21 94 4b 3c 93 41 ee bb 22 95 52 3b
       0.009038684 0.012425453 -0.0072710006 0.0032132347
0000d0 18 23 3b 3c 60 50 ba 3b d4 cc 13 bc 06 51 f9 ba
       0.011421941 0.005685851 -0.009021003 -0.0019021339
0000e0 9c c7 1f bb 0f 2f f4 3a fa 1a 75 bb a1 0f e1 bb
       -0.002438045 0.0018629747 -0.0037400112 -0.006868318
0000f0 d3 42 49 bc 5d db 35 3c 83 8c e3 bb 21 2d 0f bc
       -0.012283999 0.011099664 -0.0069442405 -0.008738787

base.critic_linear.weight f4 [1, 64]
000000 21 32 e4 3d 3b b6 5e 3d fc 60 87 bd 49 28 9c bd
       0.11142374 0.054373007 -0.06610295 -0.07624871
000010 5c f6 14 bd bf ed 9b bb ef 38 65 be 42 4c 77 bd
       -0.03636776 -0.004758566 -0.22385 -0.06037546
000020 2b db de bd c9 bf e5 bd a2 0a 35 3e be 16 0a 3d
       -0.10881647 -0.11218221 0.17679837 0.033713095
000030 3c 87 62 3e 06 2d 24 3e 7b 24 aa 3e 16 b6 39 3e
       0.221219 0.160328 0.33230957 0.18135867
000040 aa e5 a3 bd 45 69 7c 3e e7 fa 70 3e e0 fc ad 3d
       -0.08002789 0.24649532 0.23533212 0.08495498
000050 40 83 79 bd 68 6a 4a be 53 3c e8 be f7 21 14 3e
       -0.060916185 -0.19767153 -0.45358524 0.14466082
000060 77 59 b3 3d 21 07 7c bd 7d 55 9d 3d 61 ff ae be
       0.087572984 -0.061530236 0.07682321 -0.34179214
000070 bb d8 1f be ee 37 b7 3d 43 ad 85 3d e6 91 7d be
       -0.1561002 0.089462146 0.06527188 -0.24762687
000080 3f 60 0d be 1a 46 7d bd ce 32 c2 bd 4b 93 b2 3d
       -0.13806246 -0.061834432 -0.094823465 0.087195
000090 cd 1a c6 3e 4f d0 a4 3e 75 1f 98 be 4e 73 9d 3d
       0.38692322 0.32190177 -0.297115 0.07688008
0000a0 e7 93 0c bc 0f 9b ec bc e1 b0 ff 3c e0 20 b2 3c
       -0.008580185 -0.028882531 0.031212272 0.021744192
0000b0 bf 31 97 bc e0 12 04 3e 8f a8 64 be 89 c3 b2 3e
       -0.018456338 0.12897825 -0.22329925 0.34914806
0000c0 a6 ad 7b 3e 25 cc 9b 3d c6 ad 80 be 00 1e 2f 3e
       0.2457796 0.07607297 -0.2513258 0.17101288
0000d0 1e 24 5f 3e 8b 4c e7 3b 3a 10 94 be b8 6f 43 3e
       0.21791121 0.007058685 -0.2891863 0.19085586
0000e0 e9 39 b2 3b b2 3b 8d 3d b3 d9 1e bd ca 24 8f 3d
       0.0054390323 0.068961516 -0.038781833 0.06989439
0000f0 55 b0 06 be bd 83 2b 3d 7b c7 e2 bd 8e 73 77 bd
       -0.13153203 0.041873682 -0.11073204 -0.060412936

dist.linear.weight f4 [7, 64]
000000 10 a2 a7 3a f8 db cc bb c8 79 36 3b 64 03 da 39
       0.0012789387 -0.0062518083 0.0027843583 0.00041582726
000010 4d 4e d6 bb ec 3c cf 3c ba f1 f2 bb df 1a ed bb
       -0.006540096 0.025297605 -0.00741407 -0.0072358693
000020 ba f0 3e 3b 67 7f a2 bb 37 48 95 3b d6 a3 fb bb
       0.0029135183 -0.004959035 0.004555728 -0.007679443
000030 3e bc 8e 3b 2e 4d 33 bb 2e 13 d7 ba ce 64 90 3c
       0.0043559363 -0.0027359235 -0.0016408914 0.017626192
000040 6c 0c e8 3b f0 f5 22 bc 1c 7d fe ba a5 95 a3 bc
       0.007081559 -0.009946331 -0.0019415948 -0.019968817
000050 1f 00 e4 bb 0c 76 45 3a 71 5f 85 3b 36 91 a8 bb
       -0.0069580222 0.0007532544 0.0040702154 -0.0051442636
000060 b2 f9 c0 3b 4c a3 e5 3b 4a 4c b0 3c 0f 21 5a 3c
       0.005889141 0.007007992 0.021520752 0.013313546
000070 89 20 98 bb d6 68 53 ba ec e0 03 3c 12 ff bf bb
       -0.0046425504 -0.0008064633 0.008049231 -0.005859264
000080 14 a8 10 3b 60 8f 85 3b c2 47 db bb c3 39 10 3b
       0.0022072839 0.0040759295 -0.006691904 0.0022007085
000090 93 6f 09 bc 8e 22 d7 3c f7 4a 05 3b 8c 31 aa bb
       -0.008388418 0.026261594 0.0020338872 -0.0051938947
0000a0 85 39 13 bc 05 0a db bb fc 06 9d ba e2 0c 3f bc
       -0.008985882 -0.006684544 -0.0011980231 -0.011660786
0000b0 ae e1 39 bc 3e f3 b3 ba 5c 68 14 bc ef dc 97 3b
       -0.01134531 -0.0013729108 -0.009058084 0.0046344916
0000c0 ce 33 7a 3a 9e 4a 1b 3b c5 30 2d bc 5a b3 db bb
       0.00095444627 0.0023695598 -0.01057071 -0.00670473
0000d0 7f 95 92 3c 1b 42 40 ba cc cf 60 3b 5e 53 8e 3c
       0.01789355 -0.0007334069 0.0034303544 0.017373737
0000e0 64 06 06 39 23 a9 23 bb 40 b7 ee bb 8d 3c 55 3b
       0.00012781617 -0.002497264 -0.0072850287 0.0032537312
0000f0 0d bd 00 3c 6f 64 a2 bc 3a 78 45 bb 8a d5 8d bb
       0.007857573 -0.019823281 -0.0030131475 -0.0043284344
000100 d6 ee ba 3c e2 c4 1a 3b d1 55 3f 3c 0a e6 ea 3a
       0.022818964 0.0023615886 0.011678175 0.001792134
000110 8f 25 b4 ba af 00 3c 3a 3a ca 2a 3b 92 50 c8 3b
       -0.0013744103 0.0007171733 0.0026060478 0.0061131204
000120 31 1b 5a 3c 92 c1 94 3c 16 5e f8 3b 8d f7 56 bc
       0.013312147 0.018158708 0.0075795753 -0.013120544
000130 c3 e6 b6 3b 15 86 aa 3c 06 3d 23 3c 10 c9 0e bb
       0.005581708 0.020815888 0.00996328 -0.0021787323
000140 e6 09 bf bc dc f5 85 bb b5 f7 38 3c 98 28 7a 3c
       -0.02332015 -0.0040881466 0.011289527 0.015268467
000150 78 44 fa 38 f7 35 e7 3b e8 6a 87 3b 67 e2 92 3b
       0.00011933682 0.0070559937 0.0041326173 0.0044825557
000160 6f 78 e8 3b c9 00 c4 3c ea e3 7c bc 57 1e 19 bc
       0.007094435 0.023926156 -0.015435198 -0.0093456125
000170 10 d3 0f 3c 01 80 05 bc 4f 8f 7e bc d6 3a 94 37
       0.008778349 -0.008148194 -0.015537097 1.7670372e-05
000180 0d d7 cd bb e0 cb e0 38 28 cb f9 3b c6 76 1d bc
       -0.0062817396 0.00010719127 0.007623095 -0.009610837
000190 43 28 c5 bb 92 61 09 3c 8b 03 1b bc a9 f1 00 3c
       -0.0060167625 0.008385079 -0.009461294 0.007870116
0001a0 c6 1d 32 3b d9 25 05 bb 18 8e 5f bc 18 9d a4 3c
       0.002717839 -0.0020316748 -0.013644718 0.02009444
0001b0 35 2b db bb ec 91 d0 3b 0a 9b 85 3c 81 33 cd 3c
       -0.0066885003 0.0063650515 0.01630928 0.025048973
0001c0 cb d4 32 3c fc 30 6b 3b 30 ad 7b 3b e2 68 f2 3b
       0.010914992 0.0035887351 0.0038402788 0.007397757
0001d0 ef 10 a9 bb 99 97 a6 3c 76 c0 f8 3c f4 4e 3b 3c
       -0.0051594893 0.02033596 0.03036521 0.011432398
0001e0 f6 ef 05 3c 42 bf d9 3a e8 03 00 bc 5e a7 e0 3a
       0.008174887 0.0016612785 -0.007813431 0.0017139723
0001f0 02 89 14 3c bd bf 58 3c 65 7f c6 3b dd ec ca 3a
       0.009065868 0.013229308 0.006057667 0.0015481968
000200 1e d0 31 bc f9 2d b7 3a 65 65 18 3b 35 0f 82 3b
       -0.010852842 0.0013975493 0.0023253795 0.003969098
000210 4a 66 8a bc 6c 29 0b bc cd 9e 6d ba b9 78 28 bb
       -0.016894478 -0.008493762 -0.00090644957 -0.0025706722
000220 bb 56 d8 bb 1b cf b3 39 5b 31 21 bc b2 14 ac bb
       -0.006602136 0.00034295846 -0.009838427 -0.0052514905
000230 0c 1a 1a bc 08 fa 67 bc 68 39 25 bc 3c c2 3c bc
       -0.009405624 -0.014158733 -0.0100844875 -0.011520918
000240 40 4f b2 bc 40 60 73 3c 6b c2 b5 bb 15 85 c7 3a
       -0.021766305 0.014854491 -0.005546858 0.0015222157
000250 a8 8b 41 bb e7 8c 38 bb 9c 82 b0 ba c2 1f 07 3a
       -0.0029532705 -0.0028160156 -0.0013466659 0.00051545736
000260 f8 fb b8 bb 23 d5 b5 bb 3d 8d 83 ba f0 d6 32 bb
       -0.0056452714 -0.0055490895 -0.0010036599 -0.0027288757
000270 34 bc 9a bb 90 ac 86 bc 43 30 0a bb 4d ea ec 39
       -0.0047221426 -0.016439706 -0.0021085895 0.00045187995
000280 83 6e 2b 3c e9 13 91 3a 13 29 cb bb 18 80 28 bb
       0.01046336 0.0011068556 -0.006199965 -0.0025711115
000290 1a 68 c5 3b 03 64 88 bb bb 16 58 bc c1 e6 a7 3a
       0.0060243728 -0.004162313 -0.013189013 0.0012809859
0002a0 8f d7 96 3a 30 0e 04 3b e1 62 b1 bb 1a 3b 79 3c
       0.0011508333 0.0020150058 -0.0054133986 0.015211845
0002b0 94 ba 01 bc cc 3a 8c ba 82 40 9a bb be 4d 2c bc
       -0.007918019 -0.0010698675 -0.004707397 -0.010516582
0002c0 96 d5 81 ba d1 fa bc 3a f2 d4 24 bc ff af c1 3b
       -0.0009905573 0.0014418011 -0.010060536 0.005910873
0002d0 f2 fc 8b bc 88 c9 da bb 5c 2c 8c bb 8d 07 38 bc
       -0.017088387 -0.0066768564 -0.004277749 -0.011232269
0002e0 5a 0c 4b ba a7 16 94 bc 25 2f 09 3b e2 13 96 3b
       -0.0007745676 -0.018077208 0.0020932641 0.004580007
0002f0 8b 36 ea bb 7b fc cf 3b cd 4b 68 b9 1e 9c 91 ba
       -0.0071476153 0.0063472367 -0.00022153482 -0.0011109149
000300 80 4b 8f 3c af 4c e9 3b d3 1c 06 3d e7 cd fa bb
       0.017492056 0.007119737 0.032742333 -0.00765394
000310 2c ad 20 37 dc 7c 62 bc 84 7a 9f 3a 4b 8f b0 ba
       9.577063e-06 -0.013823714 0.001216725 -0.0013470439
000320 70 32 72 3b b3 08 48 bc 27 ac 87 b9 fa 7a 5c 3b
       0.0036956333 -0.012209105 -0.0002587747 0.0033642636
000330 8c ca 24 3c 37 ed e8 3b 55 89 85 bb ec 48 9b 3b
       0.010058057 0.0071083563 -0.004075209 0.0047389176
000340 23 f6 3f 3c 3e 12 e1 bb 90 f9 94 3b 47 fa 3e 3b
       0.011716398 -0.0068686297 0.0045463517 0.0029140876
000350 e1 78 d9 bb 22 06 06 bb ba d4 e8 39 0d f1 96 3b
       -0.0066367243 -0.0020450433 0.00044408982 0.004606372
000360 c4 6e 56 bb c4 24 d2 3b 0a d6 f9 bc e4 2c 82 3b
       -0.003271983 0.006413074 -0.03049757 0.0039726365
000370 31 72 a6 3b 6c a3 f2 bb 55 7b 9b 3a 83 06 c1 3b
       0.0050795306 -0.0074047353 0.0011862317 0.005890669
000380 a8 c7 28 3b d6 9b 8d bc c3 be 4f b7 a5 e6 b3 3b
       0.002575377 -0.017286222 -1.2382577e-05 0.0054901415
000390 3c eb a1 3c 31 ea e9 3b 07 73 e8 bb e2 5d 8a bb
       0.019765489 0.0071385135 -0.0070937905 -0.0042226175
0003a0 b7 29 15 bb cd 3c 4b bb c8 1c ba 3a 36 a6 a7 bc
       -0.002276046 -0.0031011582 0.0014199251 -0.020464998
0003b0 fa 80 20 bb 55 72 09 3c d2 86 57 3a d8 92 d1 3b
       -0.0024490939 0.008389075 0.0008221689 0.006395679
0003c0 b5 0c 9f 3b 98 8c e2 b7 96 72 62 3b 71 d5 f4 3a
       0.0048538097 -2.7006769e-05 0.0034553162 0.0018679333
0003d0 68 e4 71 bc 15 63 f3 ba 25 a2 b3 bb 55 21 0f bb
       -0.014763929 -0.0018568957 -0.0054819756 -0.0021839936
0003e0 d7 98 10 bc 08 5c be ba fd 76 bf 39 c4 bc 33 bb
       -0.008825502 -0.0014523277 0.00036519012 -0.0027425746
0003f0 d4 cf 42 bc fa 66 07 bc e0 c2 bc bb ae b6 28 3c
       -0.01189037 -0.008264298 -0.0057605356 0.0102974605

dist.linear.bias f4 [7]
000000 ca f7 ba 3b 8b ae 4f 3c b0 0d 2a bc 15 b7 a8 3b
       0.0057058083 0.012675892 -0.01037924 0.005148778
000010 9b 46 36 bc b0 da 91 bb 0b fd 90 3b
       -0.011125232 -0.0044511184 0.0044246963
