trained_models_query_mutator/final_model.pt (torch, 433927 bytes, 11 tensors)

base.actor.0.weight f4 [64, 768]
0.009038199 -0.016762132 -0.03804551 0.04155209 0.0069573014 -0.0050470945 0.00479269 -0.030801443
0.0038933926 0.046511326 -0.017861692 -0.011707713 -0.038936622 0.02773252 -0.011616305 0.076870255
0.027115176 0.029962141 -0.047273025 0.03714129 0.050137836 0.035036273 0.044244174 0.023249904
-0.0559032 -0.03279985 -0.050964132 -0.07374536 0.030194236 0.07944497 -0.033676658 0.026860636
0.060412683 0.023607137 -0.043964744 0.023225687 -0.040825058 -0.049273912 0.0018343559 -0.014185421
-0.008835239 0.09276037 -0.051637474 0.04223389 -0.044479445 -0.005662448 0.052288666 -0.005758804
-0.04278683 -0.028597794 -0.09128405 0.00037810995 0.05125741 0.073916405 -0.044653054 0.03660203
0.032590818 -0.0023722923 0.03411517 0.019742135 0.03781915 0.028644657 0.037931427 0.067613944
-0.061045654 -0.025750972 0.029188273 0.027793124 -0.054799523 0.031817086 -0.010087151 -0.032715425
0.03386368 0.052534163 0.014950524 -0.023236394 0.012108306 -0.020865714 -0.041508604 -0.058254894
-0.03428507 0.022300411 0.0346826 -0.03391656 -0.010034136 0.026179276 0.05658558 0.024768084
0.10086065 -0.0023362576 -0.11405893 -0.008693834 0.04084857 -0.026609018 0.025721468 0.060733225
-0.060255487 -0.026969764 -0.097310916 -0.021175006 -0.08706037 0.116615765 0.09923675 0.09189841
0.0071625537 0.031002328 -0.122316636 0.024261253 0.04724147 -0.061088055 -0.030265853 -0.043584123
0.06152869 0.03664514 0.038952865 -0.045680232 -0.003774431 -0.012027628 -0.057046235 0.012957843
0.050319884 0.06860846 0.056263104 -0.04191534 0.0005788668 -0.028303174 -0.030419681 -0.05124909
0.08989467 0.008011016 0.028164407 0.067840315 0.076872446 -0.056365456 0.040392913 -0.019113194
0.024315307 -0.05778974 -0.041058965 -0.034201782 0.013014537 -0.048220925 -0.034907836 0.071055405
0.05106414 0.07170609 -0.07889442 0.08610708 0.011549146 0.0010975184 0.0223005 -0.018286457
-0.019222172 -0.0027157024 0.06412048 0.02220014 -0.03881767 0.003970442 -0.062976904 -0.09450331
-0.04023653 0.030136138 0.096378736 -0.039383855 0.040983517 0.009583058 -0.09253682 -0.098512955
-0.0028981273 -0.053558074 -0.06051658 0.038337108 0.0592129 -0.07020376 -0.07370353 0.155789
-0.10566904 -0.00647804 0.04094793 0.014427978 0.034888543 -0.05770085 -0.081072204 -0.10199109
-0.052258246 0.027617395 -0.097031906 -0.046877258 -0.04049291 0.0108694155 0.01687126 -0.014001588
-0.030473609 0.07379322 0.08039094 -0.031964097 0.004657379 -0.038606215 0.04822524 -0.0062217545
-0.051665496 -0.011990502 -0.112530716 0.021985656 -0.003118199 0.049877495 0.013247572 0.04232653
0.027119437 -0.06266213 0.09406702 -0.0684885 0.049697243 -0.071420185 -0.056340065 -0.011006486
0.0006070304 -0.038107947 0.030661102 -0.027985048 -0.022706686 0.019515991 -0.0041445866 0.025796339
-0.035152163 -0.031798936 -0.066822335 0.009141786 0.03881593 0.06911422 0.04609179 0.032798037
-0.021698685 0.024426118 -0.01909966 0.004940648 0.0004096162 0.09056123 -0.052536394 0.038025267
0.017156044 0.017549472 0.042561557 0.014495304 -0.007490471 0.03203283 0.01593013 -0.03253401
-0.06268086 -0.012585771 0.040143162 -0.084050275 0.00020535043 0.012984002 0.024119044 0.0031732782
00000000: f414 143c bd50 89bc 9cd5 1bbd 8632 2a3d
00000010: 13fa e33b 1962 a5bb ff0b 9d3b 4f53 fcbc
00000020: 4a28 7f3b a982 3e3d af52 92bc b5d1 3fbc
00000030: 027c 1fbd 4f2f e33c 5152 3ebc 276e 9d3d
00000040: a520 de3c 2a73 f53c 5ca1 41bd 7721 183d
00000050: 555d 4d3d 3282 0f3d 6139 353d 9576 be3c
00000060: c1fa 64bd 2359 06bd c4bf 50bd cf07 97bd
00000070: e759 f73c 0bb4 a23d 89f0 09bd d60a dc3c
00000080: 4a73 773d c163 c13c 6014 34bd cc43 be3c
00000090: 2d38 27bd 71d3 49bd c56e f03a f869 68bc
000000a0: aec1 10bc 26f9 bd3d d181 53bd 72fd 2c3d
000000b0: 1430 36bd 0e8c b9bb a42c 563d 59b4 bcbb
000000c0: 3e41 2fbd ec45 eabc 22f3 babd 0f3d c639
000000d0: 4af3 513d 7c61 973d 1fe6 36bd 03ec 153d
000000e0: f37d 053d 7678 1bbb 59bc 0b3d 42ba a13c
000000f0: 41e8 1a3d 33a8 ea3c fc5d 1b3d 2e79 8a3d
00000100: 020b 7abd b4f3 d2bc 3f1c ef3c 68ae e33c
00000110: 7775 60bd a252 023d 9444 25bc 9c00 06bd
00000120: a4b4 0a3d 102e 573d 0bf3 743c 405a bebc
00000130: eb61 463c 93ee aabc ed04 2abd af9c 6ebd
00000140: 806e 0cbd 5aaf b63c 580f 0e3d 17ec 0abd
00000150: 3766 24bc ec75 d63c 48c6 673d 70e6 ca3c
00000160: 0790 ce3d e61b 19bb ba97 e9bd 9570 0ebc
00000170: d550 273d 28fb d9bc d4b5 d23c 67c3 783d
00000180: 75ce 76bd b2ef dcbc f24a c7bd 3577 adbc
00000190: b54c b2bd 3fd4 ee3d a33c cb3d 3c35 bc3d
000001a0: dbb3 ea3b 98f8 fd3c 2581 fabd 89bf c63c
000001b0: 4680 413d 7837 7abd 18f0 f7bc 4485 32bd
000001c0: 8205 7c3d 3719 163d 0a8d 1f3d 321b 3bbd
000001d0: 725c 77bb 870f 45bc 50a9 69bd 224d 543c
000001e0: 391c 4e3d 9882 8c3d 2474 663d 6baf 2bbd
000001f0: 18bf 173a 0fdc e7bc b232 f9bc 91ea 51bd
00000200: b21a b83d a340 033c 0bb9 e63c ddef 8a3d
00000210: 4d6f 9d3d 77df 66bd 0a73 253d 4693 9cbc
00000220: e530 c73c efb4 6cbd 722d 28bd 2b17 0cbd
00000230: ed3a 553c 4e83 45bd 85fb 0ebd 7f85 913d
00000240: a228 513d a4da 923d 6693 a1bd e958 b03d
00000250: a138 3d3c 9bda 8f3a 8aaf b63c 7bcd 95bc
00000260: d177 9dbc edf9 31bb 9951 833d 11dd b53c
00000270: 47ff 1ebd 7b1a 823b 09fa 80bd f48a c1bd
00000280: 0fcf 24bd 10e0 f63c 3762 c53d f750 21bd
00000290: 55de 273d 4202 1d3c f283 bdbd 29c1 c9bd
000002a0: 82ee 3dbb b65f 5bbd 3ce0 77bd 5f07 1d3d
000002b0: 3a89 723d fdc6 8fbd e0f1 96bd 2787 1f3e
000002c0: 0269 d8bd bd45 d4bb 04b9 273d 5363 6c3c
000002d0: 4ae7 0e3d ba57 6cbd 2f09 a6bd b4e0 d0bd
000002e0: be0c 56bd e03d e23c aab8 c6bd 5e02 40bd
000002f0: e5db 25bd a215 323c 9935 8a3c eb66 65bc
00000300: caa3 f9bc e620 973d 01a4 a43d c9ec 02bd
00000310: ed9c 983b 8d21 1ebd d487 453d dcdf cbbb
00000320: 339f 53bd cf73 44bc 8176 e6bd 431b b43c
00000330: b35a 4cbb 584c 4c3d 580c 593c 955e 2d3d
00000340: 9529 de3c 0155 80bd 36a6 c03d b343 8cbd
00000350: 568f 4b3d bf44 92bd d7c4 66bd 8c54 34bc
00000360: 1f21 1f3a 1417 1cbd fe2c fb3c e640 e5bc
00000370: 5f03 babc 00e0 9f3c 50cf 87bb d852 d33c
00000380: b7fb 0fbd 9a3f 02bd 26da 88bd 6ec7 153c
00000390: 74fd 1e3d c28b 8d3d bfca 3c3d 3c57 063d
000003a0: 71c1 b1bc 4819 c83c e476 9cbc 29e5 a13b
000003b0: c1c1 d639 2b78 b93d 6730 57bd 62c0 1b3d
000003c0: d58a 8c3c e9c3 8f3c 0755 2e3d b67d 6d3c
000003d0: a072 f5bb db34 033d e77f 823c 6242 05bd
000003e0: d35e 80bd 8d34 4ebc 286d 243d 8d22 acbd
000003f0: 5653 5739 daba 543c 4d95 c53c c6f6 4f3b

base.actor.0.bias f4 [64]
-0.00054916734 0.0 0.0010986559 0.002276364 -0.0013157187 -0.0006830371 -0.0005320759 -0.0015521254
0.001854513 0.00022348059 0.0012898273 -0.001123592 0.00018631223 0.00052379596 -0.00046350507 0.0010495199
0.0020642006 0.0019417412 0.0026730655 -0.0013820812 -0.00029030387 0.0011812217 -0.0027051782 0.0008894429
-0.000259835 0.0023223753 0.0006907998 3.6593286e-05 0.00029459043 -0.00013967048 0.0006838363 0.0
-0.0006721222 0.002075869 0.0 -0.0015006127 0.0011548345 0.0003242629 0.0025907706 -0.00041114725
-0.00046570215 0.0 -0.0005511982 -0.00052817527 -0.000616152 8.843873e-05 0.00068127736 0.0018607929
-0.00043685385 0.0013059339 -0.0007181919 -0.0010729686 0.00019990855 0.0015481805 0.00033247398 0.0012070051
0.0007115878 0.0010909368 5.0413208e-05 -0.0009126781 0.0 0.0013139037 -0.0015814595 0.00041817297
00000000: fff5 0fba 0000 0000 c600 903a 0d2f 153b
00000010: 3274 acba d80d 33ba 027b 0bba b070 cbba
00000020: 2113 f33a 1d56 6a39 6c0f a93a 7e45 93ba
00000030: cf5c 4339 5a4f 093a 9902 f3b9 0b90 893a
00000040: 8a47 073b 0682 fe3a 992e 2f3b f326 b5ba
00000050: ed33 98b9 39d3 9a3a 5c49 31bb 8129 693a
00000060: 773a 88b9 fe32 183b ca16 353a be7b 1938
00000070: 4273 9a39 8274 12b9 7a43 333a 0000 0000
00000080: 5b31 30ba 4d0b 083b 0000 0000 35b0 c4ba
00000090: d15d 973a d401 aa39 ebc9 293b 408f d7b9
000000a0: 7c29 f4b9 0000 0000 497e 10ba 3e75 0aba
000000b0: 4385 21ba 2e78 b938 c097 323a d9e5 f33a
000000c0: 8809 e5b9 df2b ab3a 0b45 3cba daa2 8cba
000000d0: 8b9e 5139 51ec ca3a e74f ae39 5f34 9e3a
000000e0: d989 3a3a c4fd 8e3a c572 5338 ca40 6fba
000000f0: 0000 0000 4b37 ac3a fa48 cfba 3a3e db39

base.actor.2.weight f4 [64, 64]
0.15750985 0.33282027 -0.13048974 0.07374433 -0.13019438 0.24074304 0.07442696 -0.19315365
-0.047279637 0.11540679 0.025641626 0.026005115 0.05964274 -0.14221019 -0.029586524 0.22867057
0.015021268 0.009523649 0.00077069824 -0.16691022 -0.12868695 -0.12893651 -0.13813092 0.20617
-0.16781826 -0.1762812 0.14052998 -0.015282178 -0.36073872 -0.23196267 0.21730927 -0.4323515
0.038049087 -0.15002656 -0.17785545 -0.0679946 -0.026581505 0.08509992 -0.18127842 -0.17230646
-0.120494686 -0.35530502 -0.1495614 0.4163707 -0.2583366 0.07796701 -0.06977235 0.3074442
0.046395782 0.075253166 -0.13245167 -0.016257042 0.18201703 0.37363023 -0.033519786 -0.053637553
-0.1454962 -0.13382547 -0.038291674 -0.034981288 -0.1470993 0.05227159 0.159147 0.27584177
-0.0907566 0.1717479 0.1722869 0.31713912 -0.24120809 -0.094949424 -0.18735439 -0.100845374
0.22514965 -0.2444493 -0.2997871 0.19290695 0.08183888 -0.13559149 -0.025993953 -0.35397935
0.13583627 -0.19318756 0.2861702 -0.12181508 0.039853726 0.037752137 0.15707043 -0.06009077
0.0664676 0.15502508 0.13010833 0.04288988 -0.32992822 0.0768194 0.189253 0.20463146
-0.043494355 0.13895176 -0.41651672 0.03848873 0.23545253 0.075250484 -0.057335585 -0.25480962
-0.051111277 0.051098716 -0.15575035 -0.08074932 -0.021505965 -0.24323237 -0.010000815 -0.041778624
0.107494876 0.1465102 0.18434156 0.12281186 0.047783017 0.06411901 0.24871987 -0.07486275
0.49426344 -0.20442776 0.014795243 0.018404676 -0.034214154 -0.2205668 -0.004053989 0.03837623
0.18669483 0.13520536 -0.2220645 0.0151879955 -0.5959529 -0.10371065 0.08180874 0.19723743
0.0814104 -0.14293388 -0.05206024 -0.12351218 0.043859642 0.08752029 0.005298147 -0.33055127
-0.013826816 0.07490369 -0.3479091 0.07753756 0.070350066 -0.13776475 -0.11621997 -0.024167348
0.18809348 -0.18260339 -0.012391101 0.0013250287 0.02297226 0.2479589 0.09294342 0.0006278721
0.08899539 -0.13067555 0.19766596 0.039570633 0.20478353 0.10273937 -0.35177422 0.000629587
-0.06775976 0.030452145 -0.037630167 0.038109154 -0.022608636 -0.3301574 -0.47382405 0.010666832
0.015777638 -0.49508375 0.016563326 -0.0787831 -0.18653262 0.100774206 -0.075385615 -0.07236729
-0.033260956 0.009318516 -0.023803102 -0.1176376 0.03914713 0.27095518 -0.07065614 -0.15448208
0.2529812 0.019614313 -0.1545542 0.23261584 0.18412541 0.22206585 -0.10988107 -0.014142725
-0.100895144 0.06800432 -0.14181674 -0.27837873 0.03568421 0.23837703 0.15749222 -0.34296557
0.21197121 0.39515063 0.1736608 -0.07110344 -0.1758385 -0.1861259 0.01498233 -0.41169786
-0.15834387 -0.14122432 0.074419886 0.0047433223 0.22608235 0.07033161 -0.06536129 -0.27592587
-0.28593326 -0.07627505 0.14343539 0.040647287 0.011899692 -0.101791225 0.13333029 0.05809603
-0.007302839 -0.23595369 0.1803309 -0.07211918 -0.1280309 -0.120398864 -0.042664714 -0.028325083
-0.11783183 0.09516053 -0.2219826 0.2376559 -0.045139696 0.29044506 0.0690127 0.013661979
0.37089902 0.1779025 0.2186385 0.21460254 0.117525116 -0.1526035 -0.031465482 -0.069204
00000000: 434a 213e 6b67 aa3e 1a9f 05be 4407 973d
00000010: ad51 05be 5885 763e 296d 983d 12ca 45be
00000020: 4ba8 41bd 655a ec3d 630e d23c ae08 d53c
00000030: f24b 743d 8c9f 11be 705f f2bc 9e28 6a3e
00000040: c41b 763c 1409 1c3c af08 4a3a 83ea 2abe
00000050: 83c6 03be ef07 04be 3172 0dbe 3a1e 533e
00000060: 8dd8 2bbe 0f83 34be 17e7 0f3e 1a62 7abc
00000070: bfb2 b8be 9f87 6dbe 5286 5e3e 2d5d ddbe
00000080: 5cd9 1b3d 90a0 19be bd1f 36be c140 8bbd
00000090: 75c1 d9bc de48 ae3d 0da1 39be 1b71 30be
000000a0: ebc5 f6bd 8aea b5be a026 19be 8a2e d53e
000000b0: b244 84be 2bad 9f3d cee4 8ebd 5469 9d3e
000000c0: 8109 3e3d 551e 9a3d 69a1 07be 7d2d 85bc
000000d0: ac62 3a3e 764c bf3e 0b4c 09bd 0db3 5bbd
000000e0: f5fc 14be 8b09 09be bbd7 1cbd 8a48 0fbd
000000f0: 33a1 16be bc1a 563d 6ef7 223e 223b 8d3e
00000100: 99de b9bd aede 2f3e fa6b 303e 0f60 a23e
00000110: 41ff 76be d874 c2bd d4d9 3fbe 0588 cebd
00000120: a18d 663e eb50 7abe b27d 99be 6689 453e
00000130: 259b a73d 7fd8 0abe 45f1 d4bc c83c b5be
00000140: aa18 0b3e f6d2 45be e784 923e 2f7a f9bd
00000150: a93d 233d fca1 1a3d 12d7 203e bd21 76bd
00000160: 2a20 883d e5be 1e3e 1e3b 053e 4cad 2f3d
00000170: 5aec a8be 7d53 9d3d 8acb 413e e98a 513e
00000180: 2327 32bd 5f49 0e3e ae41 d5be 5ca6 1d3d
00000190: 781a 713e ed1c 9a3d b8d8 6abd 6876 82be
000001a0: 0f5a 51bd e34c 513d 057d 1fbe e65f a5bd
000001b0: 472d b0bc e811 79be 75da 23bc 1020 2bbd
000001c0: 4626 dc3d c506 163e 09c4 3c3e c984 fb3d
000001d0: 20b8 433d d450 833d 6cb0 7e3e a451 99bd
000001e0: 1910 fd3e 8355 51be bf67 723c 67c5 963c
000001f0: 2424 0cbd 43dc 61be 53d7 84bb 6530 1d3d
00000200: ee2c 3f3e 4673 0a3e e064 63be 12d7 783c
00000210: 5f90 18bf 4066 d4bd 578b a73d 9cf8 493e
00000220: 7fba a63d 425d 12be 1e3d 55bd f4f3 fcbd
00000230: 2ba6 333d d63d b33d 149c ad3b 043e a9be
00000240: df89 62bc 1b67 993d 2421 b2be 03cc 9e3d
00000250: b213 903d 3412 0dbe bc04 eebd 9afa c5bc
00000260: 949b 403e 62fc 3abe 0b04 4bbc 96ac ad3a
00000270: 5230 bc3c f0e8 7d3e 1f59 be3d c997 243a
00000280: 3743 b63d d0cf 05be f268 4a3e d114 223d
00000290: c6b2 513e 0569 d23d c01b b4be de0a 253a
000002a0: a1c5 8abd c776 f93c 1722 1abd 5818 1c3d
000002b0: bf35 b9bc 640a a9be 1199 f2be f0c3 2e3c
000002c0: 1b40 813c 9e7b fdbe d0af 873c 0959 a1bd
000002d0: 6802 3fbe b562 ce3d c663 9abd 4d35 94bd
000002e0: a43c 08bd b0ac 183c b9fe c2bc fbeb f0bd
000002f0: be58 203d a3ba 8a3e 2bb4 90bd 8d30 1ebe
00000300: c086 813e 32ae a03c 7543 1ebe d932 6e3e
00000310: 5f8b 3c3e 3b65 633e 5409 e1bd e3b6 67bc
00000320: 1da2 cebd d945 8b3d 6838 11be a887 8ebe
00000330: 9b29 123d 1c19 743e a445 213e 2f99 afbe
00000340: fb0e 593e 2f51 ca3e 23d4 313e ae9e 91bd
00000350: 020f 34be ca97 3ebe 7278 753c 10ca d2be
00000360: e524 22be 1c9d 10be 7469 983d df6d 9b3b
00000370: 2282 673e 050a 903d 24dc 85bd 2846 8dbe
00000380: d865 92be 1836 9cbd bae0 123e c57d 263d
00000390: edf6 423c eb77 d0bd bc87 083e 1af6 6d3d
000003a0: a74c efbb d89d 71be aaa8 383e 38b3 93bd
000003b0: 881a 03be ae93 f6bd 32c1 2ebd 010a e8bc
000003c0: d151 f1bd 86e3 c23d 684f 63be 115c 733e
000003d0: 67e4 38bd 37b5 943e 8856 8d3d 7ed6 5f3c
000003e0: 7ae6 bd3e 132c 363e c5e2 5f3e c5c0 5b3e
000003f0: 02b1 f03d 1844 1cbe f3e1 00bd d4ba 8dbd

base.actor.2.bias f4 [64]
0.0015116086 0.0022037295 0.0 0.001172137 0.00046007673 0.001807729 0.0013720825 0.002051882
0.0016108596 0.0004841439 -0.0003327235 9.474231e-05 0.0010916049 -0.0015842451 7.240137e-05 0.0
0.0026417202 0.00041387574 -0.002030717 0.0006567556 0.000900494 -0.0024834613 0.00075153535 0.00065722317
0.00094622053 0.0006786755 -0.00017002395 0.00015360693 0.00095347216 0.0017146412 0.0 0.000115712115
0.0015226877 0.0011705647 0.0012596353 0.0015865294 0.0 0.0 0.0013046233 0.0012622036
-0.000113743976 0.0 0.0020848152 0.0 -0.00023664875 0.0 0.0017995177 0.0006888463
0.00088200235 0.002345495 0.00081806787 0.001252314 0.002576466 0.0025994212 -0.00022631644 0.0
0.0 0.0013994627 0.0027592261 0.0007035705 0.0003702925 0.00088749436 -0.0006920037 0.0013143573
00000000: 2b21 c63a 726c 103b 0000 0000 64a2 993a
00000010: 7436 f139 52f1 ec3a 73d7 b33a de78 063b
00000020: 7b23 d33a b2d4 fd39 6471 aeb9 64b0 c638
00000030: 2f14 8f3a 72a6 cfba 31d6 9738 0000 0000
00000040: b620 2d3b 76fd d839 c715 05bb 1f2a 2c3a
00000050: 210f 6c3a 91c1 22bb af02 453a 8049 2c3a
00000060: c90b 783a 24e9 313a 7548 32b9 8c11 2139
00000070: 6ff2 793a d0bd e03a 0000 0000 78aa f238
00000080: ec94 c73a a26d 993a 591a a53a 18f3 cf3a
00000090: 0000 0000 0000 0000 e5ff aa3a 8670 a53a
000000a0: d589 eeb8 0000 0000 65a1 083b 0000 0000
000000b0: ea24 78b9 0000 0000 cbdd eb3a b193 343a
000000c0: 2d36 673a e0b6 193b 9b73 563a af24 a43a
000000d0: edd9 283b 0d5b 2a3b 5b4f 6db9 0000 0000
000000e0: 0000 0000 2d6e b73a 22d4 343b d16f 383a
000000f0: d123 c239 bda6 683a 9567 35ba 8346 ac3a

base.critic.0.weight f4 [64, 768]
-0.0013540072 0.066893846 0.016826464 -0.015482928 -0.0068382607 -0.02779171 -0.04650586 -0.0018501143
-0.04979967 0.058991518 -0.05146712 0.03305241 -0.088507324 0.03179831 0.048302174 -0.032005705
-0.06453832 0.051568948 0.004945481 0.022026936 -0.08057131 0.008837758 -0.037669215 -0.07715888
0.040044706 0.026471797 0.084006704 0.052699845 -0.086291544 0.019106515 0.02108149 0.03971049
0.09601071 0.038580775 -0.012346491 -0.062481962 0.060606703 0.049157638 -0.046950974 0.029014662
0.07632569 0.10605906 -0.02087517 -0.027501196 0.088772476 0.018874869 -0.07854273 -0.006798941
-0.00074542715 -0.058549806 0.06814954 0.07778486 -0.032715656 0.036284585 0.056033235 -0.062416043
-0.027872391 0.076788016 0.03188068 0.013919069 -0.02757495 0.026566438 -0.01628009 -0.024920661
-0.019743204 -0.114263274 0.08234412 -0.04903759 0.035875574 0.0017615254 0.050341837 -0.039285697
0.028607693 0.09072268 -0.024941567 -0.04237339 0.057673153 -0.106369495 0.09012128 0.0051696426
-0.03445965 0.052605126 0.100802526 -0.016409304 -0.047391295 0.015807252 0.028306646 0.027843498
-0.075866796 0.037020657 0.050280057 0.09469299 -0.04622441 0.024242891 0.029724037 -0.017488748
-0.06511864 0.02469614 -0.097456984 0.06343544 -0.03580921 0.032616243 0.011769414 -0.003854759
-0.0857586 -0.045671623 -0.01211058 -0.06183726 0.052159045 -0.034034595 0.010849112 -0.050941467
-0.080915265 -0.06281024 -0.008271752 -0.11764044 0.02433248 -0.057357516 -0.017969497 -0.054263
-0.046068642 -0.0011629321 0.040577233 0.06625966 0.095135614 0.03868565 0.0038348914 0.013494352
-0.017581033 0.04687532 -0.0015265024 0.032153014 0.033692613 0.03637122 -0.06915309 -0.03993155
0.0085051535 -0.037168805 0.018044835 -0.025212904 0.038614817 -0.010663544 0.054867506 0.00039618157
0.041436046 -0.0459243 0.046516914 -0.07763406 -0.109551586 -0.00956739 0.062439725 0.008384852
0.057198517 -0.0772602 -0.032654196 0.017165333 -0.05257904 -0.024312036 0.044481736 -0.04501743
-0.040546816 0.00018904876 -0.034671225 0.050760306 0.009302404 -0.01542015 -0.057427153 -0.028253876
-0.07286619 0.049066406 0.036664076 0.029302076 0.02051017 -0.045854293 -0.039009772 0.08514941
-0.0698836 -0.078481935 0.052655246 -0.015308427 0.012036653 0.06283851 0.020005496 0.034840945
0.010579751 -0.03355228 -0.021281915 0.04077103 -0.029566523 -0.007856287 0.037485376 0.08141865
-0.05341786 0.051908392 -0.029615842 0.052961115 0.039078057 0.099672884 -0.031904485 0.030285344
0.0034167669 -0.03436731 -0.008833133 -0.023780566 0.028479526 -0.05047686 -0.058532834 0.062239256
-0.020707706 -0.07213409 0.01996596 0.042338993 -0.052595444 -0.016669981 0.078483716 -0.028758673
0.045233406 0.0127622895 0.06663262 -0.06873606 -0.042206515 0.03737251 -0.0052352953 0.049509037
-0.077996016 0.100625634 -0.07527177 -0.0062422645 0.017929351 0.014220403 0.049397677 0.08908127
-0.027477738 -0.052052993 0.0127004385 -0.07726784 -0.08253866 -0.009401091 0.013722096 -0.023864148
-0.013345612 0.00916769 0.09597043 -0.050200794 0.013025663 -0.056385193 -0.079007424 -0.07146296
-0.026949601 0.042334765 0.039654043 -0.0029624556 0.04126332 0.011057551 0.0020790594 0.03414164
00000000: f178 b1ba a4ff 883d a7d7 893c 1bac 7dbc
00000010: 7d13 e0bb 71ab e3bc ee7c 3ebd 897f f2ba
00000020: bdfa 4bbd 17a1 713d 30cf 52bd f761 073d
00000030: 5443 b5bd f23e 023d 80d8 453d 6a18 03bd
00000040: ab2c 84bd f639 533d b40d a23b d571 b43c
00000050: 9202 a5bd 3ecc 103c 094b 1abd 7a05 9ebd
00000060: eb05 243d 62db d83c b50b ac3d cbdb 573d
00000070: 9fb9 b0bd 4485 9c3c 17b3 ac3c 77a7 223d
00000080: 43a1 c43d e006 1e3d f048 4abc 16ed 7fbd
00000090: bc3e 783d 8559 493d aa4f 40bd 28b0 ed3c
000000a0: a550 9c3d 7e35 d93d 6802 abbc 304a e1bc
000000b0: 58ce b53d 789f 9a3c 03db a0bd a7c9 debb
000000c0: c568 43ba ecd1 6fbd fc91 8b3d ab4d 9f3d
000000d0: da00 06bd 259f 143d 1b83 653d f7a7 7fbd
000000e0: a454 e4bc 0943 9d3d 5195 023d cf0c 643c
000000f0: dde4 e1bc dca1 d93c d35d 85bc 6a26 ccbc
00000100: 80bc a1bc dd02 eabd 09a4 a83d a4db 48bd
00000110: 44f2 123d fce2 e63a 3e33 4e3d 0aea 20bd
00000120: ae5a ea3c d0cc b93d 4252 ccbc b88f 2dbd
00000130: af3a 6c3d 40d8 d9bd 8191 b83d 1b66 a93b
00000140: 9025 0dbd 7978 573d 8e71 ce3d ce6c 86bc
00000150: 601d 42bd 367e 813c 57e3 e73c 0c18 e43c
00000160: 0d60 9bbd f9a2 173d 76f2 4d3d 66ee c13d
00000170: cf55 3dbd 0799 c63c d37f f33c 9044 8fbc
00000180: ec5c 85bd 8f4f ca3c 8797 c7bd 71ea 813d
00000190: aeac 12bd 9c98 053d 80d4 403c 20a0 7cbb
000001a0: 34a2 afbd 2b12 3bbd 746b 46bc 1149 7dbd
000001b0: b9a4 553d dc67 0bbd 79c0 313c 00a8 50bd
000001c0: e7b6 a5bd a8a2 80bd 3e86 07bc 79ed f0bd
000001d0: e954 c73c b7ef 6abd c434 93bc e142 5ebd
000001e0: 79b2 3cbd 876d 98ba 5034 263d 25b3 873d
000001f0: 76d6 c23d d874 1e3d cd52 7b3b 6a17 5d3c
00000200: 1906 90bc 5600 403d ec14 c8ba e1b2 033d
00000210: 4401 0a3d fdf9 143d 23a0 8dbd 448f 23bd
00000220: 3359 0b3c 513e 18bd c3d2 933c 4b8b cebc
00000230: 922a 1e3d 25b6 2ebc c0bc 603d 97b6 cf39
00000240: d8b8 293d 1e1b 3cbd 8588 3e3d 9bfe 9ebd
00000250: 955c e0bd 8bc0 1cbc ccc0 7f3d 9e60 093c
00000260: fe48 6a3d 993a 9ebd 68c0 05bd 509e 8c3c
00000270: 1f5d 57bd 092a c7bc 7b32 363d 3264 38bd
00000280: 6b14 26bd 643b 4639 6a03 0ebd 0aea 4f3d
00000290: 1c69 183c cca4 7cbc bc38 6bbd ac74 e7bc
000002a0: de3a 95bd dbf9 483d 122d 163d e80a f03c
000002b0: f204 a83c b6d1 3bbd b6c8 1fbd d062 ae3d
000002c0: 221f 8fbd 23bb a0bd 07ad 573d 32d0 7abc
000002d0: 6235 453c 7ab1 803d 91e2 a33c 61b5 0e3d
000002e0: b156 2d3c 1e6e 09bd 6957 aebc 86ff 263d
000002f0: 7e35 f2bc a8b7 00bc 448a 193d d2be a63d
00000300: b0cc 5abd e59d 543d ec9c f2bc c1ed 583d
00000310: 5010 203d 4c21 cc3d 47ae 02bd f818 f83c
00000320: d6eb 5f3b bdc4 0cbd d8b8 10bc 76cf c2bc
00000330: e54d e93c d3c0 4ebd 20c0 6fbd 97ee 7e3d
00000340: 35a3 a9bc 0abb 93bd a78f a33c a76b 2d3d
00000350: 526e 57bd 7c8f 88bc 12bc a03d 4f97 ebbc
00000360: aa46 393d ec18 513c af76 883d 7ec5 8cbd
00000370: bde0 2cbd eb13 193d d78c abbb fdc9 4a3d
00000380: 60bc 9fbd d014 ce3d 1628 9abd e98b ccbb
00000390: 93e0 923c b1fc 683c 3855 4a3d 3e70 b63d
000003a0: fe18 e1bc 8535 55bd 8015 503c 9a3e 9ebd
000003b0: 070a a9bd 0907 1abc a4d2 603c bf7e c3bc
000003c0: 8ea7 5abc 1434 163c 258c c43d 599f 4dbd
000003d0: 9769 553c 29f4 66bd a5ce a1bd 2c5b 92bd
000003e0: 69c5 dcbc 3867 2d3d 476c 223d c225 42bb
000003f0: ba03 293d bb2a 353c d440 083b 1bd8 0b3d

base.critic.0.bias f4 [64]
0.0004563061 -0.00030921792 1.5948612e-05 0.00026496747 -0.00026456034 0.0012540064 -5.111584e-05 -0.00021361299
0.00028130945 0.00077768264 -0.003278373 0.0008969198 0.000832287 0.0013983005 0.0010719209 -0.00068004
-0.000886478 -0.0001556499 0.0012134219 0.00053622323 0.0 0.00013701963 -0.0008421094 0.0005635789
0.0005660501 0.0 -0.0012813553 -0.0005498791 0.0017798544 0.0007049077 0.0011090122 0.0005848594
0.0009996312 0.00043211097 -0.0010882217 -0.0006737893 -0.002043914 -0.0010565891 -0.0016111099 0.00044837696
0.000309587 0.00029503793 -0.00012184827 0.0023539597 0.0 -8.368375e-05 -4.0860217e-05 0.0004528946
0.000417296 -0.0003421597 0.00038747923 0.0002765954 -0.0022644375 -0.00010224984 -0.0019332999 -0.00049973064
0.0004346076 -0.00068611925 -0.0013648747 0.0 -9.223317e-06 -0.00035103326 0.0009686592 -0.00021812065
00000000: 5e3c ef39 871e a2b9 62c9 8537 55eb 8a39
00000010: b0b4 8ab9 795d a43a 3765 56b8 4dfd 5fb9
00000020: b77c 9339 66dd 4b3a f9d9 56bb 451f 6b3a
00000030: d62d 5a3a 2e47 b73a b27f 8c3a b644 32ba
00000040: 8862 68ba f435 23b9 af0b 9f3a 5591 0c3a
00000050: 0000 0000 edac 0f39 01c1 5cba 24bd 133a
00000060: fb62 143a 0000 0000 26f3 a7ba c325 10ba
00000070: 014a e93a 8ec9 383a 465c 913a 4051 193a
00000080: 0f06 833a f48c e239 a9a2 8eba 3ca1 30ba
00000090: 30f3 05bb 3f7d 8aba e12b d3ba 2314 eb39
000000a0: 1050 a239 52af 9a39 cb88 ffb8 e444 1a3b
000000b0: 0000 0000 5f7f afb8 5361 2bb8 7c72 ed39
000000c0: 85c8 da39 e663 b3b9 9526 cb39 0204 9139
000000d0: f566 14bb f76e d6b8 c866 fdba 5b00 03ba
000000e0: 0bdc e339 afdc 33ba 98e5 b2ba 0000 0000
000000f0: d8bd 1ab7 e30a b8b9 9eed 7d3a 51b7 64b9

base.critic.2.weight f4 [64, 64]
0.33245057 -0.020399434 -0.012407482 0.2202474 0.2213708 -0.010480103 -0.01133816 0.13491821
-0.044693924 -0.21527937 0.03280928 -0.13110676 0.41239095 0.03820905 -0.16503675 -0.39240855
0.08305861 0.031954203 0.17753632 0.018824551 0.12831876 -0.23797432 0.3240404 0.25934756
-0.068458214 0.05988469 0.13880686 0.040153395 -0.18536445 0.141805 -0.35483032 -0.038004275
0.017465258 -0.09513438 -0.018262805 -0.3468239 0.033353567 -0.2504584 0.00020833107 -0.061227012
-0.35702163 0.17618488 0.22964272 -0.15323326 -0.1791946 0.107374944 0.16964218 0.040417433
-0.19338623 0.05615517 -0.12337964 -0.021786824 0.3428314 -0.061749797 0.039098766 -0.27557695
0.08625923 0.121692665 -0.08937435 0.04730459 -0.10751252 0.16695485 -0.008166902 0.14998148
0.18443336 -0.07659124 -0.38238916 -0.12090655 -0.2487966 -0.08317818 -0.113663934 -0.2225803
-0.277086 0.121123195 0.18241964 0.044719327 0.18262571 0.35131687 -0.06640917 -0.035107933
0.041741177 0.16590522 0.10201972 -0.11277443 0.19434054 -0.24113306 -0.12968513 -0.04451713
0.14123979 0.0534493 -0.08820477 0.20356594 0.2580198 -0.21525918 0.24034834 -0.27084032
-0.15758257 0.08430327 0.11171275 -0.18363613 -0.2439046 0.08439153 0.02825737 -0.2276855
0.14600214 0.05541071 0.15895939 0.2208455 -0.46426535 -0.1131731 -0.008721435 -0.2507903
-0.0007338161 -0.022206513 -0.126448 0.17910288 0.10965336 0.18982561 -0.09684913 -0.030934185
0.08588582 0.10871939 0.06126502 -0.10550317 0.0022427717 -0.22516583 0.33040044 -0.09116349
-0.058224186 0.106532834 -0.020218993 -0.069412485 0.0690576 0.004937606 0.36222824 0.06707854
-0.50902253 0.11444021 0.062091544 -0.039522205 -0.055324633 0.07135749 -0.2864708 -0.087879635
-0.116775975 0.4248628 0.018928463 -0.007193775 -0.3849154 -0.07677249 -0.24668463 -0.043178618
0.07646985 0.21078967 -0.16352457 -0.05761798 2.7390417e-05 -0.21924673 -0.16011973 -0.34325108
-0.16131175 -0.009461771 -0.0025504767 0.050929967 -0.13714387 0.14828366 -0.0125200255 -0.021359654
-0.1167392 -0.0601787 -0.09959075 -0.30841708 0.34060764 0.03947967 0.010349623 0.059843943
0.02986561 0.30073267 -0.01998317 0.07493991 -0.008035359 -0.07782896 0.2791654 -0.119063996
0.046178818 -0.051273733 -0.06656538 -0.31798097 0.12698169 0.075370595 -0.08542559 0.364539
-0.19900094 0.05529526 0.07595219 0.2905552 -0.050072122 0.10313518 0.2926645 -0.10005677
-0.0736902 -0.40344536 -0.08956554 0.17525785 -0.12428128 0.004242624 0.074093565 0.19351596
0.16850565 0.11960362 0.4488002 -0.04066043 -0.07832173 0.033351336 0.14204404 -0.104469106
0.12744683 0.08087359 -0.10829839 -0.0005736416 0.11218483 0.1300613 0.35239965 0.037093077
0.26440266 0.025999675 0.35496762 -0.10685225 0.12245595 -0.342685 0.21846355 0.0181194
-0.20030198 -0.5368633 0.09685911 -0.012948097 -0.09655688 -0.1642206 0.08156611 -0.20790356
0.0427496 0.11836589 -0.022138841 0.16541456 0.021781467 -0.27154586 0.03402847 -0.10239313
-0.12937494 -0.07246814 0.061970867 -0.13808385 -0.052261297 0.09174078 0.12033721 -0.06159413
00000000: f636 aa3e b71c a7bc c048 4bbc 8988 613e
00000010: 07af 623e bdb4 2bbc b1c3 39bc 0028 0a3e
00000020: fa10 37bd 3272 5cbe 0663 063d da40 06be
00000030: e824 d33e 1881 1c3d 65ff 28be c6e9 c8be
00000040: a21a aa3d 69e2 023d 15cc 353e f235 9a3c
00000050: fe65 033e 8aaf 73be a0e8 a53e 34c9 843e
00000060: d233 8cbd a649 753d 6323 0e3e e377 243d
00000070: 2ed0 3dbe 5435 113e 52ac b5be 5faa 1bbd
00000080: 4d13 8f3c d0d5 c2bd e19b 95bc e792 b1be
00000090: c09d 083d 153c 80be 7273 5a39 2dc9 7abd
000000a0: 8acb b6be cf69 343e 7627 6b3e 2ee9 1cbe
000000b0: ca7e 37be 65e7 db3d aeb6 2d3e c08c 253d
000000c0: 0a07 46be f702 663d 77ae fcbd 487a b2bc
000000d0: 9987 af3e 5bed 7cbd 0726 203d 6c18 8dbe
000000e0: aea8 b03d 013a f93d e609 b7bd 75c2 413d
000000f0: 862f dcbd 36f6 2a3e 78ce 05bc bf94 193e
00000100: 19dc 3c3e dedb 9cbd 83c8 c3be da9d f7bd
00000110: 89c4 7ebe 5259 aabd a3c8 e8bd 17ec 63be
00000120: 37de 8dbe 700f f83d 37cc 3a3e 9d2b 373d
00000130: 3c02 3b3e cedf b33e 8801 88bd 56cd 0fbd
00000140: ccf8 2a3d 0fe3 293e b7ef d03d 48f6 e6bd
00000150: 3501 473e 96eb 76be 2ecc 04be 9857 36bd
00000160: 2aa1 103e a7ed 5a3d b4a4 b4bd 9773 503e
00000170: 2c1b 843e e76c 5cbe e01d 763e 95ab 8abe
00000180: 535d 21be 31a7 ac3d a7c9 e43d 1c0b 3cbe
00000190: 21c2 79be 77d5 ac3d 007c e73c 6326 69be
000001a0: 9681 153e 57f6 623d 40c6 223e 5325 623e
000001b0: 30b4 edbe 4cc7 e7bd 5ae4 0ebc 9667 80be
000001c0: 915d 40ba 6fea b5bc 967b 01be bf66 373e
000001d0: f191 e03d a561 423e d658 c6bd b069 fdbc
000001e0: e8e4 af3d 46a8 de3d 08f1 7a3d 0c12 d8bd
000001f0: 77fb 123b df91 66be 3f2a a93e edb3 babd
00000200: 7c7c 6ebd e32d da3d 4da2 a5bc 2228 8ebd
00000210: 126e 8d3d a4cb a13b fb75 b93e 7960 893d
00000220: 4d4f 02bf a15f ea3d b453 7e3d 09e2 21bd
00000230: 159c 62bd e023 923d 4dac 92be 3dfa b3bd
00000240: 3e28 efbd 9e87 d93e dd0f 9b3c c2b9 ebbb
00000250: a213 c5be e53a 9dbd e59a 7cbe 10dc 30bd
00000260: 3a9c 9c3d 3fd9 573e fc72 27be d500 6cbd
00000270: 79c4 e537 3782 60be 6df6 23be 9bbe afbe
00000280: e82e 25be 8b05 1bbc e625 27bb f19b 503d
00000290: 716f 0cbe acd7 173e cb20 4dbc 71fa aebc
000002a0: f614 efbd f17d 76bd 3cf6 cbbd d8e8 9dbe
000002b0: 2064 ae3e 6fb5 213d 7791 293c ec1e 753d
000002c0: b9a8 f43c a2f9 993e bfb3 a3bc 187a 993d
000002d0: bda6 03bc ca64 9fbd c4ee 8e3e d3d7 f3bd
000002e0: 0026 3d3d 6804 52bd 6e53 88bd 67ce a2be
000002f0: 7d07 023e e65b 9a3d 9df3 aebd dba4 ba3e
00000300: e7c6 4bbe 487d 623d d28c 9b3d a7c3 943e
00000310: 6d18 4dbd 8a38 d33d 1fd8 953e 90ea ccbd
00000320: e3ea 96bd 6490 cebe 236e b7bd cb76 333e
00000330: 2f87 febd b605 8b3b 5ebe 973d 0c29 463e
00000340: bf8c 2c3e bef2 f43d 24c9 e53e 8d8b 26bd
00000350: 2567 a0bd 699b 083d fe73 113e e6f3 d5bd
00000360: 6c81 023e 0ea1 a53d 8ccb ddbd 7060 16ba
00000370: 29c1 e53d ca2e 053e ba6d b43e e9ee 173d
00000380: c95f 873e 45fd d43c 51be b53e 5ad5 dabd
00000390: 2fca fa3d 6974 afbe e9b4 5f3e 236f 943c
000003a0: f61b 4dbe e06f 09bf 125e c63d 4124 54bc
000003b0: 9dbf c5bd 7229 28be 220c a73d ace4 54be
000003c0: 341a 2f3d d169 f23d 845c b5bc 6f62 293e
000003d0: 0c6f b23c 0f08 8bbe 7061 0b3d 7db3 d1bd
000003e0: dd7a 04be 2d6a 94bd 2ad5 7d3d da65 0dbe
000003f0: f10f 56bd 97e2 bb3d 5b73 f63d 204a 7cbd

base.critic.2.bias f4 [64]
-6.815692e-05 0.00084768905 -8.2773295e-05 -9.9641875e-05 -0.00031670107 0.000698049 -4.040587e-05 0.0007849647
0.0010653748 -0.0010806595 -0.0013980048 0.0 -0.00084189133 0.0 0.00037754534 -0.0013175908
0.0 -0.00023697651 -0.00024391424 0.0 -4.4959866e-05 -0.0018926031 -0.00013815229 -3.0531035e-05
3.332973e-05 -0.0002674987 0.0002261857 0.00029244335 -0.0010925527 3.4199125e-05 -0.0013600788 -0.0013283328
-0.00010954011 8.501753e-05 0.0 0.0013968392 -1.6686805e-05 0.00015684328 -0.00017400211 0.0
0.00042826467 -8.606737e-05 -0.0012431813 0.00025856716 0.00015436106 0.0012773542 -1.9771005e-05 0.0
-0.0024490622 2.8334178e-05 -0.00034085102 0.00054413464 0.00013456674 -0.00010127611 -3.9913684e-05 0.00016775302
-0.00016920855 -0.0014281096 0.000543579 0.0 -4.195956e-05 2.629492e-05 0.0003644351 0.0013614807
00000000: 78ef 8eb8 7337 5e3a 9396 adb8 d3f6 d0b8
00000010: e60a a6b9 47fd 363a 7979 29b8 17c6 4d3a
00000020: 0ca4 8b3a eaa4 8dba 423d b7ba 0000 0000
00000030: 5fb2 5cba 0000 0000 47f1 c539 03b3 acba
00000040: 0000 0000 e67c 78b9 3bc3 7fb9 0000 0000
00000050: 4a93 3cb8 3911 f8ba f9dc 10b9 730e 00b8
00000060: 86cb 0b38 113f 8cb9 432c 6d39 1553 9939
00000070: fc33 8fba 0871 0f38 ac44 b2ba 741b aeba
00000080: e6b8 e5b8 704b b238 0000 0000 2516 b73a
00000090: a4fa 8bb7 4c76 2439 5674 36b9 0000 0000
000000a0: b688 e039 117f b4b8 3ef2 a2ba 4c90 8739
000000b0: fbdb 2139 e56c a73a e9d9 a5b7 0000 0000
000000c0: 7280 20bb 2faf ed37 40b4 b2b9 42a4 0e3a
000000d0: 7c1a 0d39 3364 d4b8 fe68 27b8 dce6 2f39
000000e0: 936d 31b9 682f bbba f87e 0e3a 0000 0000
000000f0: bcfd 2fb8 e993 dc37 a711 bf39 b673 b23a

base.critic_linear.weight f4 [1, 64]
0.10426958 0.057365958 -0.07457838 -0.088608794 -0.0446063 -0.007270994 -0.23146226 -0.06770599
-0.11915531 -0.11746794 0.17993405 0.033713095 0.21667147 0.15940717 0.3300286 0.17507567
-0.08155972 0.24670006 0.23360354 0.080196366 -0.06788307 -0.20789808 -0.46381518 0.14393115
0.08051831 -0.07149146 0.06803502 -0.34946528 -0.16039562 0.08010135 0.06501475 -0.2533463
-0.14539385 -0.07002893 -0.09836323 0.093940176 0.38167903 0.32163706 -0.3018181 0.078386016
-0.009484944 -0.031307857 0.028918777 0.013748177 -0.023020346 0.12730785 -0.2288665 0.35081807
0.24386188 0.06485866 -0.27003786 0.1787085 0.2141772 -0.00049957936 -0.29885843 0.19649829
-0.0056183934 0.06495982 -0.0427731 0.07002623 -0.14930603 0.033360526 -0.116835676 -0.07035709
00000000: 4a8b d53d 91f8 6a3d 8dbc 98bd 8778 b5bd
00000010: 18b5 36bd 8541 eebb 7104 6dbe 70a9 8abd
00000020: b307 f4bd 0893 f0bd a240 383e be16 0a3d
00000030: 20df 5d3e a23b 233e 82f9 a83e 0947 333e
00000040: c808 a7bd f19e 7c3e c435 6f3e fe3d a43d
00000050: 4706 8bbd 3ce3 54be 2f79 edbe b062 133e
00000060: c9e6 a43d 1d6a 92bd f255 8b3d 1ded b2be
00000070: c03e 24be 2d0c a43d 7426 853d 9bb6 81be
00000080: 20e2 14be 546b 8fbd a972 c9bd b563 c03d
00000090: 6f6b c33e 9dad a43e e787 9abe d988 a03d
000000a0: bd66 1bbc ab3c 00bd 12e7 ec3c 0940 613c
000000b0: 2a95 bcbc fd5c 023e fb5b 6abe 6d9e b33e
000000c0: eeb6 793e 9ed4 843d 6742 8abe 5cff 363e
000000d0: 4551 5b3e 34f6 02ba f903 99be d936 493e
000000e0: 801a b8bb a709 853d d932 2fbd e969 8f3d
000000f0: aee3 18be 0ca5 083d 8b47 efbd 6117 90bd

dist.linear.weight f4 [5, 64]
0.0025585187 0.0037286473 0.0018570569 -0.0007786229 0.0030081852 -0.0027994863 0.00306372 0.00067580445
0.003205206 0.0013446164 0.0038793313 -0.0009317359 0.00088721176 -0.00038679174 -0.0006861218 -0.00088247104
-0.006025874 -0.0013990161 -0.0012960397 0.0014879026 0.0015176563 0.000687532 0.0011911643 0.0018065965
-9.479808e-05 0.0032004577 -0.00043037353 0.0011836276 0.0019017523 -0.004068453 0.003570027 0.0014293222
0.0012157143 -0.002988916 0.0008081719 -0.0010491342 0.00021568914 0.0018626346 -0.0006261479 0.0034879702
0.0024724626 0.0013370813 -0.0037674496 0.00024691774 -0.002198966 -0.0007970097 0.0022009024 0.0031406088
0.0032697355 0.0055058748 0.00511159 0.0047710924 -0.0026764038 0.0042425203 0.0030866414 0.0009908052
-0.0013349099 0.0020979505 0.0032372647 -0.0018111103 0.0035487358 0.0012004043 -0.0010994037 -0.0025775912
0.0031825483 -0.006225841 -0.00071293494 -0.004710667 -0.0026818307 0.0013837974 -0.0030292508 -0.0026049814
-0.0043131327 -0.0043006893 0.0023240445 0.0009796035 0.0023757662 -0.0025248413 -0.0024927538 -0.0022396082
0.0023683435 -0.0027586948 -0.001451889 -0.0012244222 -0.00250159 -0.00022842978 0.0001674849 -0.0011443553
-0.0007054197 -0.0027590853 -0.000400871 -0.0020556247 -0.0025289168 -0.0013255222 0.0011325036 -0.0022345101
-0.0024712752 0.002217818 -0.0035477364 -0.005330413 0.0012658619 -0.0026584666 -0.0007369716 -0.0027738377
-0.0008902118 0.0010653983 -0.00424169 -2.957481e-05 -0.00010550763 -0.0005239441 -0.0030822789 -0.002719248
-0.0038701452 -0.002710914 0.0029510118 -0.0017172073 0.0028143239 -0.0042959303 -0.0007419859 0.001986388
0.0013242263 -0.0036917722 -0.0042642555 -0.0038361482 -0.0021745963 -0.0051865964 0.0013528218 -0.0029556074
-0.0043310476 -0.00023882867 -0.001042652 0.0029543568 -0.0012473838 0.0026151657 0.002962606 0.00621035
0.0023160903 0.0029461433 -0.0019102887 -0.0027143676 4.244661e-05 -0.00042752622 0.003240948 0.0001475155
0.003965978 0.0025124878 0.0008006218 0.0031988139 -0.0014749864 0.0004579488 -0.0027417047 0.00268779
0.0019855206 -0.00070869765 -0.0017618064 0.00040248773 0.0021140685 0.0026234246 0.00022357881 0.0038788668
0.0017679983 -0.0027067168 0.0027477841 0.000807433 -0.0016883843 0.000810966 0.0024761176 0.0009240485
0.00041420254 -0.00021101002 0.0029180679 0.0022729672 -0.0008496243 -0.00029598016 0.00087087665 -0.00022806152
-0.0036864837 -0.0030044846 -0.0016060986 -0.0045377263 0.0027851237 -0.0033101055 0.0012673113 0.00096458045
0.00023105332 -0.0004389073 0.0002986687 0.00084627897 -0.0011562594 -0.0030034592 0.0008842372 0.004795988
0.00020342154 -0.0022763931 0.0021066796 -0.00102147 -0.00033846396 0.0020781923 -0.002436395 -0.0013887435
-0.0040358957 0.0021022188 0.00087481976 0.0028852588 0.00011425254 -0.002110193 -4.338554e-06 0.00038149022
0.002085673 -0.0024075233 -0.0026279762 0.00012872613 0.00095744705 0.0020665436 0.0046648695 -0.0021742922
-0.0018094945 -0.00043962008 -0.000114305374 0.00092035794 -0.0043385723 -0.00034789485 0.0001631933 -0.0014666761
-0.0060444116 -0.0043964568 -0.00047380046 -0.0010990602 -0.0017314684 -0.00069809944 -0.003878537 2.2835697e-05
0.0029142296 -0.0020246974 -0.0019158106 -0.00059164915 -0.0023845779 0.00045559608 -0.0015114767 -0.00080050365
0.001572218 -0.0028567086 0.003182835 -0.0021013212 -0.0059916405 0.0010404695 -0.0016988025 0.00023742202
0.0012504242 -0.0043804976 -0.0021512283 -0.0016951918 -0.0031660125 -0.0016965242 0.0013290962 -0.0028355222
00000000: d2ac 273b 525c 743b 7d68 f33a 801c 4cba
00000010: f924 453b 9677 37bb b1c8 483b 7828 313a
00000020: 6f0e 523b d73d b03a 613c 7e3b bd3f 74ba
00000030: c693 683a 4fca cab9 dbdc 33ba a155 67ba
00000040: b274 c5bb 315f b7ba e0df a9ba ba05 c33a
00000050: 18ec c63a 7e3b 343a d720 9c3a 52cb ec3a
00000060: 55ce c6b8 c5be 513b c2a3 e1b9 f423 9b3a
00000070: 3844 f93a a850 85bb 1df7 693b 1858 bb3a
00000080: 9a58 9f3a b0e1 43bb 80db 533a 1a83 89ba
00000090: 9d2a 6239 a523 f43a 1324 24ba 6e96 643b
000000a0: 0a09 223b 0141 af3a 51e7 76bb bd74 8139
000000b0: 871c 10bb 6aee 50ba 043d 103b acd2 4d3b
000000c0: 0f49 563b a06a b43b 207f a73b d356 9c3b
000000d0: 9b66 2fbb d704 8b3b 4049 4a3b e8dd 813a
000000e0: 25f8 aeba c57d 093b 4a28 543b c762 edba
000000f0: e891 683b e256 9d3a de19 90ba ceec 28bb
00000100: 4d92 503b 2402 ccbb 41e4 3aba f05b 9abb
00000110: a7c1 2fbb 8960 b53a 6586 46bb 56b8 2abb
00000120: 2e55 8dbb ccec 8cbb ff4e 183b 0a66 803a
00000130: beb2 1b3b cf77 25bb 785d 23bb 64c6 12bb
00000140: 3636 1b3b 38cb 34bb 504d beba cb7c a0ba
00000150: b7f1 23bb a786 6fb9 e39e 2f39 31fe 95ba
00000160: eaeb 38ba c5d1 34bb ff2b d2b9 a9b7 06bb
00000170: 2fbc 25bb 25bd adba 8470 943a dc70 12bb
00000180: 1ef5 21bb d058 113b 2481 68bb bfaa aebb
00000190: 47eb a53a ab39 2ebb 5431 41ba 46c9 35bb
000001a0: 1a5d 69ba d6a4 8b3a e0fd 8abb 6c17 f8b7
000001b0: fa43 ddb8 4b59 09ba 0f00 4abb 6935 32bb
000001c0: 43a2 7dbb 97a9 31bb c365 413b ea13 e1ba
000001d0: 8570 383b e0c4 8cbb d581 42ba 0f2e 023b
000001e0: a991 ad3a a9f1 71bb 2bbb 8bbb e367 7bbb
000001f0: ac83 0ebb 53f4 a9bb 2b51 b13a ddb2 41bb
00000200: 76eb 8dbb 156e 7ab9 98a9 88ba e29d 413b
00000210: 417f a3ba 3363 2b3b 4828 423b 3180 cb3b
00000220: 8cc9 173b 1514 413b a762 faba 88e3 31bb
00000230: b308 3238 9925 e0b9 1666 543b 64ae 1a39
00000240: 09f5 813b 8da8 243b d2e0 513a 31a3 513b
00000250: 5554 c1ba d918 f039 2cae 33bb a225 303b
00000260: 821f 023b e5c7 39ba 6aec e6ba fd04 d339
00000270: 2f8c 0a3b c3ed 2b3b 7b70 6a39 9634 7e3b
00000280: 2ebc e73a 2c63 31bb 2b14 343b e9a9 533a
00000290: c74c ddba 0297 543a 5c46 223b d83b 723a
000002a0: 5329 d939 9242 5db9 0e3d 3f3b 10f6 143b
000002b0: 52b9 5eba c92d 9bb9 8b4b 643a cc23 6fb9
000002c0: ef98 71bb e3e6 44bb ba83 d2ba 35b1 94bb
000002d0: 9f86 363b 5bee 58bb e91b a63a e6db 7c3a
000002e0: e746 7239 241d e6b9 a296 9c39 d2d8 5d3a
000002f0: a18d 97ba afd5 44bb 27cc 673a aa27 9d3b
00000300: 8e4d 5539 8a2f 15bb 3810 0a3b d8e2 85ba
00000310: dd73 b1b9 4832 083b edab 1fbb 8006 b6ba
00000320: 8c3f 84bb 61c5 093b 2954 653a 9c16 3d3b
00000330: de9a ef38 2a4b 0abb e593 91b6 c002 c839
00000340: c9af 083b 8ac7 1dbb 203a 2cbb a8fa 0639
00000350: 2ffd 7a3a d96e 073b c3db 983b 927e 0ebb
00000360: 8f2c edba cf7c e6b9 3bb7 efb8 2d44 713a
00000370: 952a 8ebb a865 b6b9 de1e 2b39 7c3d c0ba
00000380: 3310 c6bb 2710 90bb 6c68 f8b9 570e 90ba
00000390: 70f2 e2ba a900 37ba 0e2f 7ebb 498f bf37
000003a0: a9fc 3e3b c9b0 04bb f01b fbba e718 1bba
000003b0: 9446 1cbb 12dd ee39 be1c c6ba e4d8 51ba
000003c0: e212 ce3a 9e37 3bbb 1c97 503b 52b6 09bb
000003d0: 8655 c4bb 5d60 883a 5aaa deba 7df4 7839
000003e0: 46e5 a33a 478a 8fbb 9ffb 0cbb 3331 deba
000003f0: e07c 4fbb e85d deba 1135 ae3a 2bd4 39bb

dist.linear.bias f4 [5]
0.0017159461 -0.002243414 0.0010289649 -0.00073773466 1.8980958e-05
00000000: 99e9 e03a 3e06 13bb 55de 863a 8964 41ba
00000010: 4c39 9f37
