trained_models_query_mutator/final_model.pt (torch, 433927 bytes, 11 tensors)

base.actor.0.weight f4 [64, 768]
000000 de f4 17 3c 11 f7 b1 bc fd 44 05 bd 34 7c 3c 3d
       0.0092746895 -0.021724256 -0.032536495 0.046016887
000010 b9 4a be 3a 15 87 61 bb 08 2f b7 3b 56 99 02 bd
       0.0014518119 -0.003441279 0.0055903234 -0.031884514
000020 66 a6 86 3a b0 f9 52 3d 51 b6 7c bc 13 44 67 bc
       0.0010272979 0.05150765 -0.015424327 -0.014115351
000030 dc 06 2f bd cc d4 bb 3c a9 b1 43 bc 23 14 98 3d
       -0.04273115 0.022928618 -0.011944213 0.07425716
000040 79 00 c0 3c ad ca 17 3d 56 7a 32 bd b2 88 14 3d
       0.023437725 0.03705852 -0.0435737 0.036263175
000050 4f 83 65 3d 4c 88 23 3d fa 2d 37 3d ce 36 b4 3c
       0.05603343 0.039924905 0.04472158 0.02199879
000060 2d 97 74 bd 83 e4 fd bc 14 56 49 bd 48 5a 94 bd
       -0.059714485 -0.030992752 -0.049154356 -0.07243782
000070 1d 3c 07 3d 54 59 a1 3d cc 13 17 bd c9 0a f0 3c
       0.033016313 0.07878366 -0.036884114 0.029302018
000080 02 ca 81 3d 9d 78 c7 3c b7 db 1c bd c8 0d eb 3c
       0.06337358 0.024349505 -0.038295474 0.028693095
000090 fe 01 27 bd f5 81 4d bd 86 76 c6 3b d5 6a 97 bc
       -0.040773384 -0.050172765 0.0060566096 -0.018483559
0000a0 9b e2 67 bc 3c 29 c2 3d 9d 84 4f bd fb 23 46 3d
       -0.014153148 0.09480521 -0.05066358 0.048374157
0000b0 be 1d 39 bd a2 19 29 bb 4b a4 45 3d 82 4b 87 ba
       -0.04519438 -0.0025802632 0.048252385 -0.0010322186
0000c0 0b 29 3b bd 48 1e a8 bc 46 2b c1 bd ce dc 81 3b
       -0.04569344 -0.020522252 -0.09432082 0.0039630895
0000d0 0c ad 44 3d 3c bc 9e 3d 30 84 55 bd 10 3b 1b 3d
       0.048016593 0.077507466 -0.052128017 0.037898123
0000e0 3a 0f f7 3c 99 61 8f bb 69 0e 13 3d 55 65 a4 3c
       0.030158628 -0.004375648 0.035902414 0.02006785
0000f0 dd ad 06 3d 6b ff be 3c 2f b5 2a 3d c7 3a 87 3d
       0.032880653 0.023315152 0.041676696 0.06603008
000100 7e 3c 81 bd ec a0 cf bc fe af 0d 3d 08 83 ba 3c
       -0.06310366 -0.025345288 0.034591667 0.022767559
000110 25 69 63 bd b5 ca 0d 3d 19 69 44 bc b8 79 02 bd
       -0.055520196 0.034617145 -0.011987948 -0.03185436
000120 60 d7 f8 3c a8 0a 4e 3d df 99 a4 3c 94 f4 c8 bc
       0.030376136 0.05030313 0.020092903 -0.024530686
000130 9f 71 70 3c 3d c5 8f bc df 84 37 bd 14 cc 74 bd
       0.014675527 -0.017550105 -0.04480445 -0.059764937
000140 21 34 26 bd 44 1d a5 3c 6b aa f1 3c 38 bc ec bc
       -0.040577058 0.020155556 0.029500207 -0.028898343
000150 85 81 2a bc b0 d1 c6 3c 59 99 79 3d 65 30 e3 3c
       -0.010406856 0.024269909 0.06093726 0.027733037
000160 19 60 d0 3d 89 bb be bb 94 61 ef bd 5e d4 36 bc
       0.10174579 -0.005820696 -0.116885334 -0.011159031
000170 cd b0 27 3d 17 81 c0 bc 3f 86 ec 3c c7 48 80 3d
       0.040940095 -0.023499055 0.028872607 0.06263881
000180 fe af 58 bd 17 55 fa bc c2 e3 be bd 58 25 bd bc
       -0.052902214 -0.030558152 -0.09320785 -0.023089096
000190 06 69 a8 bd 75 b9 f8 3d fe 49 c6 3d af 99 c3 3d
       -0.08223157 0.12144748 0.09682082 0.09550797
0001a0 f7 10 29 3c 7d 46 e1 3c 89 16 f9 bd 0b 08 c1 3c
       0.010318986 0.027499432 -0.12162501 0.023563405
0001b0 13 9f 3e 3d af 41 73 bd bf 98 d6 bc bc 84 41 bd
       0.046538424 -0.059388813 -0.026195882 -0.047245726
0001c0 fc b3 87 3d b8 db 27 3d 83 2d 14 3d 91 29 2b bd
       0.06626126 0.040981025 0.036176216 -0.041787688
0001d0 2c a0 ff bb 2e dc 0e bc cc 42 77 bd f8 2e 0e 3c
       -0.0078010764 -0.008719487 -0.060366437 0.00867819
0001e0 d3 80 5f 3d f8 a2 8c 3d c2 85 60 3d 16 fc 3b bd
       0.054566216 0.06867021 0.05481506 -0.045894705
0001f0 ef eb 52 bb 53 a5 ff bc f9 29 d8 bc c6 ca 4f bd
       -0.0032184084 -0.031206762 -0.026387202 -0.05073049
000200 8e 2f b1 3d 36 06 49 3c cd a9 0a 3d 02 3d 8f 3d
       0.086516485 0.012269547 0.03385334 0.06994058
000210 0c 13 a0 3d c2 f6 69 bd c0 21 25 3d 7e 95 c8 bc
       0.07816133 -0.057120092 0.04031539 -0.024485346
000220 9e fc e6 3c fd b0 5f bd d6 95 2a bd 31 a0 22 bd
       0.02819663 -0.05461215 -0.0416468 -0.03970355
000230 6b 85 06 3c 4f 67 44 bd 6d f7 11 bd 3f 18 96 3d
       0.00821052 -0.047950085 -0.035636354 0.07328843
000240 8c 84 50 3d d5 fc 97 3d 88 15 a1 bd 61 6c b0 3d
       0.050907657 0.07421271 -0.07865435 0.08614422
000250 21 14 63 3c 21 f4 1e 3b 8c 77 d6 3c 6a bc c2 bc
       0.01385978 0.00242544 0.026180051 -0.023771483
000260 8d 69 93 bc b0 5b dc 39 f1 e1 74 3d 9e 9e c1 3c
       -0.017994666 0.00042029982 0.059785787 0.023635205
000270 9b 9d 18 bd 79 1a 18 3c 81 90 86 bd eb 2f c5 bd
       -0.03725968 0.009283655 -0.06570531 -0.0962828
000280 d3 a7 3b bd 4b 48 02 3d c2 ae ce 3d 06 c2 34 bd
       -0.045814347 0.031807225 0.10091926 -0.044130348
000290 ee 6a 1c 3d da 1e 0d 3c a2 63 bf bd 5a af d5 bd
       0.038187914 0.008613313 -0.09345175 -0.10433836
0002a0 ef 03 bc bb 0d bf 6e bd eb 6c 6d bd 6e 51 2a 3d
       -0.0057377736 -0.05828767 -0.0579652 0.041581564
0002b0 a3 f8 75 3d 2b f5 9a bd 7e 22 9a bd 34 59 1e 3e
       0.06005157 -0.07566293 -0.0752611 0.15463716
0002c0 de 71 e0 bd 05 3e 17 bb 39 33 1f 3d f4 d3 85 3c
       -0.109592184 -0.0023077738 0.03886721 0.016336419
0002d0 64 04 00 3d 1c a6 5a bd f4 00 af bd 2e c8 c9 bd
       0.031254187 -0.05338107 -0.08545104 -0.09852634
0002e0 8b ec 42 bd 18 07 e1 3c 47 52 cf bd 90 66 21 bd
       -0.047588866 0.027469203 -0.10123115 -0.03940445
0002f0 67 2a 1c bd 33 6a 5e 3c 4d b2 8c 3c d2 d4 87 bc
       -0.038126376 0.013575125 0.017174864 -0.016580973
000300 12 35 e2 bc 79 51 a2 3d f9 33 b0 3d 14 cb f9 bc
       -0.027613197 0.07925696 0.08603663 -0.030492343
000310 fe 77 2d ba b3 8b 11 bd b4 2e 47 3d 40 98 b4 bb
       -0.00066173065 -0.03553362 0.048628524 -0.0055113137
000320 ae f2 41 bd 60 bc 3a bc 93 0d e7 bd 28 63 8c 3c
       -0.047350578 -0.011397451 -0.11281886 0.017137125
000330 86 cf fd b9 a1 04 40 3d 21 a5 78 3c b7 71 1c 3d
       -0.00048410537 0.046879414 0.015176089 0.038194384
000340 3c 82 cc 3c 44 01 7a bd a8 0c b5 3d 82 d5 81 bd
       0.024964444 -0.061036363 0.088403046 -0.063395515
000350 88 c3 43 3d ff d5 95 bd dd 0b 6c bd 0d 13 15 bc
       0.047793895 -0.07316207 -0.0576285 -0.00909878
000360 ce 8c 5c bb d2 54 1d bd 54 3f 16 3d 96 1c fa bc
       -0.0033653262 -0.03841097 0.03668149 -0.030531209
000370 6e c6 a1 bc 39 49 b0 3c d3 ce 65 bb f1 1a c8 3c
       -0.019747939 0.02151929 -0.0035065904 0.02442691
000380 cd cb 1d bd 76 c7 06 bd 34 40 82 bd fa 95 50 3c
       -0.038524438 -0.032905065 -0.06359902 0.01273107
000390 0a f5 35 3d 56 03 8a 3d b1 24 46 3d 61 56 1d 3d
       0.04442314 0.067389175 0.048374835 0.038412455
0003a0 b1 a8 cb bc 41 bd 90 3c 49 0c a7 bc 20 1d 74 3a
       -0.024860712 0.017668368 -0.0203916 0.00093122013
0003b0 9e e7 d4 ba b1 3f b1 3d 72 dd 5d bd c2 01 10 3d
       -0.0016243344 0.08654726 -0.054166265 0.035157926
0003c0 42 3b 99 3c d3 fb 3c 3c 0d 1e 28 3d c3 53 3b 3c
       0.018705014 0.011534649 0.041044284 0.011433545
0003d0 e1 6b 54 bb 53 17 fa 3c d8 ee 8d 3c dc b7 eb bc
       -0.0032412934 0.0305287 0.017325804 -0.028774194
0003e0 3f 74 85 bd f1 b5 81 bc f2 d7 16 3d f2 61 aa bd
       -0.06516313 -0.015833827 0.036827035 -0.08319463
0003f0 a1 4e ae bb 9a 91 88 3c d6 fa b4 3c b8 95 0b 3c
       -0.005319432 0.01667099 0.022092264 0.008519582

base.actor.0.bias f4 [64]
000000 b2 00 b5 bb 00 00 00 00 d1 7b 51 3b 39 a3 e0 3b
       -0.0055237645 0.0 0.003196467 0.006855395
000010 6e 43 8b bb be 62 95 3a a3 3b 05 3b 1b 00 61 3b
       -0.0042499816 0.0011397225 0.0020329736 0.0034332338
000020 ae 9d 13 3b 35 b0 b5 bb 80 f5 3f bb 16 7f 14 bb
       0.0022524404 -0.005544687 -0.0029290617 -0.0022658757
000030 5e 33 ae 3b d7 84 5d 3b 7f a2 a6 38 58 c9 37 bb
       0.005316182 0.0033801103 7.945764e-05 -0.0028043594
000040 8e 70 06 ba 6b db 18 3b 6e 3c a7 ba 32 b1 84 3b
       -0.00051284663 0.0023324143 -0.0012759098 0.0040494436
000050 7d f6 11 3b d7 f0 1d ba 03 b3 9c 3b 8f 21 82 3b
       0.0022272163 -0.00060249626 0.004782082 0.0039712857
000060 ae 90 a8 3b b2 94 6b 3b 4c 4b fb 3a 04 73 1d 3b
       0.0051442003 0.0035946784 0.001917222 0.0024024853
000070 a6 22 49 ba 0a 1d f0 3a e2 97 9a 3b 00 00 00 00
       -0.00076727045 0.0018319201 0.004717813 0.0
000080 49 d9 9f bb 66 e5 34 b7 42 10 6c 3a 23 4c 49 ba
       -0.0048781973 -1.0782247e-05 0.0009005108 -0.0007678887
000090 74 a6 e7 3a bc 97 8c 3b b8 c1 cc 3a a4 21 88 3a
       0.0017673508 0.004290549 0.0015621698 0.0010386002
0000a0 89 37 8a bb eb 5f 67 ba 33 01 77 ba 94 30 5e 3b
       -0.004218046 -0.00088262436 -0.0009422481 0.0033903467
0000b0 51 b6 40 3a 78 d0 2e 3b cd 0d b8 3b 06 5a f5 b6
       0.0007351386 0.002667455 0.0056168796 -7.312049e-06
0000c0 d9 4a 25 3b 30 a3 9d 3b 67 9b fd ba 3a 79 8e b9
       0.0025221615 0.004810713 -0.0019348682 -0.0002717467
0000d0 bf af 92 3b fd a7 f7 3a b6 7a 68 3b 56 12 25 3b
       0.004476517 0.0018894669 0.0035473532 0.002518793
0000e0 44 4f 52 3b fc 06 b6 ba 7a a5 ad 3a 4a 57 a5 b8
       0.0032090703 -0.001388758 0.0013248168 -7.884072e-05
0000f0 00 00 00 00 4e 72 9a 39 2d 3b 8f b9 c3 8b b4 3b
       0.0 0.00029458333 -0.00027319175 0.005509825

base.actor.2.weight f4 [64, 64]
000000 35 68 22 3e 6b 67 aa 3e 79 64 01 be 55 51 a6 3d
       0.15860064 0.33282027 -0.12635984 0.081209816
000010 10 a2 00 be b6 74 77 3e fe 4f 99 3d a5 9a 42 be
       -0.12561822 0.24165615 0.074859604 -0.19004305
000020 ab d1 2e bd b0 9d f0 3d 8e 48 d9 3c ae 08 d5 3c
       -0.042680424 0.117488265 0.026523855 0.026005115
000030 ff c9 87 3d f7 a2 12 be 99 1d f6 bc 9e 28 6a 3e
       0.066303246 -0.14319979 -0.03004341 0.22867057
000040 0f 12 80 3c c8 2f 5a 3c 11 a5 ba 3b f9 5b 25 be
       0.015633611 0.013317056 0.005695947 -0.16148366
000050 d9 15 00 be 71 c6 05 be d6 0c 06 be 19 f0 58 3e
       -0.12508334 -0.1306398 -0.13090834 0.2118534
000060 da 9f 28 be ad 38 2d be 02 ab 12 3e 30 a5 7c bc
       -0.16467229 -0.16916151 0.14323047 -0.015420243
000070 ff 35 b9 be 61 99 65 be 59 ba 64 3e 2d 5d dd be
       -0.36174008 -0.2242179 0.22336711 -0.4323515
000080 85 d7 16 3d 78 3b 1d be f2 0b 36 be af 33 87 bd
       0.03682663 -0.15354717 -0.17777994 -0.06601655
000090 02 10 e6 bc 84 1a b8 3d 29 8d 37 be 56 ca 29 be
       -0.028083805 0.089894325 -0.17924942 -0.16581091
0000a0 3a b3 ef bd 8a ea b5 be cd 71 16 be 3e ec d8 3e
       -0.11704107 -0.35530502 -0.14691849 0.42367738
0000b0 eb c9 82 be 62 d7 ac 3d 99 63 8f bd be 00 9d 3e
       -0.25544676 0.084395185 -0.070014186 0.3066463
0000c0 05 bf 3e 3d 0e 26 a7 3d 42 73 03 be 06 35 41 bc
       0.04656889 0.08161555 -0.12836936 -0.011792427
0000d0 ec 04 41 3e 2e a1 c1 3e 80 83 0c bd fc 9d 50 bd
       0.18849534 0.37818283 -0.034305096 -0.050931916
0000e0 d9 7e 13 be 8b 09 09 be f0 a1 02 bd 7e b1 f5 bc
       -0.14403857 -0.13382547 -0.031892717 -0.029991861
0000f0 33 a1 16 be ae 55 61 3d e3 9a 27 3e 78 44 90 3e
       -0.1470993 0.05501335 0.16367678 0.28177238
000100 33 86 b1 bd ae de 2f 3e 88 79 32 3e d5 7e a5 3e
       -0.086681746 0.1717479 0.17429173 0.32323328
000110 d4 8b 72 be f3 f4 c3 bd 55 be 40 be 19 7b cb bd
       -0.23686153 -0.09568205 -0.18822606 -0.099355884
000120 5b 82 69 3e a1 c2 74 be ec 69 9a be 60 3e 45 3e
       0.22803633 -0.2390237 -0.30158937 0.19262075
000130 aa 60 ae 3d 8f 0d 07 be 3d 97 e6 bc cb 77 b5 be
       0.08514531 -0.13188766 -0.028148288 -0.35442957
000140 aa ef 07 3e 37 e3 44 be 2b c9 93 3e 82 7c f9 bd
       0.13275018 -0.192273 0.28864416 -0.12181951
000150 db b1 30 3d 0c ba 2d 3d 6d 33 23 3e f9 b1 6f bd
       0.043138366 0.042413756 0.15937586 -0.058519337
000160 2d d2 91 3d 20 c1 21 3e 4d be 04 3e 71 60 2b 3d
       0.07120166 0.15796328 0.12963219 0.04184002
000170 3b 68 aa be 56 39 a5 3d 68 d7 47 3e e9 8a 51 3e
       -0.33282647 0.080675766 0.19515765 0.20463146
000180 d6 e5 2d bd c3 f6 0c 3e be 50 d3 be 2d 5f 29 3d
       -0.042455517 0.13766007 -0.4127254 0.041350532
000190 51 ca 70 3e 6e 16 9f 3d f5 a2 60 bd 92 29 81 be
       0.23514678 0.0776795 -0.054842908 -0.25227028
0001a0 a7 a1 4c bd 58 b0 50 3d d9 13 19 be 82 b3 a0 bd
       -0.04995885 0.050949425 -0.14948978 -0.078467384
0001b0 6e 93 ad bc f2 d9 74 be e4 05 43 bc 81 93 33 bd
       -0.021188464 -0.23911265 -0.01190326 -0.043841843
0001c0 6f 70 db 3d 86 45 18 3e 2e fa 39 3e aa b7 02 3e
       0.107148044 0.14870271 0.18161842 0.12765375
0001d0 a6 e0 4b 3d 09 c2 84 3d d0 70 7f 3e c4 00 92 bd
       0.04977479 0.06482322 0.24945378 -0.07129052
0001e0 b3 1f fd 3e f2 15 51 be 5c b6 ae 3c 1f 9d a7 3c
       0.49438247 -0.20418528 0.02132719 0.020460663
0001f0 24 24 0c bd ed 5e 5d be 50 a7 df b9 d2 db 21 3d
       -0.034214154 -0.21618243 -0.00042658532 0.039516278
000200 ee 2c 3f 3e 46 73 0a 3e e0 64 63 be 12 d7 78 3c
       0.18669483 0.13520536 -0.2220645 0.0151879955
000210 5f 90 18 bf 40 66 d4 bd 57 8b a7 3d 9c f8 49 3e
       -0.5959529 -0.10371065 0.08180874 0.19723743
000220 7f ba a6 3d 42 5d 12 be 1e 3d 55 bd f4 f3 fc bd
       0.0814104 -0.14293388 -0.05206024 -0.12351218
000230 2b a6 33 3d d6 3d b3 3d 14 9c ad 3b 04 3e a9 be
       0.043859642 0.08752029 0.005298147 -0.33055127
000240 df 89 62 bc 1b 67 99 3d 24 21 b2 be 03 cc 9e 3d
       -0.013826816 0.07490369 -0.3479091 0.07753756
000250 b2 13 90 3d 34 12 0d be bc 04 ee bd 9a fa c5 bc
       0.070350066 -0.13776475 -0.11621997 -0.024167348
000260 94 9b 40 3e 62 fc 3a be 0b 04 4b bc 96 ac ad 3a
       0.18809348 -0.18260339 -0.012391101 0.0013250287
000270 52 30 bc 3c f0 e8 7d 3e 1f 59 be 3d c9 97 24 3a
       0.02297226 0.2479589 0.09294342 0.0006278721
000280 37 43 b6 3d d0 cf 05 be f2 68 4a 3e d1 14 22 3d
       0.08899539 -0.13067555 0.19766596 0.039570633
000290 c6 b2 51 3e 05 69 d2 3d c0 1b b4 be de 0a 25 3a
       0.20478353 0.10273937 -0.35177422 0.000629587
0002a0 a1 c5 8a bd c7 76 f9 3c 17 22 1a bd 58 18 1c 3d
       -0.06775976 0.030452145 -0.037630167 0.038109154
0002b0 bf 35 b9 bc 64 0a a9 be 11 99 f2 be f0 c3 2e 3c
       -0.022608636 -0.3301574 -0.47382405 0.010666832
0002c0 1b 40 81 3c 9e 7b fd be d0 af 87 3c 09 59 a1 bd
       0.015777638 -0.49508375 0.016563326 -0.0787831
0002d0 68 02 3f be b5 62 ce 3d c6 63 9a bd 4d 35 94 bd
       -0.18653262 0.100774206 -0.075385615 -0.07236729
0002e0 a4 3c 08 bd b0 ac 18 3c b9 fe c2 bc fb eb f0 bd
       -0.033260956 0.009318516 -0.023803102 -0.1176376
0002f0 be 58 20 3d a3 ba 8a 3e 2b b4 90 bd 8d 30 1e be
       0.03914713 0.27095518 -0.07065614 -0.15448208
000300 d8 e0 81 3e 32 ae a0 3c e6 8f 1d be 7b d9 6c 3e
       0.25366855 0.019614313 -0.15386924 0.23129837
000310 bf 9f 3d 3e f9 71 66 3e 50 38 e1 bd 73 35 28 bc
       0.1851797 0.22504415 -0.10997069 -0.01026665
000320 68 79 d6 bd e4 e3 90 3d bf 09 12 be 10 6a 8e be
       -0.10472375 0.07074717 -0.1426153 -0.27815294
000330 64 0a 0e 3d fe d6 75 3e 38 f8 23 3e 4b eb ad be
       0.034677878 0.24007794 0.16012657 -0.33968577
000340 33 f4 5b 3e f4 8b c9 3e 6c 39 31 3e 07 c4 99 bd
       0.21479873 0.39364588 0.17307061 -0.075080924
000350 44 ce 2f be c8 a7 3c be f9 8d 5a 3c cc 30 d3 be
       -0.17168528 -0.18423378 0.013339513 -0.41248167
000360 8e 52 1f be 08 0f 10 be 22 38 90 3d 4c ef 88 3b
       -0.15558836 -0.14068234 0.070419565 0.004178917
000370 27 89 67 3e 58 0a 92 3d 07 25 81 bd 28 46 8d be
       0.22610913 0.07130879 -0.063058905 -0.27592587
000380 c7 bd 90 be 4e 12 96 bd 5d d9 15 3e c2 54 31 3d
       -0.2826979 -0.0732771 0.14633699 0.043293722
000390 2a ea 48 3c ae e9 d2 bd aa 70 08 3e 35 8d 6f 3d
       0.01226286 -0.10298477 0.13324228 0.058484275
0003a0 d5 0b 33 bc 9b 8b 71 be 36 90 3c 3e 83 92 9d bd
       -0.010928114 -0.23588412 0.18414387 -0.076939605
0003b0 df 7e 01 be 86 98 01 be 4f 2c 32 bd ca 96 e9 bc
       -0.12646054 -0.1265584 -0.043499287 -0.028514285
0003c0 4f d3 eb bd de 7a c1 3d 42 89 62 be 90 b5 71 3e
       -0.11514913 0.09447263 -0.22122672 0.23604417
0003d0 a6 c9 39 bd b9 21 94 3e 10 79 8f 3d 93 59 54 3c
       -0.045358323 0.28931978 0.07005513 0.012960809
0003e0 e2 b6 bd 3e 70 4d 37 3e 91 76 61 3e 06 d3 5b 3e
       0.3705359 0.17900634 0.22017886 0.21467218
0003f0 02 b1 f0 3d 3f a3 15 be 13 e8 04 bd 35 16 92 bd
       0.117525116 -0.14613055 -0.032447886 -0.07133142

base.actor.2.bias f4 [64]
000000 75 59 fb 3b 0e 1d 9b 3b 00 00 00 00 51 3a c7 3a
       0.007670576 0.004733688 0.0 0.0015199875
000010 ea 21 05 3b 36 2f 57 3b e6 c2 14 3b bb 27 57 3b
       0.0020314404 0.0032834536 0.0022699176 0.0032830078
000020 38 20 8c 3b 93 68 68 3a 35 d5 a5 3b ad 22 8a 3b
       0.0042763017 0.00088656804 0.0050608166 0.0042155595
000030 21 36 8d 3b 9f 33 22 bb 86 96 9e 3b 8a f3 a8 ba
       0.004309431 -0.0024750007 0.004839721 -0.0012889963
000040 a2 d9 97 ba b7 e0 c9 3a ea c0 75 3b b7 f4 cc 3b
       -0.0011585245 0.0015402053 0.003749902 0.006254758
000050 df 6b 38 3b 2f 3f 88 3b 68 a9 aa 3a bf 0a 99 3b
       0.0028140468 0.0041579227 0.0013020458 0.0046704705
000060 a7 da 96 3b de 26 c9 3b b6 2d fc 3a 88 6a 2f 3b
       0.004603702 0.0061386665 0.0019239697 0.0026766378
000070 01 d5 88 3b f0 5e 9c 3b 07 25 98 b9 dd 58 81 3b
       0.0041757827 0.0047720596 -0.00029019287 0.003947361
000080 38 46 8a 3b 4d f2 20 3b 3a b1 84 ba f0 c9 07 3b
       0.0042197965 0.0024558485 -0.0010123618 0.002071973
000090 66 76 17 3b 00 00 00 00 fb f4 78 ba 32 d0 33 3b
       0.0023111342 0.0 -0.0009496954 0.0027437326
0000a0 a9 a1 01 3b f2 3f 70 3b 82 e5 2e 3a 00 00 00 00
       0.0019780195 0.0036659208 0.00066717726 0.0
0000b0 49 e6 6f 3b 00 00 00 00 f4 d6 66 3b 80 77 9f 3b
       0.0036605767 0.0 0.0035223337 0.0048665404
0000c0 7f 15 38 3b 84 26 7d 3b 7a 12 82 3a 98 6d 9d 3a
       0.0028088985 0.0038627693 0.0009923719 0.0012010811
0000d0 50 e2 64 3b 3f bb 9a 3a 49 27 31 3b bf 0c eb 3a
       0.0034924932 0.0011805071 0.0027031472 0.0017932876
0000e0 88 80 33 3b bd e0 c6 3b 87 6f 08 ba 0b 7c 51 ba
       0.0027389843 0.0060692714 -0.0005204607 -0.0007991201
0000f0 2f a0 48 3b bc d5 52 b9 62 59 99 3a 34 67 bb b8
       0.0030613055 -0.00020106783 0.0011699612 -8.936078e-05

base.critic.0.weight f4 [64, 768]
000000 09 ac 33 b9 e7 63 8d 3d f3 e4 69 3c 33 c0 85 bc
       -0.00017134858 0.069038205 0.014275777 -0.016327
000010 e7 45 b6 bb f4 4f fa bc 2c 22 4c bd 8e de e6 3a
       -0.005562532 -0.030555703 -0.049837276 0.0017613934
000020 97 5b 4e bd cd 2d 74 3d 2d e2 5d bd d8 43 08 3d
       -0.050380316 0.05961399 -0.054170776 0.033267826
000030 23 86 b0 bd ed 72 05 3d 6f ba 3c 3d 60 ff fd bc
       -0.086193345 0.032580305 0.046076234 -0.031005561
000040 f8 7c 86 bd e9 3b 4f 3d 6a a1 8d 3b d4 8a b1 3c
       -0.06566805 0.050594244 0.0043222206 0.021672644
000050 ef 84 a3 bd 6d 3f d3 3b 77 4b 27 bd f1 e7 9e bd
       -0.079843394 0.00644677 -0.040843453 -0.07759083
000060 03 81 29 3d e7 3a b0 3c 79 d8 b0 3d bd e9 5e 3d
       0.0413828 0.021512462 0.08635039 0.05442213
000070 ec dc ad bd c8 c5 a1 3c ec d0 7e 3c 87 9a 27 3d
       -0.08489403 0.01974763 0.015552741 0.040918853
000080 1d ba bf 3d 20 30 12 3d af 0a 64 bc 15 8a 85 bd
       0.0936167 0.035690427 -0.013918563 -0.06520478
000090 7b e7 7e 3d 9a e0 38 3d 90 de 44 bd c5 5a 01 3d
       0.062232476 0.04513607 -0.048063815 0.031580705
0000a0 27 96 9d 3d a0 5c df 3d 62 76 ac bc 49 2b ee bc
       0.07694655 0.10906339 -0.021052543 -0.029073374
0000b0 a9 25 b7 3d c5 7a 8c 3c 6b 32 9d bd e9 73 91 bb
       0.0894273 0.017148385 -0.07675632 -0.0044388664
0000c0 cd 5b 0c 3a 76 3d 72 bd 8a 09 8e 3d 98 02 97 3d
       0.00053542556 -0.059140645 0.06935413 0.073735416
0000d0 ef 4b 06 bd d3 ab 14 3d 35 8b 6a 3d 2f 32 7f bd
       -0.03278726 0.036296677 0.057261664 -0.06230372
0000e0 0f 1e f6 bc e2 7e 9c 3d 80 9b 0c 3d 42 f8 44 3c
       -0.03004363 0.076413885 0.034327984 0.01202208
0000f0 0d e6 cf bc e3 2d ef 3c 43 d3 8b bc 56 b5 c3 bc
       -0.025378251 0.029196685 -0.01706851 -0.023890179
000100 cb 7b 9d bc d8 3e ec bd c2 4f a6 3d 27 9b 40 bd
       -0.019224068 -0.11535424 0.08120681 -0.047022965
000110 e5 30 1b 3d af f9 4a 3a 36 eb 5f 3d f7 ed 0e bd
       0.037888426 0.0007742894 0.054667674 -0.03489491
000120 28 79 04 3d d5 69 ac 3d dd ed cd bc 55 d6 2b bd
       0.032342106 0.08418623 -0.025137836 -0.04195245
000130 f5 8e 66 3d 71 c9 dd bd a1 09 ba 3d 49 85 24 3c
       0.05628868 -0.108294375 0.09083868 0.010041543
000140 b4 27 03 bd ae f8 57 3d da fe d1 3d 98 37 ab bc
       -0.032020286 0.052727394 0.10253687 -0.020900533
000150 fe a7 3d bd 6c 43 21 3c f0 21 f9 3c 33 2f e2 3c
       -0.046302788 0.009842735 0.03041169 0.027610397
000160 cb fc 9f bd d9 6e 18 3d 30 9b 54 3d cd 57 c5 3d
       -0.07811888 0.037215088 0.05190581 0.09635887
000170 6e a1 32 bd 18 e3 e0 3c b0 7d e0 3c c1 0d 98 bc
       -0.043610983 0.027452037 0.027403682 -0.018561246
000180 f2 b7 8b bd 57 f5 d2 3c d0 43 cc bd e9 09 70 3d
       -0.06822194 0.025751753 -0.09973872 0.0586032
000190 b5 be 19 bd f1 c2 fa 3c a4 8e 74 3c 46 fc c4 bb
       -0.037535388 0.030610533 0.014926586 -0.0060115186
0001a0 4a 0f b5 bd 3f 2e 33 bd c9 25 9b bb 30 6d 75 bd
       -0.08840807 -0.043745276 -0.004734729 -0.059918582
0001b0 a0 f8 6b 3d d4 54 02 bd bf e4 5c 3c 73 fb 43 bd
       0.057610154 -0.03181918 0.013482272 -0.047847223
0001c0 cf c3 a8 bd 4a 0b 87 bd 60 d9 b3 bb c1 6a e9 bd
       -0.082404725 -0.0659395 -0.0054885596 -0.11397315
0001d0 37 5c e9 3c 3e 61 6d bd 41 a0 82 bc 4e be 5b bd
       0.028486354 -0.057954066 -0.015945556 -0.053648286
0001e0 ab 6e 44 bd e6 b9 64 bb 9a 59 13 3d 77 c5 8a 3d
       -0.047957104 -0.0034900843 0.035974123 0.06775945
0001f0 17 cd c9 3d 6a 34 12 3d ba d9 02 3b e0 d6 46 3c
       0.09853571 0.035694517 0.00199662 0.012136191
000200 04 a5 75 bc 69 83 36 3d d0 f4 5c bb cd d7 f3 3c
       -0.014992956 0.044558916 -0.0033715256 0.029765988
000210 bf c4 0c 3d 30 7b 10 3d 69 f9 8d bd e9 49 15 bd
       0.03436732 0.03527373 -0.06932337 -0.03644744
000220 dd d1 27 3c 53 36 1e bd 53 c9 97 3c d7 70 d3 bc
       0.010242906 -0.038626026 0.018528616 -0.025810642
000230 30 e6 23 3d 6e 4b 37 bc 18 5e 58 3d d0 e8 2b 3a
       0.040014446 -0.011187417 0.05282411 0.0006557824
000240 0d 22 2f 3d 42 35 46 bd 8e db 40 3d 6f bb a8 bd
       0.042757083 -0.048390634 0.047084384 -0.08238875
000250 58 17 e4 bd 0d 8a 1f bc b8 25 80 3d 49 5b 1b 3c
       -0.11137265 -0.009737504 0.06257194 0.009482213
000260 0e 6b 7d 3d 91 e1 9e bd 83 04 f0 bc 3f bf 7e 3c
       0.061869673 -0.07757867 -0.029299026 0.015548526
000270 c4 ff 54 bd a3 3d b1 bc 2c b0 46 3d 4c 11 38 bd
       -0.05200173 -0.021635836 0.048507854 -0.04493837
000280 5e dc 1c bd 87 05 e8 ba c0 e1 0f bd 69 42 56 3d
       -0.038296096 -0.0017701843 -0.0351274 0.052309427
000290 6d 2d e9 3b 6d cf ae bc a2 9a 77 bd 7b 60 d3 bc
       0.007116011 -0.021339143 -0.060450204 -0.025802841
0002a0 b8 f5 91 bd 96 26 4c 3d 81 2c 0d 3d f4 7b f5 3c
       -0.07126945 0.049841486 0.03446627 0.029966332
0002b0 dd d4 89 3c 08 83 3c bd ba 6d 2b bd da 3c ae 3d
       0.016825134 -0.0460234 -0.04185269 0.085077
0002c0 cb 4b 90 bd 2b 00 a8 bd 2c 2d 5a 3d 29 ae 93 bc
       -0.07045706 -0.08203157 0.053265736 -0.018027382
0002d0 43 46 67 3c 2c 68 76 3d b5 fc ab 3c 0c 8e 22 3d
       0.014115873 0.06015794 0.020994524 0.039686248
0002e0 06 3b 49 3c e1 26 07 bd d2 cf af bc 44 65 20 3d
       0.012282139 -0.032996062 -0.021461401 0.039159074
0002f0 02 85 da bc 4e b7 1e bc a9 36 1c 3d 60 b9 aa 3d
       -0.026674751 -0.009687258 0.038138065 0.08336139
000300 fd dd 5a bd 33 db 54 3d fc c6 04 bd 7b 73 48 3d
       -0.05343436 0.051966857 -0.03241633 0.048938256
000310 3e d7 24 3d 2d e8 c8 3d 43 0b dc bc 33 9e e3 3c
       0.040244333 0.09809909 -0.026860839 0.027785396
000320 ac 55 3e 3a d9 80 0d bd 48 ca f4 bb f9 d1 a5 bc
       0.0007260691 -0.034546707 -0.007470403 -0.020241724
000330 7c 7c de 3c 6c af 51 bd c5 da 78 bd 99 34 73 3d
       0.027158968 -0.051192686 -0.06075551 0.059376333
000340 f6 61 b5 bc 26 27 86 bd 9c ab a7 3c 5c 06 23 3d
       -0.022141438 -0.06550436 0.020467572 0.039800987
000350 46 ce 56 bd 85 c6 6c bc 8e ea 9f 3d be 21 ea bc
       -0.05244281 -0.014451628 0.0780841 -0.028580543
000360 ce 21 33 3d fd 33 45 3c 45 8b 87 3d 93 8c 91 bd
       0.04373341 0.012036321 0.066183604 -0.071068905
000370 77 2f 2f bd 25 94 12 3d e9 a5 41 bb 4a 99 40 3d
       -0.042769875 0.035785813 -0.0029548353 0.047021188
000380 28 f6 98 bd 06 fa d6 3d 1f 40 9f bd 59 27 e0 bb
       -0.074688256 0.10496907 -0.07775902 -0.006840628
000390 51 14 81 3c 9a 57 3e 3c 5d 39 43 3d 19 8c b4 3d
       0.015756758 0.0116175655 0.047662128 0.08815784
0003a0 50 7d e6 bc ad 6c 59 bd cd 80 3c 3c 80 2d 99 bd
       -0.028135926 -0.053082157 0.011505318 -0.074793816
0003b0 34 6a a9 bd 54 4d 01 bc 0b 62 5e 3c a1 a7 b3 bc
       -0.0827221 -0.007891972 0.01357318 -0.021930518
0003c0 78 e7 93 bc 2f 28 39 3c 47 dd c4 3d f4 57 41 bd
       -0.018054709 0.011301084 0.09612518 -0.04720302
0003d0 f6 d4 2e 3c 17 17 59 bd 41 3b a7 bd f5 57 9a bd
       0.010670891 -0.053000536 -0.08165599 -0.07536308
0003e0 31 08 f9 bc e5 8c 3d 3d d6 5e 29 3d 63 63 38 3b
       -0.030399414 0.046276946 0.04135021 0.002813541
0003f0 e5 63 32 3d 58 c5 bd 3b 6a 10 2c 3b 92 98 08 3d
       0.043552298 0.0057913475 0.00262549 0.033348627

base.critic.0.bias f4 [64]
000000 56 c8 22 3b c6 24 3b 3a d1 01 1e bb d3 31 a2 39
       0.0024838648 0.00071389636 -0.002410997 0.0003093617
000010 5b ab 28 3b 80 5a 53 b9 88 d1 46 bb d7 31 cf ba
       0.0025736901 -0.00020156242 -0.0030337293 -0.00158077
000020 6d bf b8 3a 75 63 32 bb 8a 15 3f ba 75 1f 53 bb
       0.0014095135 -0.0027219926 -0.00072892813 -0.0032214795
000030 0f 8d 77 ba 00 c6 70 3b 53 b6 89 ba 97 49 14 bb
       -0.00094433216 0.003673911 -0.0010506607 -0.002262687
000040 a2 7d ec ba 59 d6 89 ba f9 0b 2a 3b 32 f5 03 38
       -0.0018042813 -0.0010516151 0.0025947078 3.146119e-05
000050 de df 90 3a 97 1e 50 3a 25 2d cd 3a b6 cc 27 bb
       0.0011053046 0.00079391286 0.0015653713 -0.0025604195
000060 ef d6 97 3a 00 00 00 00 55 16 34 ba a8 65 85 ba
       0.0011584441 0.0 -0.0006869783 -0.0010177391
000070 4c 64 ba b9 32 67 ea ba de e9 1c 3b 2d 56 27 bb
       -0.00035551412 -0.0017883538 0.0023943107 -0.0025533543
000080 a7 b1 54 3b 09 84 45 ba 10 7b 5a 3a f9 ef 0a bb
       0.0032454522 -0.00075346284 0.0008334378 -0.0021200164
000090 d1 06 d0 b9 a0 81 1f bb 90 1c a2 3a 90 ed 32 bb
       -0.0003967793 -0.0024338737 0.0012368131 -0.0027302243
0000a0 44 61 cd ba 07 f4 63 ba 7d 8e 28 bb d6 64 cb ba
       -0.0015669246 -0.00086957257 -0.0025719695 -0.0015517722
0000b0 fb 50 06 bb 15 79 30 3b b2 c8 9b 3b e4 97 4b 3a
       -0.0020495045 0.002692764 0.0047541494 0.0007766469
0000c0 1d 8f c0 3a 92 bc 63 b9 55 e6 64 3a 68 56 d3 ba
       0.0014691089 -0.00021718655 0.0008731832 -0.0016123774
0000d0 4b 07 3e b9 6e 0c b7 3a ed 08 43 3b ea cd f3 39
       -0.00018122529 0.0013965496 0.002975996 0.0004650199
0000e0 9b 24 19 ba 31 4c 87 3a fc 90 29 3b 0a 9c 13 ba
       -0.00058419415 0.001032239 0.002587377 -0.00056308566
0000f0 b8 60 4d ba 3b 8a e0 ba 32 1a 97 3a 43 4e f5 3a
       -0.00078345416 -0.001713104 0.0011528193 0.001871534

base.critic.2.weight f4 [64, 64]
000000 0c 9a ab 3e c8 f8 94 bc fb dc 2e bc 99 be 5f 3e
       0.33515966 -0.018185034 -0.010672803 0.21850051
000010 29 9a 64 3e 8c 17 52 bc 9a 35 48 bc e2 07 08 3e
       0.22324432 -0.012822997 -0.012219811 0.13284257
000020 c1 2e 34 bd 15 07 58 be 69 e9 03 3d 33 87 01 be
       -0.0439899 -0.21096452 0.03220502 -0.1264923
000030 5c 4e d1 3e e2 e3 35 3d d8 40 2d be 47 b6 c8 be
       0.40880096 0.04440678 -0.16919267 -0.39201567
000040 47 95 aa 3d 58 17 05 3d 80 aa 36 3e d3 55 8d 3c
       0.08329254 0.032492965 0.17838478 0.017252838
000050 ed 1c 02 3e e7 08 71 be e2 1e a7 3e 81 67 85 3e
       0.12706347 -0.23538552 0.3264075 0.2605553
000060 38 7f 8b bd a6 49 75 3d 78 03 11 3e c0 d7 1e 3d
       -0.068113744 0.05988469 0.1416148 0.038779974
000070 7a ec 3a be 3c 33 14 3e 1b 5c b5 be d3 18 14 bd
       -0.18254271 0.1447267 -0.35421833 -0.036156487
000080 03 03 96 3c 03 c1 c1 bd 45 04 8b bc a0 40 b1 be
       0.018311983 -0.09460642 -0.01696981 -0.34619617
000090 58 9a 00 3d 93 48 7e be 82 6c dd 3a 19 ec 73 bd
       0.031397194 -0.24832372 0.00168933 -0.059551332
0000a0 7e 38 b7 be 53 c1 32 3e 0d b8 6d 3e b5 6d 1d be
       -0.35785288 0.1745656 0.23214741 -0.15373881
0000b0 ca 7e 37 be e1 e7 e1 3d c4 b6 30 3e 30 41 1b 3d
       -0.1791946 0.110305555 0.1725722 0.037903965
0000c0 a6 3f 49 be f3 86 63 3d 2a 48 fd bd 28 e4 b3 bc
       -0.19653186 0.05554862 -0.1236728 -0.02195938
0000d0 a1 be af 3e 13 a6 7b bd 6c 05 23 3d b2 f8 8d be
       0.34325126 -0.061437678 0.039800093 -0.27728802
0000e0 8c 01 af 3d c4 6f f8 3d d3 34 b2 bd 68 e8 46 3d
       0.08545217 0.121306926 -0.08701482 0.048561484
0000f0 14 d7 d8 bd f5 29 2b 3e 78 5c 80 bb ff ef 19 3e
       -0.10587898 0.16715224 -0.003917273 0.15032957
000100 70 a1 3e 3e 24 cc 9a bd ad 7d c3 be 4b c7 f8 bd
       0.18616271 -0.07558468 -0.3818182 -0.12147387
000110 ec 42 7d be b0 d6 a9 bd 65 d1 e6 bd 29 55 65 be
       -0.2473256 -0.082929015 -0.112704076 -0.22395767
000120 a5 52 8e be 82 02 f8 3d ad 91 3b 3e cd 99 3c 3d
       -0.27797428 0.12109853 0.1831729 0.046045113
000130 3e a3 3a 3e 27 9f b4 3e a7 7e 89 bd 56 cd 0f bd
       0.18226334 0.35277674 -0.0671361 -0.035107933
000140 bb f6 27 3d b2 2b 2a 3e b9 bc d0 3d db 76 e5 bd
       0.041006785 0.16618231 0.10192246 -0.112043105
000150 fe 9e 46 3e e7 15 76 be 80 74 03 be 81 46 31 bd
       0.19396588 -0.24031793 -0.1283741 -0.04328013
000160 50 b7 11 3e a7 ed 5a 3d 24 3f b2 bd a6 60 50 3e
       0.14230084 0.0534493 -0.08703449 0.20349368
000170 2c 1b 84 3e 1f 04 5c be 7f ea 75 3e 95 ab 8a be
       0.2580198 -0.21485947 0.24015234 -0.27084032
000180 5d 84 20 be 6d 20 af 3d 8c fc e5 3d cb 83 3a be
       -0.15675493 0.085511066 0.1122981 -0.18214338
000190 12 14 7b be 77 d5 ac 3d 08 86 f2 3c a9 8c 66 be
       -0.24519375 0.08439153 0.029604927 -0.22514595
0001a0 96 81 15 3e a9 36 63 3d 26 1c 23 3e e4 4f 61 3e
       0.14600214 0.05547205 0.15928707 0.22003132
0001b0 30 b4 ed be 49 14 e5 bd 20 2b f0 bb 19 35 80 be
       -0.46426535 -0.1118551 -0.0073293597 -0.2504051
0001c0 50 07 98 ba 5c 6d bb bc 8a 86 02 be 53 fe 36 3e
       -0.0011598859 -0.022879295 -0.12746635 0.17870454
0001d0 c6 d3 e0 3d f6 c8 43 3e d3 51 c6 bd ca 53 00 bd
       0.109778926 0.1911963 -0.096835755 -0.031329907
0001e0 c8 1f af 3d 23 6e de 3d 05 b0 7e 3d 0c 12 d8 bd
       0.08550984 0.10860851 0.062179584 -0.10550317
0001f0 00 fb 2a 3b 85 fb 65 be 25 65 a9 3e 8f e5 bb bd
       0.002608955 -0.22459228 0.3308498 -0.09174644
000200 ed 4a 75 bd 88 ce d5 3d e9 f6 ad bc 2d c6 88 bd
       -0.059885908 0.10439783 -0.0212359 -0.06678424
000210 b7 64 89 3d 5b fc a8 3b 1b b0 b9 3e f5 53 8a 3d
       0.06708663 0.0051570362 0.3626717 0.06754295
000220 b5 50 02 bf 5d 09 e2 3d 6c d6 7b 3d c5 b0 31 bd
       -0.509044 0.11036942 0.061483786 -0.04338147
000230 48 3b 5b bd a7 bd 87 3d a6 0e 92 be 76 16 b5 bd
       -0.053523332 0.0662797 -0.285268 -0.08842175
000240 b2 6e f0 bd 8f 9b d8 3e 6f f9 96 3c e2 9e f8 bb
       -0.117398635 0.42306182 0.018429486 -0.0075872997
000250 d4 ca c4 be cf 32 a1 bd d8 fe 7e be 3f 91 33 bd
       -0.38435996 -0.07871019 -0.24901903 -0.04383969
000260 9f b4 99 3d 3f d9 57 3e d4 dc 2a be 4a 9c 61 bd
       0.07505154 0.21078967 -0.16685802 -0.05508069
000270 93 45 21 bb 85 60 63 be 53 88 26 be 77 b6 b0 be
       -0.002460812 -0.22204788 -0.16262941 -0.3451421
000280 2b d6 26 be 2a fe 3f bc 31 40 9a bb f0 d0 4b 3d
       -0.16292636 -0.011718312 -0.0047073592 0.049759805
000290 b8 fe 09 be 41 b8 14 3e 5a 26 69 bc 1b 7d ba bc
       -0.13476074 0.14523412 -0.014230335 -0.022764733
0002a0 1e 74 f0 bd c9 6e 74 bd 34 fd ce bd bc 37 9d be
       -0.117408976 -0.059675965 -0.101068884 -0.30706584
0002b0 6f 19 af 3e 26 6f 18 3d f3 1f ea 3b d9 1b 76 3d
       0.34199092 0.037215374 0.007144922 0.06008515
0002c0 3e ec e8 3c 97 07 9a 3e 23 92 a8 bc ac a6 98 3d
       0.028432962 0.30083916 -0.020577496 0.07453665
0002d0 9f 42 e6 bb c3 cf a1 bd e9 23 8f 3e 93 1b f6 bd
       -0.007026985 -0.079009555 0.27957085 -0.12016978
0002e0 4c 4c 3a 3d ff a5 4a bd 32 fd 8a bd ce 67 a3 be
       0.04548292 -0.049474712 -0.067865744 -0.31915134
0002f0 a7 6b 00 3e 29 72 99 3d 0a c2 b4 bd 3d 65 bb 3e
       0.12541066 0.074924774 -0.088260725 0.36600676
000300 24 07 4e be 54 6e 57 3d 83 6b 96 3d 7f 3b 95 3e
       -0.20119911 0.05259545 0.07344725 0.29146954
000310 a2 2d 53 bd fd bf d0 3d d6 53 96 3e 40 91 ce bd
       -0.05155719 0.10192869 0.29360837 -0.10086298
000320 35 d2 98 bd bf 3e d0 be a7 1c b9 bd 4c b4 2f 3e
       -0.07461969 -0.4067287 -0.09038668 0.17158622
000330 f4 fc f8 bd 89 fb dc ba 5a 32 9b 3d 9e 38 45 3e
       -0.12157622 -0.0016859631 0.07577963 0.19259879
000340 b8 e5 2d 3e a0 4b ef 3d 3f da e4 3e 9a f0 28 bd
       0.16982162 0.11684346 0.4469776 -0.04124508
000350 62 ba 9e bd c2 3e f5 3c 5e 0d 10 3e fe a5 d9 bd
       -0.077503935 0.029937152 0.14067599 -0.106273636
000360 9b cb 01 3e 0e a1 a5 3d 43 7a e1 bd 86 2f 52 39
       0.12675326 0.08087359 -0.11009648 0.00020044865
000370 a8 89 e0 3d cd da 03 3e 50 3a b3 3e 2f 14 07 3d
       0.10963756 0.12876435 0.35005426 0.032978233
000380 d0 6f 86 3e bb b6 c0 3c f4 43 b5 3e f2 ca df bd
       0.2625718 0.023524633 0.35403407 -0.109273806
000390 16 a5 fe 3d aa 02 b1 be 21 73 60 3e 34 eb 86 3c
       0.124338314 -0.34572345 0.21918918 0.016469575
0003a0 4d dc 4d be 62 94 09 bf 89 90 c0 3d 07 f1 47 bc
       -0.2010357 -0.5374204 0.09402568 -0.0122034615
0003b0 9d bf c5 bd 5a dd 2c be 84 35 a3 3d 23 8c 55 be
       -0.09655688 -0.16881314 0.07969192 -0.20854239
0003c0 15 f2 29 3d ac ad f0 3d 1b db bb bc 2b a9 29 3e
       0.041490633 0.11751875 -0.022931626 0.16568439
0003d0 ae bf aa 3c 64 c1 8b be db bb 04 3d 89 0b d5 bd
       0.020843353 -0.27295983 0.032405715 -0.10402591
0003e0 1a 1b 06 be 54 ff 92 bd 6a 81 73 3d d4 a4 0e be
       -0.13096276 -0.07177606 0.05944959 -0.13930064
0003f0 84 e9 5f bd 51 72 b9 3d a6 1d ee 3d ae 93 80 bd
       -0.054666057 0.09055007 0.11626749 -0.06278168

base.critic.2.bias f4 [64]
000000 76 de ef 39 c5 16 c2 3a d5 80 62 ba 48 1c f8 ba
       0.0004575138 0.0014807811 -0.0008640413 -0.0018929327
000010 5f 11 0d ba 32 56 ff b9 de 4c 83 ba e6 59 f1 ba
       -0.00053813116 -0.0004870161 -0.0010017415 -0.0018413633
000020 93 2d 5a b9 e8 83 32 3b c6 cf e0 3a 5e 7f aa b9
       -0.00020807078 0.0027239267 0.0017151765 -0.00032519823
000030 15 dd 31 3a 4d eb a9 3a 9a bb 07 3a 08 e1 2b 3b
       0.0006784958 0.0012963802 0.0005177796 0.0026226658
000040 98 a4 c3 ba 55 09 0f 3a e8 74 96 ba 54 ab 0c bb
       -0.0014926372 0.00054564077 -0.0011478933 -0.0021464424
000050 aa ea 9e ba 59 8f 21 bb 53 bf bf ba dc 2f 80 3a
       -0.0012124379 -0.0024652092 -0.0014629163 0.0009779888
000060 6d f2 9b 3a 31 e4 a3 b9 4d 32 ef b9 c6 08 02 bb
       0.001189781 -0.000312598 -0.0004562311 -0.0019841655
000070 96 b5 11 bb a7 f4 e6 3a b9 0b 17 3a bf 25 2b b8
       -0.0022233478 0.001762052 0.00057619397 -4.080473e-05
000080 ab 2e 31 ba b8 83 80 ba a3 24 7b b9 ac 93 47 ba
       -0.0006758968 -0.000980488 -0.00023950874 -0.00076132524
000090 2c 4b 99 3a 51 fe 7e b9 c7 d3 3c bb 0c 8c d6 b9
       0.0011695377 -0.00024318068 -0.0028812753 -0.00040921604
0000a0 8d e2 52 ba e4 09 15 39 5a d6 81 3b 1d 11 bc 3a
       -0.0008044623 0.00014213432 0.0039623203 0.0014348362
0000b0 0e 4f ee b9 0e fe e0 3a db f6 68 ba e0 32 d3 ba
       -0.00045453798 0.0017165558 -0.0008886882 -0.0016113184
0000c0 62 76 43 ba 08 13 19 3b be 0e 4e 3a f4 84 90 3a
       -0.00074563 0.002335729 0.0007860473 0.0011025951
0000d0 04 38 d9 3a 4d 6e 1d ba 5c 9f 9e ba 8f f3 3f 3b
       0.001657248 -0.0006005511 -0.0012101936 0.002928946
0000e0 15 1c d8 ba e9 5c 04 3b 53 0a aa 39 07 d5 3a b7
       -0.0016487861 0.002019698 0.0003243262 -1.1136063e-05
0000f0 a2 6e 10 bb 87 79 98 3a a4 d9 38 ba cf d0 ba ba
       -0.0022038599 0.0011632898 -0.0007051474 -0.0014252904

base.critic_linear.weight f4 [1, 64]
000000 26 c3 d7 3d 49 6a 66 3d d4 be 96 bd c1 a1 b1 bd
       0.105352685 0.056253705 -0.07360616 -0.0867343
000010 a3 a4 33 bd 62 f9 79 bb 75 da 6b be c6 07 82 bd
       -0.04385818 -0.0038143029 -0.23032553 -0.06349139
000020 e5 49 f8 bd ce 8f f3 bd 9b 11 3a 3e 5b 7f 08 3d
       -0.12123469 -0.11892663 0.18170778 0.03332458
000030 d9 c5 60 3e 5d 5e 24 3e 9b df a9 3e 3e e8 38 3e
       0.21950473 0.16051622 0.3317841 0.18057343
000040 47 4f a3 bd a2 aa 7e 3e 21 c8 6d 3e d6 ea 9e 3d
       -0.07974105 0.24869779 0.23220874 0.07759635
000050 a9 a0 87 bd 6a f1 53 be a9 ef ec be fe 94 13 3e
       -0.0662244 -0.20697561 -0.46276596 0.14412305
000060 f3 ac a7 3d 95 40 8d bd 7a 6a 8d 3d 0d 84 b1 be
       0.08187284 -0.06897084 0.069050744 -0.3467106
000070 50 6c 23 be b0 97 a7 3d b5 d8 88 3d 67 07 82 be
       -0.15959287 0.08183229 0.066819586 -0.25396273
000080 3e 74 13 be 81 60 8c bd 64 6e c9 bd ac 0d bc 3d
       -0.14399812 -0.06854344 -0.098355085 0.09182295
000090 af 6b c4 3e 6a 34 a4 3e 09 f3 98 be 1c 8e 9d 3d
       0.38363406 0.3207124 -0.2987292 0.07693121
0000a0 72 50 11 bc 64 14 09 bd d5 ac 0b 3d 04 b5 81 3c
       -0.008869277 -0.03346671 0.034100372 0.015833385
0000b0 4f e7 b4 bc d6 78 05 3e 8a 6f 67 be 75 6f b2 3e
       -0.022082953 0.13034377 -0.22601143 0.3485066
0000c0 70 4c 7b 3e ab f0 87 3d ed 56 8a be 2d 9e 36 3e
       0.24540877 0.06637701 -0.27019444 0.17833777
0000d0 ca 12 5d 3e 68 19 e5 ba 3b d1 97 be ea a1 4d 3e
       0.21589199 -0.0017478885 -0.29651818 0.20081297
0000e0 36 ba 90 bb 24 23 8b 3d ba de 39 bd bb 9e 8d 3d
       -0.0044167293 0.06793812 -0.045378424 0.06915041
0000f0 d3 00 16 be ec 45 0f 3d 84 2b ee bd 9b 6b 8a bd
       -0.14648752 0.034978792 -0.11629394 -0.06758805

dist.linear.weight f4 [5, 64]
000000 41 fa 84 3b 70 71 ca 3b 7d 68 f3 3a 59 ba 71 3b
       0.004058153 0.0061780736 0.0018570569 0.0036884753
000010 08 89 97 3b 48 7d 4a 3b 60 b3 6e 3b cf 97 a5 3b
       0.0046244897 0.0030897427 0.0036422834 0.0050534974
000020 02 36 d0 3b 3a 35 ff 3a d9 cc 6b 3b 97 5c 99 3b
       0.0063540945 0.0019470819 0.0035980253 0.004680227
000030 85 ec 8c 3b 4c 20 fe ba ad 9e 6f 3a be 08 7c bb
       0.0043006563 -0.0019388287 0.0009140771 -0.003845736
000040 40 cb 7a ba 5e 07 2c bb e8 30 24 3b 2c 3f 99 3b
       -0.000956703 -0.0026249508 0.0025053564 0.00467672
000050 3e 82 9d 3b 7e d0 a0 3b 13 b4 a6 3b 47 c4 d7 3b
       0.004806786 0.0049076667 0.0050873845 0.0065846774
000060 2b 94 fc 3b d0 50 dd 3b dc 5c f4 3a 79 ed 6a 3b
       0.0077080927 0.0067540184 0.0018643397 0.003584711
000070 9d dd a5 3b 63 44 c6 3b b8 51 8b 3b 83 79 99 3b
       0.0050618188 0.006050633 0.004251685 0.004683675
000080 4e 7b 93 3b ed 56 2e 3b 2b 33 4e 3b f1 38 96 3a
       0.004500783 0.0026602105 0.0031463604 0.0011461062
000090 6c 45 68 3b a5 23 f4 3a 10 92 c7 39 b0 da 28 3b
       0.003544177 0.0018626346 0.00038065063 0.0025765114
0000a0 d4 8e 8e 3b 3d bb 5d bb 19 26 ab 3a bd 74 81 39
       0.0043505225 -0.0033833527 0.0013057619 0.00024691774
0000b0 ff fe d6 3b 6a ee 50 ba 17 5a 82 3b 65 fc 0e 3c
       0.0065611596 -0.0007970097 0.0039780247 0.008727168
0000c0 d0 83 5f 3b 42 fb f9 3b aa 2e c5 b8 f1 d4 d1 3b
       0.0034105666 0.007628829 -9.402384e-05 0.0064035584
0000d0 bd d3 d9 3b df 8f ee 3b f5 c2 c2 3b 71 ed a3 3b
       0.0066475556 0.0072803344 0.005943651 0.0050026705
0000e0 6b f0 82 3b 49 f9 38 3b ba ab 65 3b 43 a3 09 3b
       0.003995945 0.0028224757 0.0035044984 0.0021001853
0000f0 e3 a0 a0 3b 0e 43 eb 3a 13 87 8e bb 2e e7 00 3b
       0.0049019917 0.0017949061 -0.004349598 0.0019669044
000100 bb b4 21 3c a8 58 57 bb 41 e4 3a ba f7 9f 31 bb
       0.00986975 -0.003285924 -0.00071293494 -0.0027103403
000110 7e ac 2b 3b 58 61 a2 bb cf 20 d9 ba dc 6c e5 38
       0.0026195343 -0.004955452 -0.0016565564 0.000109398476
000120 03 e4 30 bb 8a 6f 36 ba 90 45 15 3b 2d b6 38 3a
       -0.0026991374 -0.00069593696 0.0022777058 0.0007046189
000130 85 6c 8f 3b b3 11 7f bb 87 ea 0f 3b db cb c9 3a
       0.00437695 -0.0038920462 0.0021959858 0.0015395837
000140 39 e8 15 bb a1 43 2e 3b 2c 9f 6a 3b 3b d1 1f 3b
       -0.0022874011 0.0026590603 0.003580044 0.0024386186
000150 2d 8c 82 bb 9a a0 b5 3a 7f 00 40 bb 74 c6 52 3a
       -0.0039839954 0.0013857067 -0.002929717 0.0008040436
000160 d8 10 01 bb 49 28 b3 3b 52 dd 59 bb 6d dd 81 39
       -0.0019693878 0.005467449 -0.003324349 0.00024769772
000170 98 e4 18 3a de 3f 3c bb a3 32 3c bb f4 ca 2c 3b
       0.0005832403 -0.0028724591 -0.0028716705 0.0026366087
000180 b3 75 c0 3a b1 32 77 bb ee ea 4a 3a 9f e9 bd bb
       0.0014683515 -0.0037719423 0.0007740696 -0.005795672
000190 e7 38 ae 3b ab 39 2e bb 03 e7 2f 3b 01 db 15 3b
       0.005316842 -0.0026584666 0.0026840575 0.0022866132
0001a0 ea 65 f9 3a 86 9f 35 3b e8 26 89 bb 6c 17 f8 b7
       0.0019027565 0.0027713492 -0.004185546 -2.957481e-05
0001b0 9a 2c c8 ba 4b 59 09 ba 2e 64 fd 39 ab d1 9c 3b
       -0.0015272081 -0.0005239441 0.0004833056 0.0047857366
0001c0 91 1f 1e bb 29 65 3b 3b eb 1f 37 bb c9 fe 31 bb
       -0.0024127702 0.0028594232 -0.0027942609 -0.002715992
0001d0 32 e3 b0 39 20 3b 91 bb 4f 2b 84 bb 0f 1a 03 bb
       0.0003373861 -0.004432097 -0.004033483 -0.0020004546
0001e0 e0 a4 47 bb a5 ad 95 bb 5e 0f 13 bb 1f f2 fc b5
       -0.0030463263 -0.004567819 -0.002243958 -1.884593e-06
0001f0 d4 da a8 ba 3f 2c b4 ba 99 fe 80 3a 3d 29 e7 b9
       -0.0012882599 -0.0013746097 0.0009841501 -0.00044090478
000200 a2 8c 15 bc 90 f4 8a bb 98 a9 88 ba 58 ff b4 3a
       -0.009127768 -0.00424058 -0.001042652 0.0013809009
000210 dc 06 61 bb 79 00 eb 3b f4 7f f3 3b 1e f9 93 3b
       -0.0034336364 0.007171687 0.0074310247 0.004515781
000220 41 c6 97 ba 45 60 b0 ba 5c fc 53 bb 3c 22 ef bb
       -0.001157947 -0.0013456425 -0.0032346463 -0.007297782
000230 75 fb b8 bb ec c3 17 3a 8c f4 b1 3b db 62 72 bb
       -0.0056452104 0.00057893875 0.0054307636 -0.0036985192
000240 df f5 49 ba 18 88 df 3b 26 e7 04 bc c0 62 3a bb
       -0.0007704179 0.0068216436 -0.008111751 -0.0028440207
000250 cf bf 38 bb 51 81 7f bb 3b c2 60 bb 36 70 af ba
       -0.0028190499 -0.003898699 -0.0034295458 -0.0013384882
000260 95 21 f5 ba ed 8c b5 ba 94 d7 9e ba a8 10 03 bc
       -0.0018702025 -0.0013851203 -0.0012118691 -0.007999577
000270 99 12 ad ba 60 91 7d bb 4c 2f f3 bb a0 e1 80 bb
       -0.0013204395 -0.0038691387 -0.0074214097 -0.0039331466
000280 9d 00 4f ba 32 55 9e bb cc 89 c3 3a 72 ef 85 ba
       -0.0007896515 -0.0048319334 0.0014918386 -0.0010218455
000290 04 b2 ac bb 02 97 54 3a 7a 82 24 bb 45 27 ab 3b
       -0.0052702446 0.000810966 -0.0025102184 0.005223187
0002a0 3e a7 c1 bb 97 f9 fd bb 7c 93 16 3b 10 f6 14 3b
       -0.0059098294 -0.0077507007 0.002297609 0.0022729672
0002b0 40 ca bd 3b c9 2d 9b b9 c0 be 87 bb 31 63 c8 bb
       0.0057919323 -0.00029598016 -0.004142612 -0.00611534
0002c0 3e 23 b8 bb 92 c7 51 3a b4 f1 9a 3b ee 85 88 bb
       -0.0056194356 0.00080024556 0.0047285203 -0.0041663563
0002d0 e1 94 6c ba 72 6d 53 bb 5c e2 13 3a 1f 70 42 bb
       -0.000902487 -0.003226128 0.0005641335 -0.002966888
0002e0 87 00 70 3b ed cf 21 3c 46 06 17 3b 26 8b 38 bb
       0.0036621408 0.0098762335 0.002304451 -0.002815911
0002f0 71 12 9c ba e1 91 42 ba f2 1d 83 bb 66 a8 4b ba
       -0.0011907351 -0.00074222503 -0.0040013725 -0.0007768929
000300 a2 df 91 3b 95 68 ad 3b 38 10 0a 3b 75 9f 13 bb
       0.004451708 0.005292008 0.0021066796 -0.0022525464
000310 a0 84 9f 3b e4 df 8a bb bc 29 3b bb c0 89 00 3c
       0.004868105 -0.0042381156 -0.0028558811 0.007845342
000320 ad 59 05 3c 65 c6 ab 3b 71 b8 eb 3b e0 dd 01 3c
       0.008139056 0.0052421563 0.007193618 0.007926434
000330 6b 14 af 3b db 35 fe ba fe af 82 3b 62 e7 28 bb
       0.00534301 -0.0019394712 0.003988265 -0.002577268
000340 f3 f7 2c bb 1e b1 56 3b 4b 9f 06 3b 0b 8d 08 3c
       -0.0026392906 0.0032759379 0.0020541723 0.0083344085
000350 f2 49 a8 3a 45 94 c3 3b a4 6f 84 ba 40 a5 11 3b
       0.001283942 0.005968603 -0.0010104072 0.002222374
000360 4b 55 86 3a 00 4c eb 3b 72 1e 57 bb b1 e5 24 3b
       0.0010248808 0.0071806908 -0.0032824543 0.002516132
000370 38 e5 78 3b ea 42 cd 3b 82 e5 8e 39 55 9b cd 3b
       0.0037978422 0.0062640803 0.00027255347 0.0062746205
000380 04 61 08 3b 05 d2 d9 3a 28 94 be bb 59 33 c7 3b
       0.002080978 0.0016618377 -0.0058160014 0.006079119
000390 2b b0 17 3b a9 00 37 ba 8e 10 94 ba 06 3e 35 3b
       0.0023145776 -0.00069809944 -0.0011296438 0.0027655377
0003a0 4a 4a e5 3b 83 1b 86 3a 5a 85 1d 3a e7 18 1b ba
       0.0069973813 0.0010231588 0.00060089456 -0.00059164915
0003b0 b4 f8 d7 3b 12 dd ee 39 1f 64 23 3b 10 68 4d 3b
       0.006590927 0.00045559608 0.0024931503 0.0031342544
0003c0 04 77 aa 3b 22 95 c7 bb 64 68 03 bb 05 dc 9e 3b
       0.005202176 -0.006090776 -0.0020051235 0.0048480057
0003d0 a1 e9 d9 3a e7 c7 6c ba ee a2 a4 3b 13 c0 7f bb
       0.0016625413 -0.00090324733 0.0050243055 -0.0039024397
0003e0 70 b6 99 3b 7f a9 a8 3b 11 00 74 ba 5f d6 ea 3a
       0.0046909377 0.0051471586 -0.0009307871 0.0017916671
0003f0 3d 9d 13 3b c8 19 22 3a 0e 19 c2 3b 0a 65 d9 3b
       0.0022524141 0.0006183651 0.005923397 0.0066343592

dist.linear.bias f4 [5]
000000 de 48 9a 3b 0c b2 34 3a 75 85 73 bb 84 c7 23 3b
       0.0047083935 0.0006892986 -0.0037158404 0.0024990747
000010 03 bc b8 bb
       -0.005637647
