logs/run_entropy_0.01/final_model.pt (torch, 434439 bytes, 11 tensors)

base.actor.0.weight f4 [64, 768]
0.009743787 -0.018121794 -0.035435718 0.035133243 0.005503651 0.0012751535 -0.010263801 -0.030474039
-0.015208064 0.03819497 -0.009962228 -0.023112008 -0.04084513 0.024267925 -0.015017601 0.07821406
0.009994248 0.03560487 -0.050166663 0.05572316 0.050835926 0.034360398 0.04167965 0.019486537
-0.062235393 -0.029742654 -0.057038605 -0.05909189 0.032841388 0.070935234 -0.031939697 0.038986005
0.07616845 0.036444616 -0.028501181 0.021410875 -0.044439137 -0.047328696 0.013038254 -0.02354552
-0.020404128 0.097041756 -0.061059196 0.046943106 -0.05578978 0.0027303325 0.062069494 -0.009883136
-0.050053757 -0.024338197 -0.09029441 -0.005309129 0.040935203 0.08070477 -0.044412777 0.041416448
0.03447592 -0.0038223004 0.014960115 0.027898105 0.0352043 0.02908645 0.034687933 0.06394529
-0.06030269 -0.025092177 0.028801326 0.020911494 -0.060751725 0.04381817 -0.019805588 -0.033958126
0.033949338 0.0677709 0.019531714 -0.014571934 0.009547093 -0.016260054 -0.045656227 -0.060113553
-0.038404226 0.027960736 0.023705803 -0.04184924 -0.021034056 0.025783394 0.046264667 0.03972734
0.11080966 -0.0026687435 -0.10914278 -0.019177914 0.024848443 -0.04078051 0.028643116 0.05854786
-0.059251852 -0.04042031 -0.08975572 -0.010133905 -0.07680991 0.11233422 0.111260824 0.0979254
0.007828845 0.043056313 -0.124559015 0.024892353 0.039948277 -0.06134631 -0.023214798 -0.052350618
0.06956151 0.03357488 0.024779646 -0.052424517 -0.007261059 -0.01583135 -0.056667786 0.016656065
0.047933538 0.054360237 0.07429733 -0.04204859 -0.011563104 -0.038048428 -0.023594424 -0.05050239
0.08145735 0.016253471 0.044058476 0.07118693 0.06833726 -0.04654275 0.039526753 -0.02180876
0.029340254 -0.04563398 -0.02960998 -0.03716665 0.010029407 -0.05547108 -0.02605538 0.06720166
0.052763965 0.077354826 -0.07520076 0.087223716 0.022959528 0.009515517 0.026468795 -0.022805454
-0.02023437 0.008934064 0.055285037 0.019594667 -0.04478887 -0.0065400866 -0.06269303 -0.0939909
-0.040548857 0.027670579 0.106462 -0.049288936 0.061983936 0.01630856 -0.09174415 -0.107084505
-0.013732883 -0.052783147 -0.057656214 0.04080641 0.050201714 -0.07903807 -0.0709208 0.14019561
-0.12334423 -0.0006646794 0.04180857 0.01158035 0.027210318 -0.05786581 -0.08119454 -0.10107627
-0.059543308 0.040972415 -0.10078454 -0.054491058 -0.02563041 0.013310141 0.016851526 -0.01632965
-0.023822982 0.08746707 0.0865174 -0.03229809 0.0042578387 -0.052016154 0.038903687 -0.012255547
-0.042431545 0.004456307 -0.119571134 0.020270212 0.006565686 0.043380328 0.021280024 0.057277896
0.03277317 -0.075299256 0.09009909 -0.061928846 0.039892424 -0.060538378 -0.051596403 -0.022201113
-0.0051923227 -0.03239822 0.020505935 -0.035477318 -0.015082716 0.02884698 -0.0021407786 0.008864036
-0.03614764 -0.039629314 -0.061750527 0.0052681863 0.0515687 0.04926678 0.046247873 0.039400723
-0.026506338 -0.003382489 -0.014689879 0.0048092427 -0.0024086176 0.088513575 -0.046846952 0.037967682
0.023666812 -0.0021884483 0.047037907 0.0026037535 0.00023829256 0.032583937 0.028858386 -0.035686012
-0.050891034 -0.01188162 0.046842106 -0.10051117 -0.011148428 0.012722852 0.012818184 0.005410559
00000000: 68a4 1f3c 2874 94bc 0b25 11bd e0e7 0f3d
00000010: f957 b43b 0d23 a73a 8029 28bc b1a4 f9bc
00000020: 3e2b 79bc 5472 1c3d 9d38 23bc 6555 bdbc
00000030: 394d 27bd 87cd c63c 620c 76bc b12e a03d
00000040: eabe 233c 6ad6 113d 8f7b 4dbd f83d 643d
00000050: 5539 503d 7dbd 0c3d 48b8 2a3d 3ba2 9f3c
00000060: 8aea 7ebd dea6 f3bc 50a1 69bd 560a 72bd
00000070: b184 063d 7e46 913d 33d3 02bd caaf 1f3d
00000080: 34fe 9b3d f346 153d 4f7b e9bc dc65 af3c
00000090: d005 36bd bcdb 41bd 679e 553c 89e2 c0bc
000000a0: 8f26 a7bc d4bd c63d 3519 7abd 6a47 403d
000000b0: d383 64bd 61ef 323b 953c 7e3d e0ec 21bc
000000c0: 2b05 4dbd e660 c7bc 47ec b8bd 34f8 adbb
000000d0: acab 273d 8b48 a53d 2cea 35bd 4ba4 293d
000000e0: 9f36 0d3d 8f7f 7abb 451b 753c 918a e43c
000000f0: 6232 103d b546 ee3c ef14 0e3d c0f5 823d
00000100: f4ff 76bd 1c8e cdbc c2f0 eb3c 954e ab3c
00000110: cdd6 78bd ae7a 333d 543f a2bc ad17 0bbd
00000120: 760e 0b3d 78cb 8a3d f900 a03c 1fbf 6ebc
00000130: 696b 1c3c ce33 85bc 0602 3bbd a139 76bd
00000140: c04d 1dbd ea0d e53c ac32 c23c 1c6a 2bbd
00000150: 9d4f acbc b237 d33c 0580 3d3d 23b9 223d
00000160: 2df0 e23d 16e6 2ebb 4086 dfbd 001b 9dbc
00000170: f68e cb3c 7709 27bd f8a4 ea3c e1cf 6f3d
00000180: 12b2 72bd c48f 25bd d9d1 b7bd ae08 26bc
00000190: 844e 9dbd 7c0f e63d b7dc e33d 1d8d c83d
000001a0: 8e44 003c d15b 303d cc18 ffbd 0ceb cb3c
000001b0: cea0 233d 4546 7bbd f62c bebc 9a6d 56bd
000001c0: 4476 8e3d d085 093d affe ca3c 17bb 56bd
000001d0: 2dee edbb bfb0 81bc 7b1c 68bd 4d72 883c
000001e0: f555 443d d7a8 5e3d 3329 983d 243b 2cbd
000001f0: 2c73 3dbc abd8 1bbd 1849 c1bc 98db 4ebd
00000200: 1cd3 a63d 0026 853c a976 343d 74ca 913d
00000210: 68f4 8b3d 9ca3 3ebd cee6 213d 49a8 b2bc
00000220: f95a f03c b2ea 3abd a190 f2bc 0f3c 18bd
00000230: 6252 243c a535 63bd 1872 d5bc 06a1 893d
00000240: 071f 583d 356c 9e3d db02 9abd 59a2 b23d
00000250: 9f15 bc3c f9e6 1b3c 16d5 d83c 81d2 babc
00000260: 8dc2 a5bc 2e60 123c 9072 623d ff84 a03c
00000270: 8974 37bd 394e d6bb 3465 80bd 4d7e c0bd
00000280: 8f16 26bd 69ad e23c c008 da3d 32e3 49bd
00000290: dee2 7d3d 8799 853c 5be4 bbbd 1f4f dbbd
000002a0: e3ff 60bc 2433 58bd ec28 6cbd 9f24 273d
000002b0: 50a0 4d3d b6de a1bd ed3e 91bd 708f 0f3e
000002c0: e69b fcbd e13d 2eba 773f 2b3d 82bb 3d3c
000002d0: 2ce8 de3c b304 6dbd 5349 a6bd 1301 cfbd
000002e0: afe3 73bd b1d2 273d 2068 cebd 0432 5fbd
000002f0: def6 d1bc c712 5a3c 360c 8a3c c2c5 85bc
00000300: 6a28 c3bc ef21 b33d 0930 b13d 014b 04bd
00000310: 5785 8b3b e40e 55bd 7959 1f3d 7dcb 48bc
00000320: b3cc 2dbd 3606 923b b6e1 f4bd b70d a63c
00000330: f724 d73b 92af 313d 7253 ae3c 3a9c 6a3d
00000340: 293d 063d 7f36 9abd df85 b83d 1aa9 7dbd
00000350: 3d66 233d 17f7 77bd c056 53bd 1cdf b5bc
00000360: 5c24 aabb ffb3 04bd 10fc a73c aa50 11bd
00000370: 7f1d 77bc 8050 ec3c 4e4c 0cbb 763a 113c
00000380: 8c0f 14bd 5952 22bd 1fee 7cbd c0a0 ac3b
00000390: b339 533d f7cb 493d 696e 3d3d a762 213d
000003a0: d223 d9bc c0ac 5dbb d1ad 70bc da96 9d3b
000003b0: e6d9 1dbb 9b46 b53d 97e2 3fbd 0084 1b3d
000003c0: e7e0 c13c 126c 0fbb d2aa 403d bca3 2a3b
000003d0: 2cde 7939 bc76 053d 6c68 ec3c 7f2b 12bd
000003e0: 1e73 50bd 20ab 42bc 82dd 3f3d cdd8 cdbd
000003f0: e5a7 36bc 8273 503c 5c03 523c 0f4b b13b

base.actor.0.bias f4 [64]
-0.0041773827 -0.003961956 0.010823006 -0.006154268 0.01246923 -0.006964125 0.014174353 -0.007568735
0.0003341454 0.017939134 0.011661868 0.01780913 0.008665603 0.005445795 0.010756567 -0.0074050506
0.0132022 -0.011806637 -0.0121225305 -0.010510721 -0.008422592 -0.0031391215 0.0056712735 0.013767419
-0.011710361 -0.009199731 -0.0025762524 -0.007949588 -0.004318552 -0.015741328 0.015820041 -0.004459006
0.00039849893 0.0052689775 0.0029531547 0.014043113 -0.008061496 0.01247305 0.0036887568 -0.012403413
-0.008033327 0.0 0.00637131 0.010084479 -0.008534094 -0.0064007477 0.010332167 0.003884284
0.007852991 -0.004356062 -0.00096920325 0.001839024 -0.0111365905 -0.006423859 -0.0014453129 -0.0004565939
-0.0061991345 -0.0063635567 0.001642915 0.01013274 -0.0022910605 -0.0019222032 -0.012298969 0.010777451
00000000: 6de2 88bb 4cd3 81bb fa52 313c bea9 c9bb
00000010: be4b 4c3c 5133 e4bb 8c3b 683c 2703 f8bb
00000020: 3d30 af39 17f5 923c 6b11 3f3c 74e4 913c
00000030: 2cfa 0d3c a472 b23b 503c 303c 11a6 f2bb
00000040: 0a4e 583c a070 41bc 949d 46bc 2935 2cbc
00000050: e9fe 09bc b8b9 4dbb 17d6 b93b be90 613c
00000060: d0dc 3fbc 78ba 16bc 58d6 28bb fd3e 02bc
00000070: a482 8dbb f5f3 80bc 0899 813c da1c 92bb
00000080: 9fed d039 63a7 ac3b b789 413b 1615 663c
00000090: 5d14 04bc c35b 4c3c 12bf 713b af37 4bbc
000000a0: 379e 03bc 0000 0000 6cc6 d03b 5f39 253c
000000b0: 96d2 0bbc 5dbd d1bb 4048 293c 798f 7e3b
000000c0: d5a9 003c 4cbd 8ebb 2112 7eba 680b f13a
000000d0: 3f76 36bc 3c7f d2bb a770 bdba ff62 efb9
000000e0: 1c22 cbbb 6285 d0bb 1457 d73a cb03 263c
000000f0: 9e25 16bb 70f2 fbba 9d81 49bc e893 303c

base.actor.2.weight f4 [64, 64]
0.16809727 0.3318877 -0.12913425 0.07508694 -0.12819141 0.2456744 0.097101174 -0.18823604
-0.038357873 0.114478685 0.053391967 0.03749867 0.06975888 -0.15487038 -0.027913423 0.22522199
0.023812503 0.015421671 0.004718046 -0.15581472 -0.11493336 -0.12552126 -0.131935 0.21182245
-0.15792215 -0.15563023 0.15564646 -0.0053532873 -0.3641084 -0.21618141 0.2314726 -0.43135288
0.05282305 -0.14527461 -0.17852755 -0.06754288 -0.021500355 0.106014565 -0.17546433 -0.15728574
-0.109902084 -0.35530502 -0.14172761 0.42819238 -0.2526175 0.08740607 -0.08240222 0.31992698
0.049145833 0.07241101 -0.1301008 -0.0015148029 0.18352123 0.3766735 -0.034327388 -0.058840226
-0.13639113 -0.12859447 -0.039220303 -0.005860301 -0.14522749 0.048945006 0.1767449 0.2919961
-0.09401382 0.17177352 0.15896966 0.31118277 -0.24121799 -0.0906159 -0.18940005 -0.11018683
0.22484402 -0.25719228 -0.30615535 0.173923 0.08256515 -0.1437901 -0.030890884 -0.3540548
0.12293967 -0.19920388 0.28322226 -0.12598184 0.041473426 0.033572935 0.14511928 -0.06299793
0.06314894 0.15991855 0.13351344 0.04048703 -0.32527602 0.07488911 0.18336369 0.20473336
-0.043681882 0.15360647 -0.4212369 0.029909534 0.22991318 0.065866634 -0.055226278 -0.25185564
-0.052629642 0.051098716 -0.16449782 -0.07991524 -0.019240245 -0.23627336 -0.016038125 -0.025363721
0.09472496 0.14027216 0.18335183 0.11123 0.045530234 0.05671111 0.24668677 -0.08739048
0.49145523 -0.20962292 0.004553153 0.01948305 -0.031894602 -0.20362164 -0.0038079384 0.03645489
0.18535297 0.13520536 -0.21891506 0.01816261 -0.5971563 -0.104746394 0.081374176 0.19894709
0.08370492 -0.14483933 -0.052233264 -0.12135682 0.042912334 0.09052408 0.008505447 -0.33055127
-0.00970593 0.077319525 -0.34986687 0.076759644 0.073313706 -0.13777813 -0.11473891 -0.021205742
0.19109361 -0.18182005 -0.011334799 0.0028018928 0.022059837 0.24990222 0.09516477 0.0006278721
0.09240688 -0.12919335 0.19646211 0.040643856 0.20422289 0.10372831 -0.3510354 0.002258798
-0.06594497 0.030452145 -0.03544811 0.03828802 -0.020110657 -0.33081973 -0.47354716 0.0106668165
0.017599862 -0.49348435 0.018159889 -0.07522315 -0.18468563 0.10264012 -0.072581835 -0.072382554
-0.02974358 0.009318468 -0.020557169 -0.11479373 0.03914713 0.27519745 -0.06811762 -0.15448566
0.24853389 0.018123379 -0.13903092 0.22933333 0.18750031 0.21641131 -0.11904486 -0.023832789
-0.10332075 0.081637904 -0.14142117 -0.3058567 0.032899328 0.24952173 0.17102739 -0.33786282
0.21889727 0.38398087 0.1677731 -0.076255925 -0.17833763 -0.19391644 0.020616628 -0.3959457
-0.17273583 -0.14678426 0.069668286 -0.00032559817 0.24186675 0.06670183 -0.06816921 -0.27698302
-0.29068375 -0.081093654 0.14457011 0.059243485 0.006593474 -0.106891654 0.15004711 0.053637814
-0.0053578764 -0.23595369 0.17472082 -0.07819771 -0.12455916 -0.13082922 -0.03314808 -0.030664753
-0.108348556 0.094265506 -0.23989972 0.23208576 -0.04182392 0.2831726 0.07592533 0.018429173
0.35951465 0.17805305 0.2202056 0.21380465 0.11857995 -0.14243875 -0.03748536 -0.066119485
00000000: b121 2c3e 2fed a93e c53b 04be 2ec7 993d
00000010: 9c44 03be 1292 7b3e fbdc c63d f3c0 40be
00000020: 251d 1dbd cd73 ea3d 89b1 5a3d 3598 193d
00000030: bedd 8e3d 5796 1ebe b1aa e4bc 98a0 663e
00000040: 7012 c33c 2dab 7c3c d799 9a3b e58d 1fbe
00000050: 2e62 ebbd a588 00be f819 07be fce7 583e
00000060: 58b6 21be 885d 1fbe c961 1f3e a16a afbb
00000070: 6b6c babe a95e 5dbe 2707 6d3e 49da dcbe
00000080: fc5c 583d dec2 14be edcf 36be ec53 8abd
00000090: 8321 b0bc 2a1e d93d ecac 33be 830f 21be
000000a0: 5814 e1bd 8aea b5be 0b21 11be 083c db3e
000000b0: 1557 81be f401 b33d 7fc2 a8bd 78cd a33e
000000c0: 244d 493d 394c 943d 2539 05be 5a8c c6ba
000000d0: fdec 3b3e 59db c03e e09a 0cbd 7302 71bd
000000e0: 1eaa 0bbe 45ae 03be 78a5 20bd c507 c0bb
000000f0: 84b6 14be 8f7a 483d 9dfc 343e 8380 953e
00000100: 518a c0bd 66e5 2f3e f1c8 223e 5953 9f3e
00000110: d901 77be d494 b9bd 16f2 41be a2a9 e1bd
00000120: 833d 663e b5ae 83be 65c0 9cbe df18 323e
00000130: eb17 a93d b63d 13be e10e fdbc ac46 b5be
00000140: cbc7 fb3d 1afc 4bbe 8202 913e 6201 01be
00000150: 0ae0 293d c683 093d 269a 143e 0f05 81bd
00000160: 3b54 813d b0c1 233e bfb7 083e bad5 253d
00000170: 948a a6be 765f 993d b1c3 3b3e 9fa5 513e
00000180: c6eb 32bd 044b 1d3e 5dac d7be d704 f53c
00000190: 5c6e 6b3e 16e5 863d f334 62bd 39f3 80be
000001a0: 2e92 57bd e34c 513d 1e72 28be 9aaa a3bd
000001b0: b89d 9dbc a5f1 71be 6362 83bc 94c7 cfbc
000001c0: 29ff c13d 81a3 0f3e 95c0 3b3e 8ecc e33d
000001d0: e97d 3a3d e949 683d 759b 7c3e c8f9 b2bd
000001e0: 05a0 fb3e 64a7 56be 9e32 953b eb9a 9f3c
000001f0: eaa3 02bd 3182 50be 9b8e 79bb b951 153d
00000200: 2bcd 3d3e 4673 0a3e 452b 60be c1c9 943c
00000210: 3cdf 18bf 4785 d6bd 81a7 a63d c9b8 4b3e
00000220: 7c6d ab3d c350 14be 8cf2 55bd ed89 f8bd
00000230: d8c4 2f3d b064 b93d 6e5a 0b3c 043e a9be
00000240: 9f05 1fbc b359 9e3d c021 b3be 2934 9d3d
00000250: 7f25 963d b615 0dbe 3cfc eabd aab7 adbc
00000260: 0bae 433e 092f 3abe 98b5 39bc f69f 373b
00000270: d5b6 b43c 5ee6 7f3e bfe5 c23d c997 243a
00000280: d13f bd3d 434b 04be 5d2d 493e 2c7a 263d
00000290: ce1f 513e 826f d43d e9ba b3be 5808 143b
000002a0: 280e 87bd c776 f93c 0a32 11bd e6d3 1c3d
000002b0: 1bbf a4bc 3461 a9be c674 f2be dfc3 2e3c
000002c0: 962d 903c fba9 fcbe 0cc4 943c 980e 9abd
000002d0: 3b1e 3dbe fc34 d23d c9a5 94bd 4e3d 94bd
000002e0: cfa8 f3bc 7dac 183c 8267 a8bc fa18 ebbd
000002f0: be58 203d aee6 8c3e 4081 8bbd 7d31 1ebe
00000300: ab7f 7e3e 7b77 943c 1f5e 0ebe 5bd6 6a3e
00000310: 1500 403e ed9a 5d3e cbcd f3bd fb3c c3bc
00000320: d499 d3bd c631 a73d b6d0 10be 4099 9cbe
00000330: 72c1 063d a082 7f3e ce21 2f3e 5bfc acbe
00000340: 9b26 603e 2499 c43e b6cc 2b3e 112c 9cbd
00000350: 249e 36be 0892 46be 34e4 a83c 65b9 cabe
00000360: a9e1 30be 9d4e 16be 3fae 8e3d 0cb5 aab9
00000370: ebab 773e f89a 883d 4c9c 8bbd b8d0 8dbe
00000380: 80d4 94be 6e14 a6bd 300a 143e 4ca9 723d
00000390: 120e d83b 03ea dabd f3a5 193e 53b3 5b3d
000003a0: 2091 afbb d89d 71be 04ea 323e 1f26 a0bd
000003b0: df18 ffbd 18f8 05be 48c6 07bd a634 fbbc
000003c0: d9e5 ddbd 460e c13d 46a8 75be e4a7 6d3e
000003d0: 8f4f 2bbd 00fc 903e bd7e 9b3d c7f8 963c
000003e0: 4e12 b83e 8a53 363e 947d 613e 9bef 5a3e
000003f0: 0bda f23d 77db 11be 408a 19bd a769 87bd

base.actor.2.bias f4 [64]
0.010699647 -0.0021945955 0.0024214333 0.0031629845 0.0061462945 -0.010450938 -0.0059071835 0.033924963
0.0034905362 -0.013633932 0.017021142 -0.008680743 -0.008625965 -0.00493553 0.010482593 0.021192187
-0.00042962923 -0.00020853755 -0.008382099 -0.007913608 0.000774853 -0.0053312513 0.00072453386 -0.011895885
-0.0028847603 0.0025948612 0.0059799226 -0.007294419 -0.001649818 0.008359872 0.022679545 -0.008503998
-0.0024426528 -0.0029146415 0.0043381043 0.004916602 0.0021501498 0.006466059 -0.0059434758 -0.011903846
-0.011522411 -0.008484367 -0.005097896 -0.0073478566 0.0049638012 0.0011427783 -0.008122647 0.019290322
-0.009056865 0.0061038607 0.01355398 0.0014934543 -0.000414476 -0.001608283 0.0050501917 0.01023638
0.00036043767 0.018447503 -0.003561077 -0.010574525 0.0025621105 -0.013029811 0.009642017 0.009408323
00000000: 924d 2f3c 34d3 0fbb e9b0 1e3b 134a 4f3b
00000010: db66 c93b 693a 2bbc 0c91 c1bb e7f4 0a3d
00000020: 7bc1 643b db60 5fbc ec6f 8b3c ad39 0ebc
00000030: eb53 0dbc 3aba a1bb 2fbf 2b3c 3d9b ad3c
00000040: dc3f e1b9 dfaa 5ab9 1255 09bc 14a8 01bc
00000050: 811f 4b3a c7b1 aebb a5ee 3d3a f5e6 42bc
00000060: 3f0e 3dbb 8c0e 2a3b 3af3 c33b 0606 efbb
00000070: b53e d8ba d8f7 083c 74ca b93c 5a54 0bbc
00000080: ea14 20bb 9203 3fbb a826 8e3b 721b a13b
00000090: 87e9 0c3b 3ce1 d33b 7dc1 c2bb 5908 43bc
000000a0: 7fc8 3cbc 0402 0bbc 400c a7bb 4ac6 f0bb
000000b0: 62a7 a23b 47c9 953a da14 05bc bd06 9e3c
000000c0: 3f63 14bc e502 c83b 8311 5e3c 03c0 c33a
000000d0: 074e d9b9 06cd d2ba 147c a53b 7db6 273c
000000e0: 20f9 bc39 381f 973c f560 69bb c640 2dbc
000000f0: 15e9 273b fd7a 55bc 8df9 1d3c 5e25 1a3c

base.critic.0.weight f4 [64, 768]
-0.004445608 0.080841795 0.004874832 -0.013212576 0.005211617 -0.034630954 -0.052173045 0.016482186
-0.042999838 0.050611403 -0.05914877 0.03625962 -0.07779411 0.03271669 0.039375983 -0.03687569
-0.061619442 0.04060788 0.000572715 0.028784359 -0.098086216 -0.0019926608 -0.055231992 -0.079143435
0.051253334 0.013042117 0.08591388 0.04782111 -0.09492815 0.024249222 0.016442759 0.036674652
0.08009754 0.029151885 -0.019714419 -0.069284536 0.05829606 0.06383057 -0.0538363 0.040506706
0.086284466 0.105803035 -0.019498242 -0.042428147 0.0942638 0.008499673 -0.070413224 -0.010590837
0.013204513 -0.058881126 0.076872095 0.07242182 -0.039166406 0.038179602 0.06948701 -0.06517236
-0.028227558 0.08258204 0.03130264 0.0034221346 -0.016617868 0.03827202 -0.022243485 -0.017096844
-0.0062873187 -0.11854426 0.07216027 -0.032890115 0.03863174 -0.006447072 0.06267262 -0.035535004
0.03722103 0.08692582 -0.0154747665 -0.041105222 0.03680156 -0.10211458 0.109221525 0.010773564
-0.013947906 0.053308096 0.11090522 -0.022628533 -0.044891465 0.013236602 0.034604434 0.0114145465
-0.078618966 0.046664473 0.07047858 0.09340213 -0.03116485 0.034517426 0.01929778 -0.024753176
-0.07628637 0.035124198 -0.11326077 0.07229636 -0.048819017 0.022207351 0.020339068 0.003215852
-0.0962759 -0.047732025 0.0038367345 -0.06712993 0.06973288 -0.022607453 0.010411415 -0.045567535
-0.09354216 -0.06438817 -0.0032017303 -0.107983455 0.042827047 -0.069739535 -0.012556562 -0.048119932
-0.049157344 -0.0055142622 0.0481919 0.08296956 0.096845426 0.05097778 0.0009794148 0.0151909795
-0.014460557 0.042350415 -0.013779575 0.0159999 0.027839694 0.032880016 -0.061027862 -0.028017541
-0.0033599595 -0.0456681 0.024521794 -0.010393416 0.046823088 -0.006664479 0.042959776 -0.006289027
0.031925477 -0.059033148 0.048865374 -0.093791254 -0.110993706 -0.006806972 0.047603957 0.02096357
0.06066904 -0.081395224 -0.021254059 0.0036388712 -0.06040273 -0.025812548 0.05637664 -0.04524184
-0.02758113 -0.011340871 -0.04404246 0.058977827 -0.0024708298 -0.03368908 -0.057973064 -0.01760532
-0.0700054 0.05914962 0.0346019 0.021318529 0.008195928 -0.041441686 -0.030175775 0.07356857
-0.06403204 -0.082019925 0.06275003 -0.025906147 0.022252474 0.050264593 0.031946152 0.03250468
0.014610906 -0.046522867 -0.01146533 0.03719645 -0.04602182 -0.014284835 0.04305906 0.08731742
-0.06252684 0.043677546 -0.042343013 0.04050364 0.04923905 0.0907121 -0.023110678 0.019057278
-0.0009820863 -0.050969098 -0.022089789 -0.010859186 0.022192983 -0.041669067 -0.06895177 0.063735
-0.03333041 -0.06644192 0.034125105 0.035136398 -0.04925812 -0.022124948 0.07274509 -0.033008173
0.041790985 0.018602483 0.06408684 -0.066482626 -0.03399092 0.030808771 -0.0034656893 0.04881443
-0.067150794 0.098464735 -0.08665666 -0.013752163 0.010553815 0.005473894 0.048148792 0.080996
-0.010671922 -0.046788923 0.015820188 -0.05232257 -0.0962732 0.005745762 0.0075346325 -0.021245591
-0.02895223 0.018247265 0.08668113 -0.048238736 0.004038827 -0.057950377 -0.08525418 -0.083089426
-0.037233457 0.054853406 0.040712316 -0.0039182114 0.05175324 0.0076331543 0.009697097 0.02546501
00000000: 76ac 91bb 6290 a53d 0ebd 9f3b 8f79 58bc
00000010: 36c6 aa3b 30d9 0dbd 67b3 55bd a605 873c
00000020: 9920 30bd e74d 4f3d fb45 72bd f884 143d
00000030: 8552 9fbd f001 063d b648 213d f70a 17bd
00000040: ab64 7cbd 7354 263d 4122 163a 2dcd eb3c
00000050: 6de1 c8bd 4d97 02bb f13a 62bd f415 a2bd
00000060: 04ef 513d 9aae 553c 9ef3 af3d 11e0 433d
00000070: b169 c2bd 4ea6 c63c f7b2 863c 2938 163d
00000080: 2e0a a43d efcf ee3c 2280 a1bc 0de5 8dbd
00000090: d9c7 6e3d 9ab9 823d 7483 5cbd 5cea 253d
000000a0: e9b5 b03d 43af d83d c7ba 9fbc 23c9 2dbd
000000b0: 610d c13d 3642 0b3c cf34 90bd 3185 2dbc
000000c0: be57 583c 562d 71bd 1e6f 9d3d e451 943d
000000d0: f46c 20bd 3762 1c3d 354f 8e3d 1679 85bd
000000e0: 7b3d e7bc c620 a93d 3237 003d e445 603b
000000f0: 3222 88bc 1fc3 1c3d f837 b6bc ae0e 8cbc
00000100: da05 cebb 55c7 f2bd c3c8 933d c9b7 06bd
00000110: 513c 1e3d f641 d3bb 815a 803d 278d 11bd
00000120: 1475 183d 2a06 b23d e089 7dbc f35d 28bd
00000130: 3cbd 163d 7321 d1bd 89af df3d 9a83 303c
00000140: c285 64bc 9759 5a3d 4722 e33d 795f b9bc
00000150: 1de0 37bd 55de 583c 61bd 0d3d 1404 3b3c
00000160: fb02 a1bd 3f23 3f3d 1357 903d 9e49 bf3d
00000170: 6d4d ffbc 2562 0d3d 6116 9e3c 2cc7 cabc
00000180: 073c 9cbd 64de 0f3d 43f5 e7bd 1d10 943d
00000190: 73f6 47bd 31ec b53c 1e9e a63c 0bc1 523b
000001a0: 4d2c c5bd a882 43bd b971 7b3b 6b7b 89bd
000001b0: 1dd0 8e3d 4433 b9bc a494 2a3c 06a5 3abd
000001c0: 0893 bfbd f2dd 83bd 1fd4 51bb 6e26 ddbd
000001d0: 6a6b 2f3d 9ad3 8ebd 0aba 4dbc 6819 45bd
000001e0: 3659 49bd fcb0 b4bb df64 453d f2eb a93d
000001f0: e556 c63d 14ce 503d b55f 803a 96e3 783c
00000200: f9eb 6cbc a177 2d3d bac3 61bc 3912 833c
00000210: 1210 e43c 32ad 063d 5af8 79bd 0b85 e5bc
00000220: c432 5cbb 790e 3bbd eee1 c83c 2549 2abc
00000230: 91c9 3f3d b461 dabb 97f6 2f3d 2f14 cebb
00000240: 4ac4 023d becc 71bd 0f27 483d a115 c0bd
00000250: ab50 e3bd 050d dfbb 5efc 423d cbbb ab3c
00000260: 1980 783d 8ab2 a6bd fe1c aebc 217a 6e3b
00000270: da68 77bd d674 d3bc 31eb 663d 824f 39bd
00000280: d2f1 e1bc 10cf 39bc de65 34bd bc92 713d
00000290: a5ed 21bb 90fd 09bd 2a75 6dbd 0839 90bc
000002a0: fe5e 8fbd df46 723d b9ba 0d3d 32a4 ae3c
000002b0: 3748 063c c2be 29bd 3033 f7bc 1eab 963d
000002c0: 3b23 83bd 10fa a7bd 1683 803d 2139 d4bc
000002d0: d24a b63c 3fe2 4d3d f8d9 023d a123 053d
000002e0: 9562 6f3c c38e 3ebd 14d9 3bbc 4e5b 183d
000002f0: 6081 3cbd f10a 6abc b25e 303d 7ad3 b23d
00000300: 120e 80bd 3ae7 323d de6f 2dbd 25e7 253d
00000310: e3ae 493d 44c7 b93d 9b52 bdbc 021e 9c3c
00000320: 59b9 80ba f9c4 50bd a5f5 b4bc baea 31bc
00000330: 0fce b53c 2fad 2abd 9636 8dbd 7f87 823d
00000340: 7885 08bd b412 88bd c4c6 0b3d 2feb 0f3d
00000350: e2c2 49bd 613f b5bc 61fb 943d 9433 07bd
00000360: 062d 2b3d 3c64 983c f63f 833d 0b28 88bd
00000370: 103a 0bbd ad62 fc3c 9e20 63bb a4f1 473d
00000380: 5b86 89bd e1a7 c93d 0c79 b1bd c150 61bc
00000390: e9e9 2c3c 5a5e b33b ab37 453d 3be1 a53d
000003a0: 49d9 2ebc bea5 3fbd 5799 813c 3150 56bd
000003b0: e22a c5bd f246 bc3b 14e5 f63b 3c0b aebc
000003c0: 3a2d edbc 4a7b 953c e085 b13d fb95 45bd
000003d0: 2358 843b 605d 6dbd be99 aebd ca2a aabd
000003e0: 1c82 18bd f7ad 603d f5c1 263d 5764 80bb
000003f0: 35fb 533d 8a1f fa3b 93e0 1e3c ff9b d03c

base.critic.0.bias f4 [64]
0.01341483 -0.004829627 0.000312243 0.013740356 0.0039635147 -0.0053313803 -0.008220674 -0.0051686545
0.010526703 -0.0072640055 0.011524605 -0.007718292 0.012734224 0.0032179637 0.0068526245 -0.008197882
-0.005329341 -0.0077396315 0.0016252954 -0.0091880625 -0.0027857698 0.011875299 -0.0073867897 0.003102739
0.016599251 -0.009977311 0.006515334 -0.0029860493 -0.009107963 -0.0057035103 0.010377654 -0.0075815665
0.009943836 -0.004677072 -0.007359594 0.001158572 -0.009477837 -0.0009433817 0.002899819 -0.007438873
-0.007653869 -0.0055308063 -0.0083908485 -0.0052861082 -0.0027931395 0.006370581 -0.0022685195 0.014630567
0.0048750946 0.0054329047 0.009831156 -0.0050181895 -0.010970802 0.0126957055 0.0042559598 -0.008722685
-0.004650598 -0.006549843 0.0164587 -0.0067044892 -0.007969924 -0.00021270914 -0.003386752 -0.00073019357
00000000: e0c9 5b3c d941 9ebb 8cb4 a339 3b1f 613c
00000010: 5fe0 813b dcb2 aebb 01b0 06bc d15d a9bb
00000020: 3178 2c3c e506 eebb b2d1 3c3c bae9 fcbb
00000030: 35a3 503c 79e4 523b fb8b e03b 6950 06bc
00000040: c1a1 aebb bc9c fdbb dd07 d53a 8789 16bc
00000050: 7691 36bb 9d90 423c e20c f2bb 5357 4b3b
00000060: 27fb 873c e077 23bc 957e d53b 98b1 43bb
00000070: 9139 15bc 83e4 babb 0907 2a3c ca6e f8bb
00000080: 79eb 223c 2042 99bb c028 f1bb 3adb 973a
00000090: ee48 1bbc 464d 77ba e40a 3e3b cac1 f3bb
000000a0: 4fcd fabb c43b b5bb c579 09bc 1737 adbb
000000b0: 1b0d 37bb 4fc0 d03b 71ab 14bb 0cb5 6f3c
000000c0: 42bf 9f3b 8206 b23b db12 213c a06f a4bb
000000d0: e1be 33bc a601 503c 9475 8b3b 98e9 0ebc
000000e0: 0b64 98bb 11a0 d6bb 65d4 863c 55b1 dbbb
000000f0: 4994 02bc ad0a 5fb9 45f4 5dbb 766a 3fba

base.critic.2.weight f4 [64, 64]
0.34226802 -0.009354734 -0.008594612 0.2327743 0.22814773 -0.007342237 -0.002499445 0.1373154
-0.039993357 -0.20855977 0.042713284 -0.12644824 0.4217347 0.047788966 -0.16943721 -0.3820962
0.085239746 0.04008831 0.18570589 0.025101222 0.12726729 -0.22444163 0.33180165 0.26928583
-0.04985826 0.05291589 0.14907168 0.041468777 -0.17773293 0.14256851 -0.348453 -0.03542439
0.020270733 -0.092406176 -0.013074085 -0.34192774 0.040220965 -0.24575093 0.0019862726 -0.049239635
-0.35181713 0.17943087 0.2365874 -0.15164755 -0.17880088 0.107384846 0.17047845 0.045763265
-0.19860679 0.057488136 -0.12578249 -0.017701795 0.3503033 -0.052110814 0.049355943 -0.26818174
0.09532827 0.12269424 -0.07801912 0.051642675 -0.10143714 0.1796244 -0.00685933 0.15274973
0.18842821 -0.07406803 -0.38931242 -0.13009195 -0.24660036 -0.08410845 -0.106594875 -0.22161531
-0.28343377 0.12027513 0.18507437 0.044719327 0.18330584 0.35268825 -0.075436085 -0.034453616
0.043149535 0.1680684 0.10367532 -0.11115681 0.19434054 -0.23853496 -0.12794921 -0.045875773
0.14910723 0.050460316 -0.08605382 0.20634378 0.2634903 -0.21665019 0.23559223 -0.2675223
-0.1561518 0.08140055 0.11466974 -0.18867216 -0.2439046 0.09100206 0.03048864 -0.22069956
0.14600214 0.054077443 0.1610681 0.2179786 -0.46426535 -0.10845638 -0.009524397 -0.24933584
-0.0029948293 -0.01877 -0.13359204 0.18058144 0.11554092 0.18923907 -0.104856975 -0.027241195
0.09410642 0.111620106 0.06401453 -0.10550316 0.003807087 -0.21361257 0.31344482 -0.0910312
-0.068414114 0.10025665 -0.025913762 -0.077331915 0.06175473 0.0015220849 0.35415486 0.062414274
-0.51209426 0.10989178 0.053511728 -0.043021668 -0.067670904 0.06412952 -0.2915685 -0.09170693
-0.12134125 0.4201467 0.009910777 -0.01004289 -0.3875892 -0.08721067 -0.2506186 -0.05256676
0.06076856 0.21039 -0.1729317 -0.0609804 -0.005586423 -0.22328277 -0.17059861 -0.34281915
-0.16831405 -0.01583905 -0.006615355 0.03951646 -0.13724993 0.14198631 -0.016864778 -0.02786725
-0.1159151 -0.0659669 -0.106843546 -0.30499092 0.3403128 0.025242705 0.0037782646 0.050557934
0.029002337 0.29383826 -0.02714459 0.07057538 -0.01670831 -0.085974455 0.26915762 -0.1230275
0.04040232 -0.056399956 -0.0782974 -0.31964782 0.123108886 0.068993986 -0.09069483 0.35823476
-0.20580167 0.044945266 0.072077624 0.27681905 -0.055618722 0.097868145 0.2842554 -0.10640985
-0.07917898 -0.40974486 -0.10055668 0.16980006 -0.13878362 2.272658e-06 0.07025347 0.18372957
0.16426691 0.11320482 0.43964177 -0.048661646 -0.08183799 0.020260863 0.13524549 -0.11541831
0.10889393 0.08253475 -0.120564595 -0.0058628186 0.10661574 0.12811773 0.34133783 0.035361327
0.2584544 0.019401139 0.35185078 -0.11110463 0.1187227 -0.35064492 0.21161787 0.009269031
-0.20147978 -0.543247 0.08645948 -0.014127734 -0.09690056 -0.16648626 0.08126219 -0.21740073
0.04132712 0.112604685 -0.024688184 0.160639 0.010245538 -0.28281942 0.026803223 -0.10687287
-0.14046268 -0.07364983 0.05312617 -0.14050725 -0.06024738 0.079551205 0.11952952 -0.06848597
00000000: c13d af3e 9944 19bc 6ad0 0cbc 635c 6e3e
00000010: 8f9f 693e 2697 f0bb bbcd 23bb 699c 0c3e
00000020: 13d0 23bd b190 55be 20f4 2e3d a67b 01be
00000030: 9ced d73e 5dbe 433d f380 2dbe 1da2 c3be
00000040: 2d92 ae3d a433 243d af29 3e3e 14a1 cd3c
00000050: 5b52 023e 07d4 65be e8e1 a93e d5df 893e
00000060: 2d38 4cbd 55be 583d 3fa6 183e 2adb 293d
00000070: 9fff 35be 7bfd 113e 6e68 b2be 2a19 11bd
00000080: cf0e a63c 733f bdbd b034 56bc 2711 afbe
00000090: bdbe 243d 22a6 7bbe 202c 023b 80af 49bd
000000a0: 6021 b4be babc 373e f843 723e 7f49 1bbe
000000b0: 9417 37be 96ec db3d e791 2e3e 4372 3b3d
000000c0: 945f 4bbe ae78 6b3d 20cd 00be 5b03 91bc
000000d0: f45a b33e 2672 55bd 7529 4a3d 1e4f 89be
000000e0: 783b c33d 1e47 fb3d 7dc8 9fbd 4587 533d
000000f0: 46be cfbd 75ef 373e 3bc4 e0bb 6d6a 1c3e
00000100: 53f3 403e fbb0 97bd f553 c7be d336 05be
00000110: ce84 7cbe 0d41 acbd 6a4e dabd 20ef 62be
00000120: 3b1e 91be cf52 f63d 2384 3d3e 9d2b 373d
00000130: 87b4 3b3e 8e93 b43e 3c7e 9abd 3c1f 0dbd
00000140: 91bd 303d 1f1a 2c3e ba53 d43d 2ea6 e3bd
00000150: 3501 473e 8242 74be 1e05 03be 3ce8 3bbd
00000160: 91af 183e 7aaf 4e3d fc3c b0bd c94b 533e
00000170: 33e8 863e 8cd9 5dbe 173f 713e aff8 88be
00000180: 42e6 1fbe 55b5 a63d f8d7 ea3d 4633 41be
00000190: 21c2 79be 4a5f ba3d 50c3 f93c 11ff 61be
000001a0: 9681 153e 4f80 5d3d 09ef 243e c835 5f3e
000001b0: 30b4 edbe 611e debd 370c 1cbc e551 7fbe
000001c0: e644 44bb 8bc3 99bc 5acc 08be 57ea 383e
000001d0: b8a0 ec3d e3c7 413e 41bf d6bd ed28 dfbc
000001e0: deba c03d 1599 e43d 0d1a 833d 0a12 d8bd
000001f0: 5280 793b 41bd 5abe d77b a03e 916e babd
00000200: b31c 8cbd 5c53 cd3d 1949 d4bc 3260 9ebd
00000210: 87f2 7c3d b280 c73a c953 b53e 1ca6 7f3d
00000220: 9c18 03bf f10e e13d 1d2f 5b3d 7d37 30bd
00000230: 0b97 8abd 5656 833d 7748 95be d8d0 bbbd
00000240: c381 f8bd 781d d73e d060 223c ef8a 24bc
00000250: 1772 c6be 829b b2bd 1551 80be 3e50 57bd
00000260: 74e8 783d 7a70 573e 0215 31be 95c6 79bd
00000270: 500e b7bb 3da4 64be 67b1 2ebe fe85 afbe
00000280: 855a 2cbe e5c0 81bc 9fc5 d8bb 03dc 213d
00000290: 3f8b 0cbe dc64 113e 0128 8abc dc49 e4bc
000002a0: e564 edbd a719 87bd cad0 dabd c527 9cbe
000002b0: 7b3d ae3e cac9 ce3c c39c 773b d615 4f3d
000002c0: 4f96 ed3c f871 963e 555e debc d389 903d
000002d0: dedf 88bc 6013 b0bd 07cf 893e d8f5 fbbd
000002e0: e77c 253d a403 67bd 635a a0bd e1a8 a3be
000002f0: 8320 fc3d b84c 8d3d 36be b9bd 8c6a b73e
00000300: acbd 52be 8718 383d 6f9d 933d 3abb 8d3e
00000310: 75d0 63bd 186f c83d ec89 913e 68ed d9bd
00000320: 9728 a2bd 14ca d1be a9f0 cdbd 11e0 2d3e
00000330: 4b1d 0ebe f883 1836 0de1 8f3d 9b23 3c3e
00000340: 9635 283e eed7 e73d ba18 e13e 6f51 47bd
00000350: ad9a a7bd 1cfa a53c cb7d 0a3e 6f60 ecbd
00000360: c803 df3d fb07 a93d 92ea f6bd e31c c0bb
00000370: 5a59 da3d 4b31 033e d5c3 ae3e 0ad7 103d
00000380: 2354 843e 23ef 9e3c c925 b43e d38a e3bd
00000390: e324 f33d bb87 b3be 5bb2 583e 22dd 173c
000003a0: b750 4ebe 3c12 0bbf ab11 b13d 0378 67bc
000003b0: cd73 c6bd 607b 2abe cb6c a63d 4c9e 5ebe
000003c0: a046 293d 499d e63d e03e cabc 8d7e 243e
000003d0: e7dc 273c b5cd 90be 6f92 db3c 2ae0 dabd
000003e0: 73d5 0fbe b9d5 96bd d49a 593d 22e1 0fbe
000003f0: f5c5 76bd beeb a23d e5cb f43d 5f42 8cbd

base.critic.2.bias f4 [64]
0.012931073 0.002211829 -0.0087196855 -0.012377343 -0.00849844 -0.00787679 -0.013139158 -0.0062928963
-0.011951603 -0.016291454 0.008715307 0.0 -0.0031015435 0.0011171625 0.00094566244 0.009274552
0.00089998014 0.0014104116 0.010263732 -0.0021642211 -0.012490946 -0.0088829035 -0.0058762347 0.005977202
0.012586093 -0.0048728855 0.014851503 -0.0076206475 -0.006667348 0.012782755 0.013178845 -0.010592611
-0.01231221 -0.010122505 -0.008117506 0.018980853 0.013062632 0.0125875175 -0.00039624123 0.013810873
-0.00044315663 -0.012641341 0.008086809 0.013008464 -0.006613189 -0.00052178977 -0.009301682 -0.003368874
0.0077077057 0.012921831 -0.0086424975 -0.0018945803 0.012118814 0.00041916216 -0.011014079 0.014161761
-0.005045123 0.014060957 -0.0053615817 0.004061887 -0.014485438 0.0125916395 -0.0102161905 0.0055739223
00000000: dadc 533c 55f4 103b 03dd 0ebc 57ca 4abc
00000010: 0a3d 0bbc a70d 01bc 9f45 57bc a434 cebb
00000020: a8d0 43bc a875 85bc a6ca 0e3c 0000 0000
00000030: 4443 4bbb c16d 923a 55e6 773a 4af4 173c
00000040: a5ec 6b3a 8fdd b83a 3629 283c 9bd5 0dbb
00000050: d3a6 4cbc 9989 11bc 6e8d c0bb 68dc c33b
00000060: e635 4e3c baac 9fbb b853 733c a0b6 f9bb
00000070: c579 dabb c36e 513c 15ec 573c a18c 2dbc
00000080: 27b9 49bc ddd8 25bc 4aff 04bc bc7d 9b3c
00000090: a604 563c e03b 4e3c 99be cfb9 0047 623c
000000a0: 7a57 e8b9 a11d 4fbc 897e 043c 7421 553c
000000b0: 73b3 d8bb b8c8 08ba 1566 18bc 54c8 5cbb
000000c0: ec90 fc3b 16b6 533c 4399 0dbc 9153 f8ba
000000d0: fd8d 463c fec2 db39 6574 34bc bb06 683c
000000e0: 8f51 a5bb ee5f 663c 35b0 afbb 9419 853b
000000f0: 5554 6dbc 2a4d 4e3c cf61 27bc 73a5 b63b

base.critic_linear.weight f4 [1, 64]
0.113489844 0.05984827 -0.06738981 -0.076237574 -0.04253912 -0.002237421 -0.2253664 -0.060988028
-0.105895095 -0.10270159 0.18393782 0.033713095 0.20657326 0.15747525 0.32767752 0.17725553
-0.08101 0.24434279 0.22890685 0.07680247 -0.052310683 -0.20347914 -0.45641455 0.14240198
0.08763856 -0.06862177 0.07743127 -0.34146437 -0.15609698 0.09000671 0.07554774 -0.24708179
-0.12824291 -0.052556623 -0.08904732 0.10338738 0.3880762 0.324451 -0.2994304 0.09235027
-0.006938565 -0.020450236 0.039216034 0.025230488 -0.022497784 0.1292717 -0.22138728 0.3506204
0.25138557 0.07362196 -0.2613331 0.17385961 0.21982983 0.003164514 -0.28716853 0.19305064
0.004323969 0.07253114 -0.03946824 0.07464559 -0.13474664 0.04230923 -0.106243595 -0.07602104
00000000: 5d6d e83d 7623 753d ab03 8abd 7222 9cbd
00000010: 803d 2ebd b2a1 12bb 73c6 66be 95ce 79bd
00000020: 87df d8bd 3655 d2bd 325a 3c3e be16 0a3d
00000030: f187 533e 3141 213e 59c5 a73e 7982 353e
00000040: 92e8 a5bd ff34 7a3e 8f66 6a3e 9d4a 9d3d
00000050: ba43 56bd d65c 50be 2baf e9be d3d1 113e
00000060: d87b b33d 9289 8cbd 4994 9e3d 6bd4 aebe
00000070: e3d7 1fbe 7055 b83d c6b8 9a3d 0203 7dbe
00000080: 1c52 03be 9d45 57bd 715e b6bd c3bc d33d
00000090: ecb1 c63e 711e a63e f14e 99be 2322 bd3d
000000a0: e75c e3bb 4187 a7bc fea0 203d 2bb0 ce3c
000000b0: 464d b8bc cd5f 043e 59b3 62be 8484 b33e
000000c0: 9cb5 803e 1cc7 963d 74cd 85be 4108 323e
000000d0: 121b 613e bc63 4f3b c107 93be 11af 453e
000000e0: 15b0 8d3b 358b 943d 73a9 21bd c9df 983d
000000f0: 06fb 09be 714c 2d3d 3e96 d9bd ebb0 9bbd

dist.linear.weight f4 [7, 64]
-0.004499845 0.0069116997 0.004522072 0.010861257 0.007073127 0.0013703451 0.002486941 0.012269396
0.0059988927 0.006886752 0.012786306 -0.0062163984 0.0035522492 0.00018772685 0.0065095043 0.0044683376
-0.009878681 0.0033779365 -0.0009724386 -0.008676895 0.003238271 0.0057322904 0.007025589 -0.00063102366
0.008967563 -0.0080996035 0.0046450435 0.0037836803 0.0049228314 -0.006408057 0.0030435286 0.0056367326
-0.0065467814 0.0025941664 0.003191688 -0.0085242735 0.0037465803 0.013453993 0.00119702 0.0055041267
-0.0015629097 0.011046335 -0.0058749323 0.012890794 0.013252622 -0.0031441431 -0.001804197 -0.006597864
0.00038067857 0.014997355 -0.015044515 0.012917864 0.01124907 0.010292778 0.009822891 0.009100331
0.001518921 0.00853744 0.00268042 -0.0016301415 0.00506084 0.003985431 -0.004425838 -0.00979476
0.03386149 0.006406037 0.0010690107 0.013372891 0.015270751 -0.0045937146 -0.0024464484 0.029397316
0.022273904 -0.006392597 0.03452369 0.005551215 -0.0034226393 -0.003299638 0.027076855 0.030642971
-0.008917537 0.004426715 -0.0046687797 -0.0028823484 -0.008914188 0.017636351 0.027720595 0.012396199
0.0137447035 0.04366364 0.011799618 -0.003968083 -0.0015877121 0.020598924 0.0173554 0.00465333
-0.004407319 0.008544575 0.006042121 0.024420196 -0.00814853 0.011259389 0.006518794 -0.0016343549
0.0053681275 0.003616471 0.0012188999 0.010107472 0.020066224 -0.0013435329 -0.005900612 0.015855357
-0.0016946105 0.010038578 0.009877654 0.011108286 0.0032014328 0.0059052003 0.014098565 0.03592351
-0.0016697381 0.03440376 -0.008634813 0.008310663 0.025976839 0.008193125 0.024680242 0.025492514
-0.004370051 0.005582818 0.0012020085 0.007475045 -0.013113992 -0.0010254165 -0.008684891 -0.0006134688
-0.009038885 0.00014875756 0.0040108245 -0.006164135 -0.0009266474 -0.002241489 -0.0072304322 -0.014953353
-0.009482696 -0.0086775655 0.0008894786 0.0031426693 -0.0075601437 -0.011191819 0.010176421 -0.0037278184
0.007655096 0.021259215 0.018954515 -0.0056927856 -0.004833589 -0.0369081 -0.019869592 -0.0008713258
0.005318951 -0.003484911 -0.0057158777 0.0016387741 -0.0035694037 -0.00560552 -0.010126174 0.0031390819
-0.0010570167 -0.006542152 -0.0005052348 -0.010895921 -0.011532152 -0.001505553 -0.0074157557 0.01697503
0.002165428 -0.009334317 -0.023556093 0.00089900487 -0.012802435 0.0047806418 -0.0024574494 -0.008453228
-0.0018417272 -0.006412059 0.0004310924 -0.0040871412 -0.005190204 -0.019754725 -0.012244559 -0.010825021
0.0028552907 0.0027464016 -0.0068466966 -0.01767496 0.005511643 0.0072735846 0.009572281 -0.024924159
-0.020065457 0.0016239424 -0.029297827 0.007596556 0.0039323135 0.013348175 -0.016744735 0.008838761
0.005947316 0.012749577 0.0061561605 0.007823211 0.0012035564 -0.005062901 -0.00013730915 0.0009127453
-0.009944213 -0.007582525 -0.00640549 0.010274343 0.0077731707 0.007975695 -0.024578478 0.00070409727
0.0050334316 -0.0058588376 -0.0013508665 -0.008240815 0.0046167336 0.0090361405 -0.007145018 -0.00115569
-0.009993316 -0.0031318422 0.0015072162 0.016217925 -0.0073368633 -0.004641078 0.0024707709 -0.029399987
0.004188142 -0.010199609 -0.018832024 -0.004113394 -0.0010485769 0.003111837 -0.012746359 -0.019237563
-0.0032283582 -0.007824589 0.0030318336 0.0019065986 -0.0171834 0.0017961989 -0.0013347154 -0.0005529808
00000000: 7073 93bb 8a7b e23b e42d 943b 6af3 313c
00000010: b1c5 e73b 279d b33a f2fb 223b 9405 493c
00000020: 5c92 c43b 43aa e13b a87d 513c eeb2 cbbb
00000030: dacc 683b 8bd8 4439 ae4d d53b 226b 923b
00000040: 31da 21bc 5f60 5d3b 40eb 7eba 8929 0ebc
00000050: 2c39 543b f0d5 bb3b e936 e63b 486b 25ba
00000060: afec 123c 33b4 04bc 7335 983b 9ff7 773b
00000070: b44f a13b aefa d1bb f075 473b 57b4 b83b
00000080: 6286 d6bb e402 2a3b a42b 513b 65a9 0bbc
00000090: 3089 753b 236e 5c3c 54e5 9c3a f65b b43b
000000a0: 8cda ccba b0fb 343c 8182 c0bb e933 533c
000000b0: 8721 593c f80d 4ebb ce7a ecba e532 d8bb
000000c0: d095 c739 77b7 753c 457d 76bc 73a5 533c
000000d0: 054e 383c 0aa3 283c 31f0 203c 8e19 153c
000000e0: 8816 c73a 9ee0 0b3c fca9 2f3b 79aa d5ba
000000f0: 67d5 a53b 3898 823b 9f06 91bb 337a 20bc
00000100: 59b2 0a3d bce9 d13b 0c1e 8c3a f819 5b3c
00000110: 2c32 7a3c df86 96bb 9854 20bb a4d2 f03c
00000120: c377 b63c fe78 d1bb b668 0d3d f7e6 b53b
00000130: 5c4e 60bb bd3e 58bb 48d0 dd3c f806 fb3c
00000140: dc1a 12bc fa0d 913b 90fc 98bb c8e5 3cbb
00000150: d00c 12bc 1c7a 903c 4d16 e33c 6d19 4b3c
00000160: 7731 613c a5d8 323d 2f53 413c b106 82bb
00000170: c71a d0ba 13bf a83c e92c 8e3c f67a 983b
00000180: 456b 90bb 8cfe 0b3c fcfc c53b dd0c c83c
00000190: 6981 05bc 4d79 383c 9c9b d53b da37 d6ba
000001a0: 1ee7 af3b 5102 6d3b 7ec3 9f3a cf99 253c
000001b0: ec61 a43c 7c19 b0ba ec59 c1bb 18e3 813c
000001c0: b11d deba d978 243c e2d5 213c 87ff 353c
000001d0: 21cf 513b 6980 c13b abfd 663c 8824 133d
000001e0: 1ddb daba f5ea 0c3d 0879 0dbc 7229 083c
000001f0: 61cd d43c 753c 063c 382e ca3c add5 d03c
00000200: a532 8fbb 12f0 b63b b68c 9d3a 39f1 f43b
00000210: 12dc 56bc 4567 86ba 134b 0ebc 32d1 20ba
00000220: d517 14bc cefb 1b39 3c6d 833b 83fc c9bb
00000230: 41ea 72ba f2e5 12bb 43ed ecbb e9fe 74bc
00000240: 4f5d 1bbc 592c 0ebc e62b 693a 3ef5 4d3b
00000250: 15bb f7bb e45d 37bc 01bb 263c 6a4e 74bb
00000260: 99d7 fa3b ce27 ae3c 8046 9b3c 8c8a babb
00000270: 1563 9ebb f32c 17bd 8ec5 a2bc af69 64ba
00000280: 984a ae3b 1b63 64bb 424c bbbb 22cc d63a
00000290: a8ec 69bb 83ae b7bb 41e8 25bc 0eb9 4d3b
000002a0: 988b 8aba 8c5f d6bb bc71 04ba ce84 32bc
000002b0: 5af1 3cbc fa55 c5ba deff f2bb 380f 8b3c
000002c0: dae9 0d3b f7ee 18bc b5f8 c0bc 32ab 6b3a
000002d0: 4ec1 51bc eea6 9c3b 290d 21bb 687f 0abc
000002e0: 1c66 f1ba 401c d2bb 3e04 e239 6ded 85bb
000002f0: 9612 aabb a9d4 a1bc 679d 48bc 6e5b 31bc
00000300: d41f 3b3b f9fc 333b 415a e0bb 14cb 90bc
00000310: 039b b43b 4057 ee3b 0ed5 1c3c c02d ccbc
00000320: 5060 a4bc 77da d43a ff01 f0bc 88ec f83b
00000330: a3da 803b 4eb2 5a3c 412c 89bc 73d0 103c
00000340: b4e1 c23b 9ae3 503c 9eb9 c93b ed2c 003c
00000350: a7c0 9d3a b1e6 a5bb a5fa 0fb9 4d45 6f3a
00000360: 0ded 22bc d476 f8bb 25e5 d1bb b855 283c
00000370: 15b6 fe3b 7dac 023c ce58 c9bc 2b93 383a
00000380: 7cef a43b 7efb bfbb 8f0f b1ba 7c04 07bc
00000390: f847 973b 520c 143c c120 eabb 867a 97ba
000003a0: 01bb 23bc 983f 4dbb c98d c53a 74db 843c
000003b0: 126a f0bb 2f14 98bb a8ec 213b 3ed8 f0bc
000003c0: ae3c 893b 431c 27bc 9e45 9abc a6c9 86bb
000003d0: 6770 89ba f6ef 4b3b 1bd6 50bc 1898 9dbc
000003e0: dd92 53bb b432 00bc bab1 463b d5e6 f93a
000003f0: 34c4 8cbc 6f6e eb3a 9ef1 aeba eaf5 10ba

dist.linear.bias f4 [7]
0.007148157 0.01592596 -0.00445169 -0.007130043 -0.0068702586 0.0021978288 -0.008239462
00000000: 163b ea3b 2977 823c 7bdf 91bb 23a3 e9bb
00000010: e81f e1bb 7309 103b cffe 06bc
